src/demo/anomaly_detection/model_checkpoints/cookie/ae_base_model.pt (torch, 292208 bytes, 32 tensors)

encoder.0.weight f4 [1, 1, 5, 5]
0.012411546 0.09988109 -0.07978194 -0.11054838 0.031412728 -0.08198092 -0.11970178 -0.18755051
-0.1981142 0.024094885 -0.09826047 -0.4168411 -0.4036154 -0.19195384 -0.15117885 0.05838188
-0.15242808 -0.4254615 -0.15692088 -0.07352777 0.06828675 0.036882922 -0.18303777 -0.06973863
0.066216916
00000000: cc59 4b3c 758e cc3d b764 a3bd 3067 e2bd
00000010: a2aa 003d 9de5 a7bd 3526 f5bd 3e0d 40be
00000020: 73de 4abe a362 c53c c93c c9bd 326c d5be
00000030: ada6 cebe 8c8f 44be a1ce 1abe d721 6f3d
00000040: 1b16 1cbe 17d6 d9be deaf 20be ba95 96bd
00000050: ecd9 8b3d 8c12 173d 416e 3bbe 20d3 8ebd
00000060: bc9c 873d

encoder.1.weight f4 [32, 1, 1, 1]
0.41914386 0.3104748 -0.99400973 0.6627957 -0.4451978 0.47515294 1.0935673 0.12711589
-0.90199316 0.10322927 0.140592 0.33851415 0.62339574 0.16069774 0.5219679 0.7002548
-0.013275862 -0.20835386 -0.87504756 0.3249202 -0.084681764 -0.8422617 -0.6740498 0.11221552
0.6923118 0.5672673 -0.65141785 0.72095305 1.0867448 -0.4683767 0.23950723 -0.8836517
00000000: 069a d63e 8ef6 9e3e 6c77 7ebf fbac 293f
00000010: f7f0 e3be 3f47 f33e 03fa 8b3f ab2a 023e
00000020: 06e9 66bf de69 d33d 59f7 0f3e ba51 ad3e
00000030: dd96 1f3f f38d 243e b09f 053f e643 333f
00000040: 0083 59bc b75a 55be 1e03 60bf f15b a63e
00000050: a26d adbd 769e 57bf 878e 2cbf 40d1 e53d
00000060: 593b 313f 6e38 113f 52c3 26bf 6190 383f
00000070: 741a 8b3f 12cf efbe 6241 753e ff36 62bf

encoder.1.bias f4 [32]
0.7996286 0.59527653 -0.6889231 -0.2698737 -0.8429086 -0.5844463 0.54029244 0.5504767
-0.5610708 0.44578463 -0.71196526 0.8718072 -0.22717513 0.39935336 0.42025095 0.3667948
-0.17439508 -0.99048495 -0.6925099 0.35880128 0.74113774 -0.59440535 -0.49097767 -0.7592809
0.36096263 0.29568663 0.47389472 -0.37854645 -0.24455643 -0.4365978 0.5987534 -0.5216431
00000000: 76b4 4c3f 0b64 183f 445d 30bf e32c 8abe
00000010: dcc8 57bf 469e 15bf 9b50 0a3f 0aec 0c3f
00000020: 56a2 0fbf e23d e43e 5b43 36bf c22e 5f3f
00000030: 99a0 68be 0b78 cc3e 222b d73e 87cc bb3e
00000040: a094 32be 6c90 7dbf 5448 31bf cdb4 b73e
00000050: 34bb 3d3f f32a 18bf 6d61 fbbe 3c60 42bf
00000060: 18d0 b83e 3d64 973e 54a2 f23e d7d0 c1be
00000070: 006d 7abe bf89 dfbe e747 193f 678a 05bf

encoder.3.weight f4 [32, 1, 5, 5]
-0.17138249 -0.20434883 -0.46426454 -0.04492259 -0.0020898064 -0.2649968 0.004712214 -0.22459438
0.091008 -0.065405965 -0.42206216 -0.2597327 -0.16729352 0.13802387 -0.1590963 -0.24778432
0.04308808 -0.090338506 0.42912728 0.014624366 -0.12076939 0.009755703 -0.12094104 0.21502699
0.12753272 -0.13437396 0.13849047 0.047759004 -0.00069074205 0.15952523 -0.024748823 -0.11215398
-0.16674283 -0.22299057 -0.031674758 0.08645236 -0.027672915 0.045206472 -0.21161114 0.117021054
-0.12695809 -0.1453437 -0.006390865 -0.21705939 0.15667325 0.15227938 0.17579892 0.034880202
-0.08091372 0.24251504 -0.2608127 -0.25220543 -0.0302764 -0.17662756 -0.25568843 -0.37455943
-0.16052046 0.23383388 0.024726782 -0.1869847 0.044879146 0.26663166 0.54758 0.306233
0.07696613 -0.1173435 0.102770664 0.36005828 0.2570531 -0.081364624 -0.1916586 -0.0005179431
0.056349825 -0.08860632 -0.20378047 0.0021189114 0.21088694 0.19572459 0.17859705 0.15569924
0.22842464 0.13423182 0.36660817 0.4457269 0.11007737 -0.072887376 0.15264964 0.11825106
0.23711674 0.28056455 0.030660547 0.27797756 0.13822165 0.006709959 -0.046279408 0.039191913
0.2483281 0.40158165 0.15508363 -0.06352556 -0.11613433 0.054208778 0.30943942 0.21049689
-0.054062977 0.12789346 0.34587023 0.6048504 0.8093786 0.31368807 0.20190695 0.590475
0.6741511 0.95420605 0.53591067 0.36554855 0.7697932 0.75518054 0.7795886 0.55263907
-0.10206213 0.37289512 0.35641938 0.5443889 0.07148983 -0.2505998 -0.18938206 0.21272565
-0.027702143 -0.035575777 -0.09589389 -0.3914809 0.13778144 0.26968202 0.101312906 0.017539907
0.22225857 0.46475077 0.3104633 0.043504745 -0.104795806 0.14857881 0.333746 0.0942684
0.12600312 0.03196306 0.24215235 0.23790039 -0.022636533 0.13814208 0.36125198 0.5730778
0.27382582 0.46450335 0.39609665 0.390281 0.8653977 0.68694353 0.9508672 0.40289003
0.2875751 0.8120345 0.84552 0.7894355 0.3180591 0.5902709 0.8674596 0.83788455
1.0616592 0.59492165 0.30386347 0.39336407 0.2945188 0.5600721 0.46551162 0.07338993
0.0054888795 0.1349615 0.113560416 0.36936975 0.04207608 0.030983929 -0.14768012 0.12843369
0.269706 0.008138032 -0.21043913 -0.30128872 -0.3180415 0.2561886 -0.084331244 -0.03049569
-0.16723047 -0.3111691 0.2260972 0.21135277 0.12439204 0.2790884 0.1762466 0.34422037
0.07158548 -0.044991944 -0.045721836 0.37659058 0.18319131 -0.26930222 -0.2745266 -0.033234563
0.62592036 0.3424947 -0.23230016 -0.17618397 -0.27490324 0.10534492 0.008419119 0.06349057
-0.008684258 -0.23107442 0.13350298 -0.055914566 0.1350548 -0.013598776 -0.4124578 -0.17545699
-0.2404032 0.14510937 0.026202999 -0.09751857 0.17100997 -0.08987041 -0.031049926 0.14706278
0.19134459 0.07649879 0.12471959 0.12380437 0.16059297 -0.0976904 -0.037618972 0.12372119
-0.1412339 0.023733819 -0.16107869 -0.01775581 -0.123511255 0.15233779 0.17875065 0.06400158
-0.16449171 -0.14356953 0.06895526 -0.06935578 0.26898694 -0.010056987 -0.19513145 0.16035464
00000000: e47e 2fbe d240 51be 15b4 edbe c000 38bd
00000010: 22f5 08bb a9ad 87be eb68 9a3b 12fc 65be
00000020: 6762 ba3d 90f3 85bd 8818 d8be affb 84be
00000030: fe4e 2bbe 2156 0d3e 24ea 22be 2cbb 7dbe
00000040: 207d 303d 6503 b9bd 92b6 db3e 099b 6f3c
00000050: f155 f7bd 62d6 1f3c f0af f7bd 0930 5c3e
00000060: f097 023e 5499 09be 72d0 0d3e f29e 433d
00000070: ea12 35ba 955a 233e 0bbe cabc fcb0 e5bd
00000080: a2be 2abe a457 64be 64bd 01bd ef0d b13d
00000090: 4fb2 e2bc 6c2a 393d 97b0 58be bca8 ef3d
000000a0: 4d01 02be fbd4 14be 766a d1bb d144 5ebe
000000b0: f46e 203e 20ef 1b3e a204 343e 8bde 0e3d
000000c0: 18b6 a5bd dd55 783e 3e89 85be 1221 81be
000000d0: 3606 f8bc dbdd 34be 98e9 82be 41c6 bfbe
000000e0: 7a5f 24be 2672 6f3e d28f ca3c eb78 3fbe
000000f0: 32d3 373d f283 883e 342e 0c3f 92ca 9c3e
00000100: 6ba0 9d3d ca51 f0bd 6d79 d23d 8f59 b83e
00000110: 779c 833e 7fa2 a6bd 2742 44be 93c6 07ba
00000120: 13cf 663d 3b77 b5bd d4ab 50be 6fdd 0a3b
00000130: bff2 573e 076c 483e 25e2 363e 9f6f 1f3e
00000140: 26e8 693e 1174 093e 11b4 bb3e 5136 e43e
00000150: 3f70 e13d fa45 95bd 3050 1c3e 9d2d f23d
00000160: bbce 723e 28a6 8f3e d42b fb3c 1353 8e3e
00000170: fa89 0d3e 37df db3b 7a8f 3dbd b387 203d
00000180: b949 7e3e 1c9c cd3e 3ece 1e3e b019 82bd
00000190: d6d7 edbd 060a 5e3d d86e 9e3e 7f8c 573e
000001a0: 2471 5dbd 81f6 023e e715 b13e 7ad7 1a3f
000001b0: 7033 4f3f b99b a03e b2c0 4e3e 5f29 173f
000001c0: 2b95 2c3f d946 743f 7131 093f 2e29 bb3e
000001d0: 2b11 453f 8353 413f 1e93 473f c179 0d3f
000001e0: f305 d1bd 1cec be3e 9a7c b63e 125d 0b3f
000001f0: 4369 923d 9e4e 80be 5fed 41be c1d4 593e
00000200: 9bef e2bc e8b7 11bd 0464 c4bd 2f70 c8be
00000210: 9416 0d3e c313 8a3e 247d cf3d daaf 8f3c
00000220: c097 633e d0f3 ed3e 0cf5 9e3e 0832 323d
00000230: 2f9f d6bd 0b25 183e c1e0 aa3e ca0f c13d
00000240: f606 013e b3eb 023d c9f6 773e 299c 733e
00000250: 4070 b9bc 1e75 0d3e 05f6 b83e 3ab5 123f
00000260: e632 8c3e 62d3 ed3e 2ecd ca3e e9d2 c73e
00000270: b48a 5d3f 88db 2f3f 086c 733f 9a47 ce3e
00000280: 0b3d 933e 7ee1 4f3f 0074 583f 7218 4a3f
00000290: a4d8 a23e fe1b 173f d511 5e3f 9a7f 563f
000002a0: 73e4 873f c94c 183f fe93 9b3e 0467 c93e
000002b0: 2bcb 963e e360 0f3f 8a57 ee3e 764d 963d
000002c0: 0fdc b33b 5933 0a3e 5d92 e83d 081e bd3e
000002d0: f857 2c3d 02d2 fd3c 7539 17be 1f84 033e
000002e0: e816 8a3e 6155 053c 5b7d 57be 8442 9abe
000002f0: 56d6 a2be 272b 833e dcb5 acbd 19d2 f9bc
00000300: 773e 2bbe 8e51 9fbe 0686 673e dc6c 583e
00000310: 41c1 fe3d ade4 8e3e fd79 343e a73d b03e
00000320: 689b 923d 7949 38bd d246 3bbd 7bd0 c03e
00000330: 8196 3b3e fbe1 89be c08e 8cbe f720 08bd
00000340: 513c 203f 775b af3e 18e0 6dbe 9269 34be
00000350: 1ec0 8cbe 14bf d73d 58f0 093c 5807 823d
00000360: 6b48 0ebc c69e 6cbe 01b5 083e ac06 65bd
00000370: ce4b 0a3e 67cd 5ebc ab2d d3be ffaa 33be
00000380: 422c 76be 8d97 143e aca7 d63c d1b7 c7bd
00000390: 3d1d 2f3e fa0d b8bd 6a5c febc a097 163e
000003a0: d6ef 433e 66ab 9c3d fc6c ff3d 258d fd3d
000003b0: 7c72 243e e811 c8bd 5a16 1abd 8961 fd3d
000003c0: 9f9f 10be 6d6d c23c d0f1 24be a274 91bc
000003d0: 78f3 fcbd 70fe 1b3e 690a 373e 4313 833d
000003e0: 8470 28be e403 13be 6a38 8d3d 670a 8ebd
000003f0: a8b8 893e 10c6 24bc 8ad0 47be 0234 243e

encoder.3.bias f4 [32]
0.09212364 -0.09989256 -0.073838435 -0.15650304 -0.2767543 0.16159748 0.012598659 -0.24123381
0.20116201 -0.17942168 -0.13414007 -0.082724296 0.15168843 0.08889949 0.16742449 -0.12781961
0.004444563 -0.09483485 -0.118016995 -0.22093372 0.2272338 0.08358637 -0.13634327 0.19564307
-0.11827902 0.20011503 -0.124506176 -0.13866319 -0.05850381 0.19476093 -0.07621235 0.113567196
00000000: 52ab bc3d 7894 ccbd 9b38 97bd 5542 20be
00000010: bdb2 8dbe cf79 253e 9b6a 4e3c ff05 77be
00000020: 6afd 4d3e 51ba 37be 045c 09be 5b6b a9bd
00000030: 3654 1b3e f010 b63d 5371 2b3e 25e3 02be
00000040: b2a3 913b c638 c2bd e5b2 f1bd 733c 62be
00000050: faaf 683e 552f ab3d 929d 0bbe a856 483e
00000060: 453c f2bd f4ea 4c3e 18fd febd b9fd 0dbe
00000070: b1a1 6fbd 696f 473e 3815 9cbd eb95 e83d

encoder.4.weight f4 [64, 32, 1, 1]
-0.25473106 0.023243923 0.36111322 0.3067791 0.76738876 -0.2804409 0.006691207 -0.4254091
0.39763424 -0.04489678 0.47747576 -0.623807 -0.2841901 -0.088944 0.01159152 0.17950566
0.3210588 0.32857224 0.75363475 -0.15851645 0.14364536 0.05633541 -0.019279305 -0.5504165
0.10545263 0.18654138 0.34953353 0.17920344 0.18556754 -0.10366251 -0.2352484 -0.38126725
0.24695368 -0.27983922 -0.78610915 -0.035235148 -0.00963958 0.16902025 -0.69319355 -0.1667529
0.13426112 0.09738848 0.09316871 0.13514487 -0.07163931 -0.08022774 -0.08275668 -0.36041808
-0.11326715 -0.0542313 0.91781515 0.04609582 -0.0054700277 -0.0101578375 -0.10952592 0.029604336
-0.22857012 0.17357759 -0.04473293 0.24948268 0.0009866388 -0.067655034 -0.06296794 0.5905877
-0.07201844 0.13073726 -0.3368611 0.015093469 0.43936396 -0.2902496 0.0011529457 -0.39675614
0.25442132 0.009614812 0.15282969 -0.14874795 0.011767698 0.14717898 -0.061120953 0.13371184
0.21815714 0.22375932 -0.11828994 -0.082604006 0.25274312 -0.20327057 0.35377833 -0.19538853
0.116761126 0.024529481 0.0045940145 0.048565555 -0.1163915 -0.452033 0.11212975 -0.22480494
0.22565998 -0.09602298 0.7525224 0.046334915 -1.598771 -0.05424426 -0.073283024 -0.14338823
-0.030941438 -0.04582243 0.13362634 0.09117911 0.08867847 -0.22696549 0.39267316 0.01187575
0.1068645 -0.18806 -0.7825691 -0.099552035 0.14659649 -0.20288746 0.040679112 0.028049758
0.16170414 0.310202 0.21056138 0.2766051 0.37292466 -0.085132435 -0.017968459 -0.18072052
0.0040368456 -0.045471102 -0.39837563 -0.28868377 -0.038454033 -0.2894015 -0.008901022 0.0026377258
-0.22344667 -0.09089692 0.17205568 0.060977407 0.16411489 0.1840453 0.0017031991 0.04723982
0.2622396 0.09197922 0.08514915 0.25674993 0.3353088 0.10689394 0.114940114 -0.040546346
-0.0130766 -0.10116858 -0.09542652 -0.23608232 -0.22238232 -0.37303507 0.013621473 0.059165012
0.18161532 0.054876696 -0.14993525 -0.0013549734 1.4767575 -0.25391805 -0.038896155 -0.1505251
-0.07114277 -0.09778858 0.35862628 -0.28630966 0.15168558 0.2221839 -0.20199873 0.035041083
0.23438373 0.21592389 0.23782483 0.08082716 0.18281363 0.1342886 0.4969165 -0.1125854
-0.01930837 -0.10458833 -0.06772866 0.11570858 0.029925784 -0.80441636 -0.04827395 -0.18939337
0.42761147 0.044187803 0.77398306 0.1159728 0.064243406 0.056188475 -0.04179052 -0.6846941
-0.025132326 -0.18171406 -0.18326317 -0.1666804 -0.0887543 0.21075161 0.1161295 0.06495299
-0.049722463 0.061739754 0.50875586 -0.23347989 0.76359934 -0.21634959 -0.18517096 0.0060863155
0.05797042 0.35241637 0.41321203 -0.0911329 -0.1982361 -0.039665304 -0.23975104 -0.5639004
0.8938948 0.26645052 0.53852993 0.0039715883 -0.07574246 -0.08257906 -0.7907462 -0.14039293
-0.13140745 -0.11561129 0.020375783 -0.2761749 0.088691495 0.27413282 0.4833086 -0.08013573
-0.06167528 0.14185064 0.13933584 0.09720172 0.12273907 0.090452716 -0.023229577 -0.21602915
0.037305854 0.21284486 0.09526797 0.06474246 0.0064657163 -0.39161804 0.019124025 -0.16400003
00000000: 1c6c 82be 0a6a be3c d5e3 b83e 2612 9d3e
00000010: 9773 443f f395 8fbe ea41 db3b 39cf d9be
00000020: b796 cb3e b0e5 37bd b477 f43e d1b1 1fbf
00000030: 5d81 91be 4628 b6bd 5cea 3d3c 55d0 373e
00000040: d261 a43e 9f3a a83e 35ee 403f 2352 22be
00000050: c517 133e f5bf 663d a2ef 9dbc 19e8 0cbf
00000060: 8cf7 d73d b404 3f3e 0ff6 b23e 1b81 373e
00000070: 6b05 3e3e 034d d4bd f5e4 70be 7635 c3be
00000080: 6de1 7c3e 1647 8fbe 733e 49bf bb52 10bd
00000090: 54ef 1dbc a513 2d3e 2275 31bf 46c1 2abe
000000a0: bf7b 093e 9d73 c73d 3dcf be3d 6b63 0a3e
000000b0: a1b7 92bd 714e a4bd 567c a9bd b888 b8be
000000c0: 9cf8 e7bd a421 5ebd eff5 6a3f f8ce 3c3d
000000d0: eb3d b3bb 0f6d 26bc 204f e0bd cb84 f23c
000000e0: 490e 6abe 53be 313e e039 37bd 6378 7f3e
000000f0: 1b52 813a b98e 8abd 56f5 80bd c130 173f
00000100: 677e 93bd fddf 053e 0f79 acbe 994a 773c
00000110: 50f4 e03e 989b 94be 701e 973a 9f23 cbbe
00000120: 8343 823e 7287 1d3c 637f 1c3e 6251 18be
00000130: 4ecd 403c 16b6 163e f759 7abd c2eb 083e
00000140: 9664 5f3e 2a21 653e ff41 f2bd 4a2c a9bd
00000150: 8c67 813e 2926 50be 6f22 b53e ee13 48be
00000160: 7520 ef3d 0df2 c83c 6389 963b adec 463d
00000170: ab5e eebd df70 e7be 48a4 e53d 4433 66be
00000180: 6913 673e b2a7 c4bd 4fa5 403f aec9 3d3d
00000190: 87a4 ccbf 3b2f 5ebd 6915 96bd 5dd4 12be
000001a0: e678 fdbc 4db0 3bbd 58d5 083e 1dbc ba3d
000001b0: 0f9d b53d a469 68be 750c c93e 8192 423c
000001c0: c6db da3d cd92 40be 7356 48bf f0e1 cbbd
000001d0: 641d 163e bbc1 4fbe 249f 263d 9bc8 e53c
000001e0: c595 253e ccd2 9e3e 679d 573e 2f9f 8d3e
000001f0: fbef be3e ea59 aebd 9732 93bc cd0e 39be
00000200: 8447 843b e83f 3abd e4f7 cbbe 5cce 93be
00000210: fa81 1dbd 6f2c 94be 98d5 11bc b2dd 2c3b
00000220: 34cf 64be 2a28 babd 5d2f 303e 72c3 793d
00000230: bc0d 283e 5f76 3c3e e13d df3a 8b7e 413d
00000240: 4544 863e 9a5f bc3d ad62 ae3d ba74 833e
00000250: 98ad ab3e 36eb da3d b965 eb3d ed13 26bd
00000260: 3c3f 56bc 7931 cfbd fb6e c3bd 90bf 71be
00000270: 31b8 63be 74fe bebe 992c 5f3c 0357 723d
00000280: 5ef9 393e 63c6 603d a088 19be 5d99 b1ba
00000290: 6406 bd3f 8c01 82be 9351 1fbd 4023 1abe
000002a0: 4db3 91bd 6145 c8bd dd9d b73e 2e97 92be
000002b0: 7753 1b3e 2d84 633e c1d8 4ebe 3d87 0f3d
000002c0: 4a02 703e 271b 5d3e 5a88 733e b688 a53d
000002d0: 7f33 3b3e f382 093e d76b fe3e 2d93 e6bd
000002e0: 962c 9ebc 6832 d6bd 53b5 8abd 9ff8 ec3d
000002f0: eb26 f53c 3bee 4dbf e8ba 45bd 56f0 41be
00000300: e4ef da3e 45fe 343d c123 463f 2683 ed3d
00000310: 0c92 833d e325 663d 892c 2bbd 1d48 2fbf
00000320: 4fe2 cdbc 4013 3abe 57a9 3bbe 44ae 2abe
00000330: d0c4 b5bd 45cf 573e 4ed5 ed3d 1306 853d
00000340: c8a9 4bbd d3e2 7c3d d33d 023f 5a15 6fbe
00000350: 3f7b 433f bf8a 5dbe 759d 3dbe b76f c73b
00000360: 6472 6d3d eb6f b43e 8790 d33e e3a3 babd
00000370: 67fe 4abe 1678 22bd 4c81 75be c75b 10bf
00000380: 4ad6 643f 346c 883e 19dd 093f 1924 823b
00000390: dd1e 9bbd 361f a9bd 586e 4abf 2ac3 0fbe
000003a0: ad8f 06be 9dc5 ecbd 1deb a63c cc66 8dbe
000003b0: e3a3 b53d 235b 8c3e 3a74 f73e 341e a4bd
000003c0: 389f 7cbd 4b41 113e 0eae 0e3e b211 c73d
000003d0: 9f5e fb3d 463f b93d f44b bebc bf36 5dbe
000003e0: 06ce 183d 01f4 593e da1b c33d b297 843d
000003f0: 5cde d33b 2982 c8be fda9 9c3c a0ef 27be

encoder.4.bias f4 [64]
-0.55691063 -0.08978661 -0.065632 0.07717691 -0.091720924 -0.160535 0.009804189 -0.12794769
-0.204156 -0.20109923 0.20567292 -0.31282422 -0.18239862 0.2413965 -0.10168168 0.09230893
-0.16672367 -0.23513146 -0.1147389 -0.021658862 -0.31751254 -0.043041322 -0.22031482 -0.3020305
-0.16373414 0.1263043 0.018768348 -0.11040568 -0.19073042 -0.021412117 -0.11883064 -0.13360597
-0.04586455 -0.013443505 -0.20546474 -0.11296521 0.1466309 0.13883911 0.07140476 0.07769804
-0.12397518 -0.3180415 -0.26343808 -0.058477953 -0.34113082 -0.05962134 0.3545244 -0.06334151
0.051269643 0.13480166 0.24851215 -0.15012948 -0.14074977 -0.27190652 0.16621812 -0.03952161
0.018474042 -0.14352989 0.18841806 -0.0043271277 0.360402 -0.0514749 0.04715398 -0.03989709
00000000: b291 0ebf 0be2 b7bd 126a 86bd ee0e 9e3d
00000010: 2ed8 bbbd 4963 24be c0a1 203c b804 03be
00000020: 450e 51be f5ec 4dbe ec9b 523e 7f2a a0be
00000030: b4c6 3abe a530 773e 7c3e d0bd 770c bd3d
00000040: 9cb9 2abe 4dc6 70be 3afc eabd ed6d b1bc
00000050: 0191 a2be 194c 30bd 359a 61be bea3 9abe
00000060: eca9 27be ea55 013e 14c0 993c 601c e2bd
00000070: d64e 43be 7768 afbc 7b5d f3bd 01d0 08be
00000080: 77dc 3bbd 2642 5cbc 5965 52be 4e5a e7bd
00000090: 6926 163e d72b 0e3e a93c 923d 2620 9f3d
000000a0: b3e6 fdbd 56d6 a2be 5be1 86be 9486 6fbd
000000b0: b3a8 aebe 8235 74bd 3984 b53e 32b9 81bd
000000c0: 1e00 523d 7209 0a3e f879 7e3e 8bbb 19be
000000d0: b520 10be 5537 8bbe 1535 2a3e 69e1 21bd
000000e0: e056 973c 80f9 12be aaf0 403e 94ca 8dbb
000000f0: 9c86 b83e 58d7 52bd 8824 413d 226b 23bd

encoder.6.weight f4 [64, 1, 5, 5]
0.38854808 0.10691519 -0.083288915 -0.313792 -0.10751774 0.1883683 0.30244923 0.30501524
-0.14826351 -0.61769545 0.007644714 0.3034347 0.6348661 0.48823127 -0.631795 -0.4415158
-0.1250051 0.2535672 0.7049465 0.23485899 -0.073500596 -0.48197195 -0.532049 0.14432098
0.39007828 -0.13781029 -0.057940688 -0.040908612 -0.9622608 -0.5018959 -0.062290937 -0.07955005
-0.2945897 -0.87606066 -0.8023737 -0.31395245 -0.24735235 0.059307463 -0.39681202 -0.5582851
-0.4459284 -0.68696404 -0.33265668 -0.09325593 -0.24071562 -0.24045292 -0.34629467 -0.43069988
-0.20192632 -0.48017362 0.13464992 0.19170842 0.23063645 0.14490837 0.09618604 0.0021725518
0.05906945 0.07773517 -0.17751843 0.19522049 0.038403213 0.10338766 -0.12183322 -0.26280817
0.15700732 -0.02077228 -0.054341372 -0.21259685 -0.3380502 0.23778622 -0.123820856 -0.084509365
-0.03083032 -0.0071138204 -0.037905965 -0.11723603 -0.10340204 -0.2783046 -0.4668483 -0.19873838
-0.21529016 -0.046626285 0.18292117 0.06558099 -0.32863948 -0.23399594 0.16572167 0.5044807
0.39993176 -0.16578399 -0.16246365 0.3397397 0.47531027 0.5542593 0.09414376 -0.16317126
0.061930604 0.24872835 0.21851318 0.055659484 -0.012254926 -0.27771845 -0.05800027 0.19235067
0.1822441 0.0067573683 -0.2231509 -0.15508455 0.09094748 0.26121044 0.008897961 -0.112297095
-0.23736012 -0.11717445 0.19189444 0.18971485 0.1080435 -0.020761052 -0.051219136 -0.05941189
-0.008894661 0.11279715 0.25588185 0.05750795 -0.14599207 0.08705267 0.2165775 0.0050849384
-0.14480805 -0.38909128 0.07750182 0.35595572 0.13331401 -0.2584815 -0.22794752 -0.0049050655
0.1234222 0.25746772 -0.21507746 0.23507051 -0.30082408 -0.43323192 -0.18772353 -0.10259396
0.28821912 0.02236084 -0.16950257 0.057545573 0.11672182 0.527959 -0.4015811 -0.34609956
-0.61463493 -0.4483517 -0.122948386 -0.53396386 -0.5857035 -0.50277084 -0.4063711 -0.85639334
-0.6182523 -0.43899158 -0.37076917 -0.36207718 -0.52310216 -0.35505658 -0.38583726 -0.3052469
0.012798774 0.20830137 -0.08509225 -0.56492746 -0.4917817 0.23770188 0.649272 -0.2197134
-0.13037232 0.045051444 -0.111075476 0.16561547 0.004028244 0.11828476 -0.14902449 -0.25829056
-0.133531 -0.06699917 -0.14671178 -0.20965652 -0.21650651 -0.23804529 0.09678675 -0.2267161
-0.316416 -0.22004353 -0.07587509 0.16458045 0.02224513 -0.20077205 -0.35891104 0.02379799
0.017066589 -0.01779981 -0.019254556 0.08534974 -0.17703663 0.123053744 -0.06787623 0.12742357
-0.032209832 0.1658708 -0.15469225 0.05443028 -0.012394992 -0.14752646 -0.13680895 0.016221678
-0.17333 0.13624287 -0.2259505 -0.21676715 -0.1278404 -0.10182931 0.03944619 0.15522681
0.1272809 0.61250407 0.1879333 -0.240523 -0.49502498 -0.080013156 0.23946232 0.19934566
-0.094938494 -0.22225896 -0.08479556 -0.24234226 -0.17777115 0.019151514 0.36483476 -0.20130068
-0.4131022 -0.18062237 0.2656507 0.6092084 0.19306418 -0.14195536 -0.10696424 -0.14018013
0.16610701 -0.1517658 -0.29437312 -0.3950696 -0.20580465 0.6039093 1.1671801 -0.14310619
00000000: c6ef c63e 5af6 da3d 6193 aabd 58a9 a0be
00000010: 4332 dcbd 9fe3 403e a0da 9a3e f52a 9c3e
00000020: 64d2 17be 4a21 1ebf 8280 fa3b cb5b 9b3e
00000030: 9686 223f 73f9 f93e 51bd 21bf 5c0e e2be
00000040: 5601 00be 8fd3 813e 6077 343f e07e 703e
00000050: 7b87 96bd 07c5 f6be 5d34 08bf e1c8 133e
00000060: 57b8 c73e 241e 0dbe 3753 6dbd ca8f 27bd
00000070: b956 76bf 407c 00bf c824 7fbd 23eb a2bd
00000080: 76d4 96be 8345 60bf 5d68 4dbf 60be a0be
00000090: ef49 7dbe 62ec 723d f22a cbbe c6eb 0ebf
000000a0: ba50 e4be e0dc 2fbf fa51 aabe f7fc bebd
000000b0: 287e 76be 4a39 76be 894d b1be b284 dcbe
000000c0: c6c5 4ebe 51d9 f5be abe1 093e 364f 443e
000000d0: f62b 6c3e dc62 143e 30fd c43d 5f61 0e3b
000000e0: cff2 713d 9e33 9f3d 64c7 35be e1e7 473e
000000f0: b04c 1d3d e9bc d33d b283 f9bd cb8e 86be
00000100: 87c6 203e a12a aabc 0f95 5ebd fdb2 59be
00000110: ea14 adbe 3b7e 733e ca95 fdbd 3f13 adbd
00000120: de8f fcbc 0d1b e9bb 4943 1bbd 7219 f0bd
00000130: 73c4 d3bd f17d 8ebe be06 efbe 1382 4bbe
00000140: 0675 5cbe 34fb 3ebd b04f 3b3e 534f 863d
00000150: 6f43 a8be a29c 6fbe f1b2 293e a625 013f
00000160: dbc3 cc3e 47c3 29be df5c 26be 5df2 ad3e
00000170: de5b f33e f0e3 0d3f 72ce c03d 5e16 27be
00000180: f2aa 7d3d a5b2 7e3e ebc1 5f3e 33fb 633d
00000190: e3c8 48bc 1d31 8ebe b191 6dbd 93f7 443e
000001a0: 339e 3a3e ea6c dd3b ab81 64be 7cce 1ebe
000001b0: ac42 ba3d 60bd 853e c1c8 113c 05fc e5bd
000001c0: 880e 73be 28f9 efbd fa7f 443e 9c44 423e
000001d0: e945 dd3d 1513 aabc 28cb 51bd e259 73bd
000001e0: eaba 11bc 3102 e73d f202 833e 758d 6b3d
000001f0: f27e 15be ac48 b23d 7ec6 5d3e 8e9f a63b
00000200: 9048 14be f936 c7be 46b9 9e3d d43f b63e
00000210: 7883 083e b057 84be 136b 69be acba a0bb
00000220: c7c4 fc3d cfd2 833e 443d 5cbe 53b6 703e
00000230: 9d05 9abe 93d0 ddbe 993a 40be c81c d2bd
00000240: 7591 933e 152e b73c 1592 2dbe e8b4 6b3d
00000250: d90b ef3d 5228 073f 0a9c cdbe f633 b1be
00000260: b758 1dbf 5b8e e5be 5dcc fbbd dbb1 08bf
00000270: aaf0 15bf 97b5 00bf df0f d0be 983c 5bbf
00000280: c845 1ebf 81c3 e0be 75d5 bdbe 2e62 b9be
00000290: 06ea 05bf fac9 b5be 768c c5be 5249 9cbe
000002a0: f3b1 513c f44c 553e d844 aebd 169f 10bf
000002b0: d0ca fbbe 1f68 733e b136 263f 8dfc 60be
000002c0: 5280 05be dd87 383d 8a7b e3bd 1a97 293e
000002d0: 5cff 833b 483f f23d e099 18be a93e 84be
000002e0: 5abc 08be dc36 89bd 9d3b 16be 33b0 56be
000002f0: e2b3 5dbe 25c2 73be 2238 c63d 4428 68be
00000300: 4701 a2be 1753 61be 6664 9bbd c787 283e
00000310: 6b3b b63c 3097 4dbe 30c3 b7be 01f4 c23c
00000320: 3bcf 8b3c e8d0 91bc bbbb 9dbc d8cb ae3d
00000330: 1749 35be 9a03 fc3d b102 8bbd 537b 023e
00000340: 75ee 03bd 09da 293e a567 1ebe 49f2 5e3d
00000350: 5d14 4bbc 2d11 17be a517 0cbe 53e3 843c
00000360: 6b7d 31be 4083 0b3e 915f 67be 35f8 5dbe
00000370: 98e8 02be e38b d0bd 5492 213d c7f3 1e3e
00000380: ed55 023e 11cd 1c3f 9671 403e a94b 76be
00000390: ea73 fdbe f0dd a3bd 9c35 753e 4521 4c3e
000003a0: 1d6f c2bd da97 63be 4ba9 adbd 9228 78be
000003b0: a409 36be a3e3 9c3c 9fcb ba3e c421 4ebe
000003c0: 2282 d3be 12f5 38be 5e03 883e 15f5 1b3f
000003d0: 9eb2 453e bf5c 11be 1110 dbbd 618b 0fbe
000003e0: f517 2a3e 7e68 1bbe 13b8 96be 9046 cabe
000003f0: 74be 52be cd99 1a3f 2866 953f 6e8a 12be

encoder.6.bias f4 [64]
-0.033627614 0.06299112 0.04348222 -0.16565093 0.032412875 -0.019310646 0.069388196 -0.00963517
-0.010664392 -0.06343603 -0.0064744665 -0.10036843 -0.069363706 0.16994363 -0.08790568 -0.0031077538
6.4258835e-05 -0.023576394 0.069825314 0.085550904 0.0065694153 0.035347812 -0.017386066 -0.0007451546
-0.006091239 -0.077791944 -0.0005418804 -0.11203645 0.004198959 -0.0019227512 0.0003594571 -0.11974916
0.014575484 -0.032842293 0.0060030282 -0.050196175 -0.007192083 -0.012078224 -0.008112789 0.016689662
0.005563437 0.00029350942 -0.0037641544 0.0771814 0.006239128 -0.0015134623 0.1686271 -0.004971607
-0.043390106 0.020692676 -0.08148745 -0.057724953 0.008713102 0.0042136707 -0.03548795 -0.08754677
-0.041318145 0.0039548497 -0.14708896 -0.008375838 -0.030563742 0.007132468 0.08596975 0.05074567
00000000: 1cbd 09bd 7d01 813d 6a1a 323d 66a0 29be
00000010: 5dc3 043d 5c31 9ebc 661b 8e3d d5dc 1dbc
00000020: b4b9 2ebc c0ea 81bd c327 d4bb f78d cdbd
00000030: 8f0e 8ebd b405 2e3e e507 b4bd 75ab 4bbb
00000040: b3c2 8638 4823 c1bc 9300 8f3d 5035 af3d
00000050: 4044 d73b dec8 103d 396d 8ebc 7b56 43ba
00000060: 0499 c7bb 6251 9fbd fa0c 0eba 5e73 e5bd
00000070: 6c97 893b d304 fcba 8475 bc39 0c3f f5bd
00000080: 03ce 6e3c a485 06bd 0db5 c43b 819a 4dbd
00000090: 91ab ebbb bee3 45bc 81eb 04bc c2b8 883c
000000a0: 7e4d b63b 2be2 9939 08b0 76bb 4811 9e3d
000000b0: 9971 cc3b 5e5f c6ba 95ac 2c3e dde8 a2bb
000000c0: d3b9 31bd b083 a93c e4e2 a6bd 0071 6cbd
000000d0: 66c1 0e3c d512 8a3b d05b 11bd b94b b3bd
000000e0: 373d 29bd af97 813b 7d9e 16be d03a 09bc
000000f0: d060 fabc 7ab7 e93b e910 b03d b1da 4f3d

encoder.7.weight f4 [128, 64, 1, 1]
0.23486832 -0.30022416 -0.32005978 -0.080759816 -0.1160847 -0.6092199 -0.10645764 -0.020251913
0.025476621 0.26517227 0.385491 -0.14960493 0.032235857 0.08054616 -0.18753138 0.010977235
-0.039751887 0.29139212 -0.36973506 0.26688117 0.055323686 -0.020873833 0.16808759 0.11158461
0.021510802 -0.4396924 0.08602143 0.59643775 0.08676319 -0.07870685 0.016433429 -0.25766063
-0.095239036 0.2854193 0.042401858 0.09507855 -0.12798111 -0.37152123 0.1690259 0.2984112
0.016998746 -0.07612696 0.07779586 0.027862461 -0.048356812 0.097661346 -0.52169824 -0.23779678
0.38976637 -0.18816507 0.0020938271 -0.0849352 -0.01138705 -0.047639318 -0.44661027 0.70650184
0.4813136 -0.011171228 0.036153972 0.04967584 -0.019429492 -0.055186685 0.083388805 -0.093014725
-0.06442793 -0.07211103 -0.07946986 0.036588512 -0.007159491 0.45222655 0.075315714 0.47802487
-0.108118534 0.10954108 0.0021063779 -0.056904297 -0.110958956 0.548162 -0.82648706 0.30413768
-0.59906226 0.35196042 0.10813852 0.4625364 0.114739746 0.08924113 -0.10165689 0.15224488
-0.10511163 0.16129977 -0.00064145564 0.18001412 0.0067042653 -0.113839276 -0.14791057 -0.45457822
0.13306938 0.20054637 -0.035941333 -0.075215794 0.24098697 0.24574953 0.28517407 0.15718408
0.13937706 -0.11528389 -0.068724334 -0.10772554 -0.044096027 0.045695297 -0.42033803 -0.48048514
0.55882543 0.53130627 0.2966471 0.08762559 -0.2834783 -0.034115486 0.03769176 0.43617192
0.42549735 0.07307696 0.11117029 -0.1339525 0.1337145 0.08172654 -0.09513018 0.38177496
0.13369602 0.52525467 0.026110396 0.17925492 -0.11455865 0.36543718 0.13841811 -0.24490285
-0.23714557 0.20801277 -0.1971918 0.04453694 0.019321483 -0.20137809 -0.23902555 -0.048832476
0.009424072 -0.15072086 1.5896082 0.2598374 -0.053755865 -0.44780657 -0.12127888 0.021014957
0.023414815 -0.102801435 0.09445412 -0.0049827704 -0.11966713 0.029007489 -0.09066736 0.24819867
-0.18858925 -0.07311654 0.010383851 0.23135775 0.096267715 0.3164937 0.15639468 -0.19446617
0.052412644 0.009286585 0.009450189 -0.16131453 -0.28729784 0.2727614 0.19935364 -0.119515434
0.4141537 -0.1286292 0.11364406 0.1289622 0.16398913 -0.00081223773 0.056468397 0.24845034
-0.42503756 0.019374682 0.09322553 0.2455848 0.08303922 0.09441027 -0.14203233 -0.011176994
0.25977442 -0.46366948 -0.00493351 -0.033732455 -0.14895456 -0.2977843 0.007838108 0.26962453
-0.056226574 0.5367201 -0.016605265 -0.13531196 0.45392403 -0.22723117 0.32320735 0.3575521
-0.1689043 -0.13058437 0.38573673 0.37725937 0.034547802 -0.35274473 0.19067809 0.10985921
-0.02418733 0.17163718 0.28577098 0.12990573 0.013684218 -0.057174567 0.110640295 -0.33311173
0.18924509 0.02403379 0.10566597 -0.373634 0.04195534 0.31932354 -0.09335834 0.12738965
0.063950144 0.07063882 0.1379671 -0.04720408 -0.012713794 0.1216413 -0.22380036 -0.17418715
0.06547155 -0.17990546 0.1431801 -0.021036526 -0.05993271 0.045948893 0.035517186 -0.19388472
0.19892263 0.0042740353 -0.29410872 0.16668296 0.49993488 -0.07282591 -0.09826876 -0.24706985
00000000: 5281 703e fbb6 99be e0de a3be 6765 a5bd
00000010: d1bd edbd d6f5 1bbf 7706 dabd 57e7 a5bc
00000020: 59b4 d03c a9c4 873e 145f c53e 0932 19be
00000030: bf09 043d 63f5 a43d 3a08 40be dcd9 333c
00000040: e0d2 22bd 5931 953e ea4d bdbe a6a4 883e
00000050: 179b 623d 9aff aabc 271f 2c3e 7986 e43d
00000060: 6c37 b03c 5d1f e1be 012c b03d 25b0 183f
00000070: e6b0 b13d 0f31 a1bd 669f 863c 18ec 83be
00000080: af0c c3bd 7a22 923e 92ad 2d3d 8bb8 c23d
00000090: 7b0d 03be 0838 bebe 2015 2d3e 5ac9 983e
000000a0: f440 8b3c 74e8 9bbd 7053 9f3d d13f e43c
000000b0: cb11 46bd ac02 c83d 048e 05bf 0081 73be
000000c0: 758f c73e 58ae 40be 9738 093b 82f2 adbd
000000d0: c090 3abc 7221 43bd 1aaa e4be 4edd 343f
000000e0: bc6e f63e 8707 37bc 3016 143d e578 4b3d
000000f0: 992a 9fbc 6f0b 62bd c0c7 aa3d 817e bebd
00000100: caf2 83bd f3ae 93bd 18c1 a2bd d6dd 153d
00000110: 2a9a eabb 3d8a e73e 203f 9a3d adbf f43e
00000120: 406d ddbd 1357 e03d 280b 0a3b 7b14 69bd
00000130: 733e e3bd 5854 0c3f a894 53bf efb7 9b3e
00000140: 255c 19bf 2834 b43e ba77 dd3d 92d1 ec3e
00000150: acfc ea3d 0ec4 b63d 7d31 d0bd 15e6 1b3e
00000160: c444 d7bd c42b 253e 5c27 28ba 9f55 383e
00000170: 74af db3b 9124 e9bd de75 17be 7abe e8be
00000180: 5743 083e 075c 4d3e 3837 13bd bd0a 9abd
00000190: 4ac5 763e c4a5 7b3e 5602 923e ddf4 203e
000001a0: dcb8 0e3e f619 ecbd 58bf 8cbd 359f dcbd
000001b0: 099e 34bd fe2a 3b3d 8c36 d7be 2602 f6be
000001c0: 2f0f 0f3f b003 083f 21e2 973e 0c75 b33d
000001d0: 1124 91be aebc 0bbd ad62 1a3d ed51 df3e
000001e0: cada d93e 60a9 953d 40ad e33d d82a 09be
000001f0: 74ec 083e 3f60 a73d 9dd3 c2bd 0278 c33e
00000200: 9ce7 083e 1777 063f 78e5 d53c 9a8e 373e
00000210: ba9d eabd 951a bb3e 7abd 0d3e d0c7 7abe
00000220: 4ad6 72be 4d01 553e a6ec 49be 5e6c 363d
00000230: 1648 9e3c 0f36 4ebe 1dc3 74be 9004 48bd
00000240: 6c67 1a3c 9256 1abe 4878 cb3f 6809 853e
00000250: 1c2f 5cbd e746 e5be 1061 f8bd 8f27 ac3c
00000260: 6dd0 bf3c 8f89 d2bd 2971 c13d 8246 a3bb
00000270: 0a14 f5bd 1da1 ed3c cfaf b9bd cb27 7e3e
00000280: 8a1d 41be 20be 95bd 0721 2a3c 0ce9 6c3e
00000290: 0228 c53d 760b a23e ed25 203e 2422 47be
000002a0: a4ae 563d c326 183c f7d4 1a3c a32f 25be
000002b0: b418 93be 62a7 8b3e 5c23 4c3e 82c4 f4bd
000002c0: f40b d43e 5fb7 03be 38be e83d ab0e 043e
000002d0: c4ec 273e 5aec 54ba 684b 673d c469 7e3e
000002e0: 869e d9be a7b7 9e3c 07ed be3d 957a 7b3e
000002f0: 7710 aa3d 2c5a c13d ec70 11be b61f 37bc
00000300: 2701 853e 1666 edbe 48a9 a1bb 0b2b 0abd
00000310: 8b87 18be 2f77 98be 686b 003c 3a0c 8a3e
00000320: d64d 66bd 7d66 093f c407 88bc 388f 0abe
00000330: bb68 e83e 4aaf 68be 6f7b a53e 1211 b73e
00000340: 40f5 2cbe e9b7 05be 497f c53e 2428 c13e
00000350: ff81 0d3d f59a b4be 1e41 433e defd e03d
00000360: 8224 c6bc a8c1 2f3e 9350 923e 0206 053e
00000370: c533 603c e12f 6abd 6197 e23d 9f8d aabe
00000380: 77c9 413e 83e2 c43c 6667 d83d f54c bfbe
00000390: 5dd9 2b3d 607e a33e a832 bfbd 6f72 023e
000003a0: 4bf8 823d 16ab 903d 3f47 0d3e 1159 41bd
000003b0: 844d 50bc 131f f93d ec2b 65be 1e5e 32be
000003c0: f315 863d 2339 38be ce9d 123e cb54 acbc
000003d0: 007c 75bd e834 3c3d 787a 113d b789 46be
000003e0: 60b2 4b3e 350d 8c3b 6b95 96be f0ae 2a3e
000003f0: 77f7 ff3e c025 95bd 2241 c9bd e1ff 7cbe

encoder.7.bias f4 [128]
-0.026527232 0.03192729 -0.027289137 -0.033919226 -0.034870017 -0.14328676 -0.23897329 -0.28011158
-0.02354362 -0.25083464 -0.28066862 -0.30847043 -0.05158381 0.009711762 0.074853204 0.28027138
-0.1979615 -0.24701673 -0.19628017 0.004280902 0.10198237 0.09846826 0.019433856 -0.23292026
-0.15688942 -0.4755897 -0.17438021 -0.064249314 -0.12069584 0.025422676 -0.3624067 0.11540829
0.3589159 0.0008931146 -0.0052356552 0.036905825 -0.02745558 -0.075728595 -0.31513122 -0.242525
-0.039981037 -0.26993927 -0.32038936 -0.20026705 0.21451908 0.047341097 -0.016983762 0.8055768
-0.23128916 0.015875442 0.38236856 0.009964731 -0.12548602 0.15657301 -0.086116605 -0.35260114
-0.0692241 -0.3457916 0.007323783 -0.27123785 -0.06344727 -0.2648629 -0.080414414 0.08701388
-0.15265292 -0.24167693 -0.12463185 0.045594905 0.03588728 -0.19845574 -0.32905385 0.14916024
0.095497385 -0.0048369793 -0.0037251764 -0.13408911 -0.49049938 0.05075416 -0.19585653 0.13057849
-0.14942744 -0.021520184 0.0086083645 -0.038511794 0.056974318 -0.06042196 -0.06557214 -0.099156365
0.04989995 -0.30763754 -0.037508175 0.21649833 0.1315891 0.049597263 -0.05049412 0.13322794
-0.04623039 0.27357453 -0.11043473 -0.15929043 -0.12635304 -0.09403907 -0.030537965 -0.018350892
-0.008907915 -0.10443459 -0.11817758 -0.12665169 -0.20110822 -0.058395244 -0.1832865 -0.25494993
0.005510481 -0.06744408 -0.1545308 -0.1820376 -0.04264082 0.02327577 -0.2788441 0.010999296
-0.24364762 0.14622414 -0.21903268 -0.20040852 0.07624052 -0.00047560022 -0.09687444 -0.0069183903
00000000: a34f d9bc 31c6 023d 788d dfbc e3ee 0abd
00000010: ddd3 0ebd c4b9 12be 6ab5 74be c96a 8fbe
00000020: 8dde c0bc 666d 80be ccb3 8fbe d6ef 9dbe
00000030: 8c49 53bd 151e 1f3c a34c 993d bb7f 8f3e
00000040: 6bb6 4abe f4f1 7cbe abfd 48be cf46 8c3b
00000050: 22dc d03d baa9 c93d c033 9f3c a682 6ebe
00000060: 9fa7 20be 7e80 f3be ba90 32be 2595 83bd
00000070: 612f f7bd 3743 d03c 5f8d b9be 2e5b ec3d
00000080: d3c3 b73e e81f 6a3a dc8f abbb 902a 173d
00000090: 86ea e0bc 9817 9bbd e158 a1be 7958 78be
000000a0: 28c3 23bd 7b35 8abe 130a a4be ce12 4dbe
000000b0: e4aa 5b3e bde8 413d 8821 8bbc 483a 4e3f
000000c0: 11d7 6cbe 370d 823c d0c5 c33e 1c43 233c
000000d0: 687f 00be ad54 203e e75d b0bd 2388 b4be
000000e0: 5dc5 8dbd 990b b1be 58fc ef3b b0df 8abe
000000f0: a4f0 81bd 1c9c 87be 50b0 a4bd 5534 b23d
00000100: 0c51 1cbe 287a 77be fc3e ffbd b9c1 3a3d
00000110: 8afe 123d fb37 4bbe bf79 a8be 76bd 183e
00000120: 2294 c33d 867f 9ebb 1722 74bb a84e 09be
00000130: bc22 fbbe 98e3 4f3d 9d8e 48be 5eb6 053e
00000140: 8203 19be 194b b0bc 190a 0d3c 8bbe 1dbd
00000150: e75d 693d 047d 77bd b04a 86bd 7e12 cbbd
00000160: e463 4c3d ab82 9dbe 2ca2 19bd bdb1 5d3e
00000170: 4bbf 063e 8026 4b3d ecd2 4ebd e86c 083e
00000180: 145c 3dbd f611 8c3e 9b2b e2bd 081d 23be
00000190: b162 01be 8e97 c0bd c12a fabc 9c54 96bc
000001a0: 81f2 11bc cde1 d5bd 1607 f2bd fbb0 01be
000001b0: 50ef 4dbe da2f 6fbd 75af 3bbe cc88 82be
000001c0: 4491 b43b 1f20 8abd 523d 1ebe 1168 3abe
000001d0: 24a8 2ebd d4ac be3c a7c4 8ebe 6436 343c
000001e0: c37e 79be c8bb 153e 1a4a 60be e437 4dbe
000001f0: fd23 9c3d fb59 f9b9 1b66 c6bd aab3 e2bb

encoder.9.weight f4 [128, 1, 5, 5]
-0.1586203 -0.4782552 -0.26030484 -0.24676062 -0.1882532 -0.4083527 -0.4888938 -0.50871
-0.09434227 -0.051115 -0.26101115 -0.39601612 -0.23125921 -0.118644774 -0.15451282 -0.27790746
-0.12593435 -0.060416732 -0.41324303 -0.49668136 -0.26010585 -0.20629859 -0.087292805 -0.41912687
-0.43181077 -0.14197238 -0.43461365 -0.22663176 0.018345892 0.29054835 -0.46480316 -0.717488
-0.433249 0.029596062 0.22588602 -0.3492463 -0.42816576 -0.5219504 -0.24816374 0.21744741
-0.15688398 -0.098506 -0.2752905 -0.058094446 0.33159643 0.22945528 0.24638215 0.19402538
0.31400585 0.47132534 0.21927832 0.060124688 0.11338357 -0.12631904 -0.2791111 0.30890265
0.058215175 0.30781555 0.033524893 -0.34055585 0.16272636 0.2748017 0.39968854 0.12084983
-0.34268165 -0.123611115 -0.17798594 0.060758647 -0.18734759 -0.24782671 -0.38723963 -0.23547505
-0.3109264 -0.1954366 0.3660627 0.38717738 0.104735486 -0.07630489 -0.09995189 -0.58844197
0.34324983 -0.006944231 -0.30756927 -0.4604906 0.2089045 0.35593954 -0.049980626 -0.11624054
-0.46517792 0.10662974 0.15164478 0.030670462 0.0077094147 -0.14171025 -0.14368114 0.0014323364
-0.02458615 0.05006533 -0.24782136 -0.08535084 -0.25034872 -0.28734213 -0.38528955 -0.067292586
0.024547448 0.08801181 -0.15046899 -0.27953398 -0.37133083 -0.09121862 0.07863239 0.06203257
-0.17110333 -0.6231558 -0.16535963 -0.078163184 -0.22389802 -0.42474535 -0.6071915 -0.24477503
-0.29747579 -0.10482142 -0.019404551 0.025021505 0.07256044 -0.008480318 0.08119258 0.13374925
0.12441229 0.25618932 -0.009908748 0.11742296 0.17604633 0.53302807 0.17706238 -0.30463147
-0.06556568 -0.028563563 0.6849191 0.5200125 -0.10883815 -0.21450065 -0.19366324 0.3180756
0.6541065 -0.12973301 0.018112447 0.09479479 0.44029754 0.21176584 0.25004968 0.38543797
0.45940012 0.0896079 -0.16633488 0.2941757 0.29146427 0.6144213 0.31059736 -0.022034895
0.34803283 0.30669546 0.52808404 0.36228257 -0.0382776 0.11869836 0.094498314 0.19127832
0.004473628 -0.19892897 0.042571563 0.14370635 -0.16086838 -0.33750826 0.011169575 -0.06971615
-0.012487917 0.11507284 -0.02462661 0.0038016827 -0.028775334 0.060060684 0.18070401 -0.1556347
-0.10595361 0.10691393 0.25774136 0.0009658207 -0.68163586 -0.18846612 -0.20027962 0.023993073
0.39755872 0.36410213 -0.0072258986 -0.17007741 -0.3466203 -0.23314439 0.34652472 0.26124468
-0.10639399 0.10502943 0.19163243 -0.11090522 -0.16864997 0.05471556 -0.370195 0.11468565
0.035913125 0.25089216 0.087272875 -0.11759237 -0.42738634 0.08094822 0.28680158 -0.3264537
-0.2770437 -0.116680734 -0.088878125 0.19615754 -0.046717387 -0.44409397 0.3327036 0.10972202
-0.07429238 0.24158303 0.12781003 0.15453845 -0.15786609 -0.4056766 -0.03749307 0.05061744
0.100868635 0.16036655 -0.42884272 0.00030573097 -0.026248906 -0.1442163 -0.30980116 -0.04904778
0.037638597 0.09801182 0.14946833 0.3136774 0.29376072 -0.0925921 0.15093322 0.31784663
0.29490072 -0.54854417 0.13318582 -0.0131929405 0.070688665 0.5753788 0.5997905 0.24588008
00000000: 5c6d 22be dedd f4be ad46 85be d1ae 7cbe
00000010: 72c5 40be 9b13 d1be 4a50 fabe d23a 02bf
00000020: 8536 c1bd f65d 51bd 41a3 85be a0c2 cabe
00000030: 37cf 6cbe 08fc f2bd 9c38 1ebe e349 8ebe
00000040: eff4 00be 8977 77bd 9794 d3be 054d febe
00000050: 982c 85be f03f 53be 92c6 b2bd cc97 d6be
00000060: 4d16 ddbe 3561 11be ae85 debe 2812 68be
00000070: 204a 963c c1c2 943e aefa edbe 4bad 37bf
00000080: d0d2 ddbe 7173 f23c aa4e 673e 69d0 b2be
00000090: 8b38 dbbe 8b9e 05bf a31e 7ebe 89aa 5e3e
000000a0: 32a6 20be 84bd c9bd e0f2 8cbe 71f4 6dbd
000000b0: 02c7 a93e 53f6 6a3e 9a4b 7c3e 97ae 463e
000000c0: 60c5 a03e 8e51 f13e 7f8a 603e 4e45 763d
000000d0: a535 e83d c759 01be a6e7 8ebe 7d28 9e3e
000000e0: 0973 6e3d 009a 9d3e 6651 093d 565d aebe
000000f0: bda1 263e cfb2 8c3e faa3 cc3e 1e80 f73d
00000100: f873 afbe d327 fdbd f241 36be 0fde 783d
00000110: 0cd8 3fbe 49c6 7dbe 4644 c6be 5f20 71be
00000120: bf31 9fbe 8820 48be 926c bb3e 1d3c c63e
00000130: 8f7f d63d bd45 9cbd 94b3 ccbd 22a4 16bf
00000140: 71be af3e 6f8c e3bb b879 9dbe 6dc5 ebbe
00000150: 10eb 553e b53d b63e 7cb8 4cbd 850f eebd
00000160: cd2b eebe b160 da3d c548 1b3e 9f40 fb3c
00000170: 429f fc3b 7e1c 11be 2621 13be 3cbd bb3a
00000180: e568 c9bc 4e11 4d3d e2c4 7dbe 6ccc aebd
00000190: b52d 80be 821e 93be ac44 c5be b2d0 89bd
000001a0: bb17 c93c 893f b43d 8b14 1abe 141f 8fbe
000001b0: 131f bebe d4d0 babd 050a a13d dd15 7e3d
000001c0: b635 2fbe 2387 1fbf 0954 29be 0514 a0bd
000001d0: 8645 65be 3978 d9be e770 1bbf 4ea6 7abe
000001e0: bf4e 98be 9dac d6bd 4bf6 9ebc e6f9 cc3c
000001f0: 919a 943d 08f1 0abc 4c48 a63d 90f5 083e
00000200: dfcb fe3d 3f2b 833e 4d58 22bc 737b f03d
00000210: 7d45 343e 8774 083f d74f 353e a8f8 9bbe
00000220: 4d47 86bd 22fe e9bc dc56 2f3f 8a1f 053f
00000230: 89e6 debd 0fa6 5bbe a84f 46be ceda a23e
00000240: 8673 273f bbd8 04be 8e60 943c c523 c23d
00000250: ae6e e13e 25d9 583e 8306 803e 2058 c53e
00000260: 7e36 eb3e 5984 b73d b153 2abe 339e 963e
00000270: ce3a 953e b74a 1d3f 9e06 9f3e 8682 b4bc
00000280: 5c31 b23e 3007 9d3e 8430 073f 1a7d b93e
00000290: f9c8 1cbd 2018 f33d 5588 c13d 77de 433e
000002a0: 8397 923b 09b4 4bbe 855f 2e3d c227 133e
000002b0: aeba 24be e2cd acbe 9800 373c 57c7 8ebd
000002c0: 1f9a 4cbc 4fab eb3d bfbd c9bc a725 793b
000002d0: 40ba ebbc 3102 763d 790a 393e b45e 1fbe
000002e0: 35fe d8bd b1f5 da3d adf6 833e 212f 7d3a
000002f0: b07f 2ebf 43fd 40be 1a16 4dbe 1f8d c43c
00000300: d18c cb3e 986b ba3e 3bc7 ecbb c628 2ebe
00000310: 3778 b1be 67bd 6ebe b06b b13e ddc1 853e
00000320: 18e5 d9bd ab19 d73d 4b3b 443e 4722 e3bd
00000330: 94b2 2cbe 6c1d 603d 338a bdbe 4fe0 ea3d
00000340: a419 133d f074 803e 1fbc b23d 45d4 f0bd
00000350: 62d2 dabe 2ec8 a53d a8d7 923e f024 a7be
00000360: acd8 8dbe 4ff6 eebd bc05 b6bd 86dd 483e
00000370: bb5a 3fbd 4960 e3be 2058 aa3e f0b5 e03d
00000380: 9a26 98bd 8b61 773e a2e0 023e 543f 1e3e
00000390: a6a7 21be d8b4 cfbe 5592 19bd 3c54 4f3d
000003a0: 3794 ce3d 2137 243e 4691 dbbe 844a a039
000003b0: f207 d7bc 70ad 13be 429e 9ebe 53e6 48bd
000003c0: ee2a 1a3d 6cba c83d 3a0e 193e 539a a03e
000003d0: ce67 963e eda0 bdbd 3d8e 1a3e cbbc a23e
000003e0: 3afd 963e 646d 0cbf dd61 083e 3427 58bc
000003f0: 38c5 903d 064c 133f df8b 193f fdc7 7b3e

encoder.9.bias f4 [128]
0.03930493 0.045192722 0.01657742 0.014432571 0.037021212 -0.041252166 -0.088648066 -0.0025544376
-0.0071329554 0.04263817 0.07142269 0.0035463257 -0.013710332 0.011655033 -0.045768075 0.22160375
-0.07512264 0.01787392 -0.00036975613 -0.010542994 0.0074216938 0.20921029 0.036692664 -0.01795081
0.0062752604 -0.028687363 -0.062511615 0.03405857 0.05069807 -0.009013231 0.039762978 -0.015576883
0.04659353 -0.037938867 0.110271074 -0.06066325 -0.08960109 -0.01437608 -0.02374537 -0.028164744
0.09039459 -0.048159324 -0.010386527 0.033416703 0.04538995 0.046614833 -0.0033038014 -0.079091236
-0.007756784 -0.044245373 0.14843412 -0.0073579885 0.095748894 0.008490785 0.042006966 0.12671992
-0.032792322 -0.041872796 -0.028641844 -0.007884717 0.06603669 -0.046822537 0.1508357 0.15576701
-0.002436603 0.016934626 0.07915574 -0.119050615 0.088694945 0.044407494 0.014307053 -0.07696674
0.045024265 -0.008146836 0.057640113 -0.0335692 -0.022387316 -0.005778611 0.045585025 0.10113561
-0.016223405 -0.027230617 0.056762803 0.017015988 -0.0020958658 -0.039185602 0.0145569695 -0.025074452
0.06382172 0.00033129132 0.0071991915 -0.15547638 -0.0065310663 0.06110298 -0.032701686 0.003514233
-0.022190543 0.013102749 0.01555782 -0.0003818097 -0.010390962 0.0066612805 0.12646364 0.014571822
-0.05916723 -0.0013088065 -0.089782454 -0.018162366 -0.09066636 0.01630658 0.023833008 -0.0026700813
0.034810714 -0.013935928 -0.01297083 -0.025265265 0.08001514 0.04334392 -0.004019088 0.08031623
0.097989574 -0.00748439 -0.11050024 0.0025812606 -0.012219235 -0.013246033 -0.01600077 -0.04127965
00000000: 35fe 203d 011c 393d 5fcd 873c 9776 6c3c
00000010: 8ea3 173d 08f8 28bd 1e8d b5bd 5a68 27bb
00000020: 91bb e9bb 5da5 2e3d 0f46 923d 7969 683b
00000030: 4da1 60bc c0f4 3e3c 4e77 3bbd 18ec 623e
00000040: e6d9 99bd 546c 923c d4db c1b9 86bc 2cbc
00000050: ae31 f33b 393b 563e 0c4b 163d 940d 93bc
00000060: b3a0 cd3b c301 ebbc 1706 80bd 0081 0b3d
00000070: c8a8 4f3d 3bac 13bc 81de 223d 2f36 7fbc
00000080: dbd8 3e3d c965 1bbd cdd5 e13d 077a 78bd
00000090: c780 b7bd a689 6bbc a685 c2bc c0b9 e6bc
000000a0: cc20 b93d b642 45bd 402c 2abc f4df 083d
000000b0: d0ea 393d 32ef 3e3d 9784 58bb 96fa a1bd
000000c0: 9f2c febb a33a 35bd 1dff 173e 481b f1bb
000000d0: ff17 c43d ef1c 0b3c 7f0f 2c3d dec2 013e
000000e0: 3e51 06bd cf82 2bbd 4da2 eabc e62e 01bc
000000f0: 3e3e 873d fdc8 3fbd ac74 1a3e 6381 1f3e
00000100: 6aaf 1fbb 7cba 8a3c 681c a23d cfd0 f3bd
00000110: b2a5 b53d a2e4 353d 2168 6a3c bda0 9dbd
00000120: 5d6b 383d 4f7a 05bc 0a18 6c3d dc7f 09bd
00000130: 9b65 b7bc 815a bdbb 5db7 3a3d 3020 cf3d
00000140: f2e6 84bc be12 dfbc 1d80 683d 1d65 8b3c
00000150: cb5a 09bb 1581 20bd 5b80 6e3c f068 cdbc
00000160: f6b4 823d 2bb1 ad39 32e7 eb3b 3335 1fbe
00000170: 8e02 d6bb 1e47 7a3d 34f2 05bd 0c4f 663b
00000180: f1c8 b5bc eaac 563c 3ae6 7e3c a12d c8b9
00000190: da3e 2abc df46 da3b af7f 013e a7be 6e3c
000001a0: 5659 72bd 428c abba dddf b7bd 3ec9 94bc
000001b0: 49af b9bd 6095 853c 713d c33c 88fc 2ebb
000001c0: ae95 0e3d 8553 64bc 9b83 54bc 1af9 cebc
000001d0: fade a33d 6589 313d 8eb2 83bb d67c a43d
000001e0: c2ae c83d 9d3f f5bb f34d e2bd 5e2a 293b
000001f0: 3033 48bc e405 59bc 0c14 83bc da14 29bd

encoder.10.weight f4 [128, 128, 1, 1]
0.57123953 0.61945933 0.56494296 -0.2479468 -0.05147316 -0.08601374 0.39675194 -0.15057445
0.09985613 -0.3322739 0.33833614 -0.068365954 0.19396889 0.030820996 0.19247304 0.06475113
0.5345688 0.15502165 -0.095962554 0.48594674 1.2714682 0.10199858 0.049146045 0.35416108
-0.1393806 -0.14674874 -0.022549855 -0.15293296 0.21203981 0.028036265 0.49627584 -0.46752426
-0.11873788 -0.40754825 -0.09757035 -0.18988302 0.115822256 -0.017537033 0.4561309 -0.23018038
0.05779885 -0.17758466 -0.6971612 -0.25588554 -0.29950368 0.057319194 -0.08954473 0.22054507
-0.10438742 -0.30593932 0.28039056 0.2980067 0.24527587 0.11282504 -0.15088592 -0.14557475
-0.4841445 0.38416496 -0.13243172 -0.02079813 -0.060559895 -0.2058734 0.34809908 -0.11772271
0.09295316 -0.025995573 -0.097279586 0.59139925 -0.25685254 -0.67362666 0.44642884 0.12977862
-0.047968637 0.7653323 0.2589352 0.28402594 -0.2641318 -0.28357145 -0.23867583 0.20408191
0.22058727 0.809691 0.2192305 -0.29070586 0.16808128 0.46810505 0.059558954 0.004247282
-0.06680382 -0.09461216 -0.09059431 -0.13564289 -0.115301885 -0.00023492702 0.07506897 0.095803574
0.38524652 0.15369006 0.323953 -0.047233593 -0.10149563 0.027501222 0.20977724 0.07462059
-0.45585465 0.12165898 -0.083600305 -0.19381386 0.009749941 -0.019240547 -0.48184592 0.029954307
-0.37555757 0.051720787 -0.024762273 0.48313946 -0.02043746 -0.3552658 0.029103305 -0.3092315
0.09003066 -0.38874677 0.4091259 0.008847732 -0.09134186 -0.28439358 0.2519398 0.05734378
-0.23792298 0.085974604 0.68671346 -0.05698298 -0.27481034 0.13730247 0.09192302 -0.08111547
0.040882215 -0.15876885 0.035976037 0.088472925 -0.1081998 -0.074843526 -0.2269028 -0.13548785
-0.17021854 -0.42885438 -0.0756615 -0.12604447 -0.10792773 0.20835094 -0.11218916 0.09579335
0.23171096 -0.5247359 0.08022475 -0.30034646 0.058434542 0.22977762 -0.037935823 0.22951245
0.41274473 0.25321054 0.13888554 0.055136934 0.13555114 0.22975771 0.045889568 -0.004863842
0.5266384 0.139812 -0.044156823 -0.061271027 0.16097517 -0.25370267 0.0493083 -0.036518082
0.45839322 -0.14894988 -0.55378723 -0.16290213 -0.10971872 -0.10052444 0.030514825 0.040104512
0.21887967 0.0170916 0.014272153 -0.038138635 0.06822063 0.03763821 0.69603086 0.09162505
-0.071323946 -0.06780603 -0.10847765 0.03188062 0.060116112 -0.011180925 0.05652247 0.04157116
0.19340406 -0.13406916 0.08613183 -0.21975371 -0.051254027 -0.077096045 0.07773557 0.11662842
-0.15592773 0.1268653 -0.33378163 0.029447464 -0.13258709 -0.16372064 0.08658944 -0.057952344
0.23336878 0.31630096 0.081440516 0.0604771 -0.18830499 0.59228665 0.19908871 0.2518469
0.38129216 0.029458247 0.24571091 -0.0012699992 0.109180145 0.015592961 0.76690245 -0.15384318
-0.08941472 0.051344752 0.012405787 0.32643002 0.07635488 0.21263076 0.19120312 0.0520275
-0.2575066 0.18668759 0.29156923 -0.58151704 -0.12145579 -0.06941699 -0.02140844 -0.09453879
0.46092647 -0.006501729 0.14023732 0.11054679 0.15249728 -0.044491395 0.18477198 -0.026016293
00000000: c13c 123f e394 1e3f 1aa0 103f c4e5 7dbe
00000010: 85d5 52bd f927 b0bd 1223 cb3e 3030 1abe
00000020: 5f81 cc3d ce1f aabe 653a ad3e 7303 8cbd
00000030: c89f 463e 507c fc3c a717 453e 3e9c 843d
00000040: 80d9 083f ffbd 1e3e 0488 c4bd 03ce f83e
00000050: 78bf a23f a2e4 d03d 5d4d 493d 9a54 b53e
00000060: cab9 0ebe 4d45 16be 79ba b8bc 759a 1cbe
00000070: f720 593e 4fac e53c de17 fe3e 575f efbe
00000080: d82c f3bd 2aaa d0be f7d2 c7bd b270 42be
00000090: 3834 ed3d d3a9 8fbc fd89 e93e 68b4 6bbe
000000a0: 7dbe 6c3d c1d8 35be 2879 32bf 6e03 83be
000000b0: 8c58 99be 88c7 6a3d 3a63 b7bd 91d6 613e
000000c0: 12c9 d5bd 14a4 9cbe 5a8f 8f3e 5694 983e
000000d0: 9929 7b3e d110 e73d d781 1abe 8c11 15be
000000e0: cae1 f7be 45b1 c43e 2e9c 07be d760 aabc
000000f0: a70d 78bd 7ad0 52be 0b3a b23e 9b18 f1bd
00000100: 3a5e be3d abf4 d4bc 853a c7bd f165 173f
00000110: 2d82 83be cc72 2cbf 5292 e43e b0e4 043e
00000120: c37a 44bd d1ec 433f 2893 843e d96b 913e
00000130: 493c 87be 4730 91be 7067 74be d9fa 503e
00000140: a1e1 613e e947 4f3f f67d 603e 66d7 94be
00000150: 801d 2c3e 77ab ef3e 17f4 733d c92c 8b3b
00000160: 71d0 88bd 05c4 c1bd 8289 b9bd f8e5 0abe
00000170: 6523 ecbd be56 76b9 c3bd 993d aa34 c43d
00000180: 083f c53e ed60 1d3e 2bdd a53e 0378 41bd
00000190: f1dc cfbd 3e4a e13c d8cf 563e aed2 983d
000001a0: c865 e9be 5828 f93d a336 abbd 2477 46be
000001b0: 37be 1f3c 5a9e 9dbc 82b4 f6be bc62 f53c
000001c0: 1549 c0be 2dd9 533d 40da cabc 0e5e f73e
000001d0: 766c a7bc 66e5 b5be 0e6a ee3c 9753 9ebe
000001e0: ff61 b83d d109 c7be f378 d13e 14f6 103c
000001f0: 7111 bbbd 099c 91be 41fe 803e 50e1 6a3d
00000200: 15a2 73be 7413 b03d 74cc 2f3f fc66 69bd
00000210: f1b3 8cbe 0599 0c3e 2342 bc3d de1f a6bd
00000220: 1c74 273d 4d94 22be 9c5b 133d 4b31 b53d
00000230: db97 ddbd 9047 99bd 3559 68be 54bd 0abe
00000240: c54d 2ebe cd92 dbbe 6bf4 9abd cd11 01be
00000250: 3709 ddbd f359 553e 6ec3 e5bd 4e2f c43d
00000260: a345 6d3e 1855 06bf e04c a43d 03c7 99be
00000270: 0f59 6f3d d34a 6b3e 9862 1bbd 5005 6b3e
00000280: 4753 d33e d0a4 813e 0338 0e3e 44d7 613d
00000290: ebcd 0a3e 9b45 6b3e b3f6 3b3d dd60 9fbb
000002a0: c6d1 063f e02a 0f3e c9dd 34bd 54f7 7abd
000002b0: add6 243e 51e5 81be 80f7 493d fc93 15bd
000002c0: 84b2 ea3e 5186 18be 00c5 0dbf d1cf 26be
000002d0: 35b4 e0bd c2df cdbd 3afa f93c a144 243d
000002e0: fe21 603e af03 8c3c c0d5 693c 4237 1cbd
000002f0: 42b7 8b3d 862a 1a3d 142f 323f eaa5 bb3d
00000300: 4a12 92bd e3dd 8abd 8829 debd 4195 023d
00000310: 503c 763d 3330 37bc 1b84 673d 8546 2a3d
00000320: b70b 463e 6d49 09be e365 b03d 1e07 61be
00000330: beef 51bd 88e4 9dbd d433 9f3d e2da ee3d
00000340: 85ab 1fbe fae8 013e 6de5 aabe cf3b f13c
00000350: e9c4 07be 62a6 27be ce55 b13d 705f 6dbd
00000360: 3af8 6e3e 33f2 a13e 49ca a63d d6b6 773d
00000370: 06d3 40be 19a0 173f e9dd 4b3e 14f2 803e
00000380: ba38 c33e 6c52 f13c a49b 7b3e 1a76 a6ba
00000390: d799 df3d 9e79 7f3c b853 443f 1189 1dbe
000003a0: 111f b7bd e04e 523d a441 4b3c d621 a73e
000003b0: f35f 9c3d e1bb 593e c0ca 433e ca1a 553d
000003c0: e8d7 83be 082b 3f3e 9048 953e 4dde 14bf
000003d0: d0bd f8bd 7f2a 8ebd c160 afbc 8e9d c1bd
000003e0: 8efe eb3e 750c d5bb 5f9a 0f3e 5b66 e23d
000003f0: 3f28 1c3e 9c3c 36bd de34 3d3e 1f20 d5bc
