src/demo/anomaly_detection/model_checkpoints/cookie/ae_model.pt (torch, 291555 bytes, 32 tensors)

encoder.0.weight f4 [1, 1, 5, 5]
0	0x3c8d1e80	0.017226458
1	0x3dd75e8d	0.10516081
2	0xbda8042b	-0.0820392
3	0xbde01492	-0.109414235
4	0x3d117efa	0.035521485
5	0xbd72de91	-0.059294287
6	0xbdc12ac4	-0.09431985
7	0xbe4016d9	-0.18758716
8	0xbe46d049	-0.19415392
9	0x3d0e7e4b	0.03478841
10	0xbdcad273	-0.09903421
11	0xbed8bd33	-0.42331848
12	0xbed69077	-0.41907093
13	0xbe56c61d	-0.20974012
14	0xbe1ef895	-0.15524514
15	0x3d672df4	0.05644031
16	0xbe1fac68	-0.15593112
17	0xbee3a173	-0.44459113
18	0xbe3551e0	-0.17707014
19	0xbd99b7b5	-0.075057425
20	0x3d904c79	0.07045836
21	0x3d2d4694	0.042303637
22	0xbe39aedd	-0.18133111
23	0xbd9a5129	-0.07535011
24	0x3d85a15b	0.06524917

encoder.1.weight f4 [32, 1, 1, 1]
0	0x3eda452a	0.42630893
1	0x3ea6de3b	0.32591423
2	0xbf82c8b3	-1.0217499
3	0x3f2921a6	0.6606697
4	0xbee8127f	-0.4532661
5	0x3f01845e	0.505926
6	0x3f8ca157	1.0986737
7	0x3e04dbda	0.12974492
8	0xbf69bb8d	-0.91301805
9	0x3de6b96d	0.11265836
10	0x3e0ff759	0.140592
11	0x3eac71ba	0.33680516
12	0x3f1f277b	0.6216962
13	0x3e347732	0.17623594
14	0x3f0a9ef5	0.541488
15	0x3f239438	0.6389804
16	0xbc598300	-0.013275862
17	0xbe555ab7	-0.20835386
18	0xbf63906c	-0.88892245
19	0x3eaaa0ca	0.33325797
20	0xbd2cd36f	-0.042193826
21	0xbf5c8a50	-0.8614855
22	0xbf2d75f3	-0.677581
23	0x3de5d140	0.11221552
24	0x3f2acb23	0.6671621
25	0x3f0a0979	0.53920704
26	0xbf2c8009	-0.67382866
27	0x3f35909b	0.70923775
28	0x3f82e04e	1.0224702
29	0xbeefc87d	-0.46832648
30	0x3e689358	0.22712457
31	0xbf5fcb17	-0.87419266

encoder.1.bias f4 [32]
0	0x3f4b3187	0.7937245
1	0x3f15e9d9	0.5855995
2	0xbf33216d	-0.6997288
3	0xbe8312ed	-0.25600377
4	0xbf552356	-0.83257043
5	0xbf115608	-0.567719
6	0x3f0d09d1	0.55093104
7	0x3f15eb51	0.5856219
8	0xbf155667	-0.58334965
9	0x3edc1a31	0.42988732
10	0xbf36435b	-0.71196526
11	0x3f5efc94	0.87104154
12	0xbe85a4ad	-0.261022
13	0x3ec80531	0.3906646
14	0x3ecddd40	0.40207863
15	0x3eb299b4	0.3488289
16	0xbe3294a0	-0.17439508
17	0xbf7d906c	-0.99048495
18	0xbf3dab72	-0.7408973
19	0x3eb8bfd7	0.36083862
20	0x3f368dd0	0.7131014
21	0xbf2bff50	-0.6718645
22	0xbef78b46	-0.48348445
23	0xbf42603c	-0.7592809
24	0x3eb804d4	0.35941184
25	0x3e930b25	0.2871944
26	0x3f0edac0	0.55802536
27	0xbebe135e	-0.3712415
28	0xbe80b43c	-0.25137508
29	0xbee0bc00	-0.43893433
30	0x3f18d4ea	0.5969988
31	0xbf081d7d	-0.53169996

encoder.3.weight f4 [32, 1, 5, 5]
0	0xbe2e4ddd	-0.1702189
1	0xbe5497ce	-0.20761034
2	0xbefc48f1	-0.492744
3	0xbd3821ad	-0.04495399
4	0xbc2b5338	-0.010456853
5	0xbe93fd7f	-0.2890434
6	0xbd008d12	-0.031384535
7	0xbe856aaf	-0.26057956
8	0x3dae3344	0.08505872
9	0xbd9e9140	-0.07742548
10	0xbedb0f1e	-0.4278497
11	0xbe8c8c54	-0.27450812
12	0xbe584980	-0.21121788
13	0x3e0a0e9e	0.13482139
14	0xbe246537	-0.16054235
15	0xbe505b96	-0.20347437
16	0x3d8d6fb1	0.06906069
17	0xbda3f786	-0.08006196
18	0x3edf9849	0.43670872
19	0x3cb571a2	0.02214891
20	0xbdc2f2f6	-0.09518997
21	0x3cc7803f	0.024353145
22	0xbe0405e9	-0.1289288
23	0x3e490259	0.19629802
24	0x3df89f7a	0.12139793
25	0xbdd56109	-0.104188986
26	0x3e1fb8e1	0.1559787
27	0x3d8d984b	0.06913813
28	0xba9f0026	-0.0012130782
29	0x3e1ca7dd	0.1529841
30	0xbb80a459	-0.003925842
31	0xbdd62462	-0.10456158
32	0xbe33187a	-0.17489806
33	0xbe82c77f	-0.25542828
34	0xbd360bbf	-0.044444796
35	0x3daff41e	0.085914835
36	0xbc80886b	-0.01569005
37	0x3d0c4f44	0.03425528
38	0xbe6aea3a	-0.22940913
39	0x3dd9addc	0.10628864
40	0xbe0a574c	-0.13509864
41	0xbe153a00	-0.14572906
42	0xbcf2e25d	-0.029648954
43	0xbe80ac67	-0.25131533
44	0x3e0b428c	0.13599604
45	0x3e22eb7e	0.15910146
46	0x3e524e91	0.20537783
47	0x3d82743a	0.06369825
48	0xbd35b3fb	-0.044361096
49	0x3e8a12b1	0.26967385
50	0xbe854985	-0.26032653
51	0xbe7b91aa	-0.24567285
52	0xbcda01a9	-0.02661212
53	0xbe302185	-0.17200287
54	0xbe82a831	-0.25518945
55	0xbec099f6	-0.37617463
56	0xbe254e0c	-0.16143054
57	0x3e79bb71	0.2438791
58	0x3cd7383f	0.026271937
59	0xbe436d5b	-0.19084685
60	0x3d2e9db9	0.042630885
61	0x3e8cc82a	0.27496463
62	0x3f11b70c	0.5691993
63	0x3ea8f848	0.33001924
64	0x3da4c9e7	0.08046322
65	0xbdfaa066	-0.12237625
66	0x3de8f849	0.11375482
67	0x3ec655c9	0.38737324
68	0x3e8850cb	0.2662414
69	0xbda6bad4	-0.081411034
70	0xbe5efc07	-0.21775828
71	0xbc80b4bb	-0.015711179
72	0x3d88c004	0.06677249
73	0xbde016d9	-0.10941858
74	0xbe742c80	-0.238451
75	0xbcb1f95f	-0.021725355
76	0x3e7fea88	0.2499181
77	0x3e58700d	0.21136494
78	0x3e63862d	0.22219153
79	0x3e1b718d	0.15180035
80	0x3e3d9069	0.1851212
81	0x3e62c69a	0.22146073
82	0x3e83099d	0.25593272
83	0x3ef8a4ba	0.48563176
84	0x3dde95f4	0.10868445
85	0xbdb218fe	-0.08696173
86	0x3e132b44	0.14371973
87	0x3de00408	0.10938269
88	0x3e32ba66	0.17453918
89	0x3e7b7a4a	0.24558368
90	0x3d94fe2b	0.07275041
91	0x3eaad86f	0.3336825
92	0x3dd90847	0.10597282
93	0x3a2df681	0.0006636158
94	0xbcf2d483	-0.02964235
95	0x3d717738	0.058951586
96	0x3e9046cb	0.2817901
97	0x3eb266a1	0.34843925
98	0x3df0d334	0.11759034
99	0xbddc3b7b	-0.107535325
100	0xbe13dfce	-0.14440843
101	0x3cb00530	0.021486849
102	0x3e96ff65	0.29491726
103	0x3e480c58	0.19535959
104	0xbdd31778	-0.10307211
105	0x3db74beb	0.08950027
106	0x3ea30f60	0.31847668
107	0x3f1999c9	0.6000028
108	0x3f46ebde	0.77703655
109	0x3e8b5676	0.27214402
110	0x3e4c1a94	0.19932014
111	0x3f173444	0.59064126
112	0x3f2fca4f	0.68668073
113	0x3f741dfa	0.9535824
114	0x3f01848e	0.5059289
115	0x3eb1a551	0.3469644
116	0x3f3db2c5	0.74100906
117	0x3f3ce148	0.7378125
118	0x3f42b915	0.7606366
119	0x3f058eed	0.5217121
120	0xbdff65eb	-0.12470611
121	0x3ea70d60	0.32627392
122	0x3eac8090	0.33691835
123	0x3f030049	0.5117231
124	0x3c7b3543	0.015332523
125	0xbe130283	-0.14356427
126	0xbe24761e	-0.16060683
127	0x3e80c7fb	0.25152573
128	0xbdb561a9	-0.08856518
129	0x3da74ea9	0.081693
130	0xbc79edc4	-0.015254442
131	0xbef17112	-0.47156578
132	0x3e429143	0.19000725
133	0x3ebb605d	0.36596957
134	0x3e0f7533	0.14009552
135	0x3c8bf259	0.017083334
136	0x3e8154e1	0.2526007
137	0x3ecb9ba4	0.39767182
138	0x3ede828a	0.43458968
139	0x3d8d0b85	0.06886963
140	0xbd685dd1	-0.056730095
141	0x3e2f8999	0.17142333
142	0x3efa0bf6	0.4883725
143	0x3e91330d	0.2835926
144	0x3e414e4b	0.18877523
145	0x3d27f222	0.0410024
146	0x3dea3b73	0.1143712
147	0x3dba8847	0.09108024
148	0xbdab4fe6	-0.08364849
149	0x3df0da62	0.11760403
150	0x3ec19e81	0.3781624
151	0x3f111837	0.56677574
152	0x3e8572b6	0.2606408
153	0x3f0145f5	0.5049737
154	0x3ec91544	0.39274037
155	0x3ec4f3e0	0.38467312
156	0x3f58cdba	0.84688914
157	0x3f3c1d4e	0.73482215
158	0x3f7e7259	0.9939323
159	0x3edb388e	0.42816585
160	0x3e6e5b72	0.23277071
161	0x3f50eedd	0.81614476
162	0x3f52e5ee	0.82382095
163	0x3f522463	0.8208677
164	0x3ea44350	0.32082605
165	0x3f0a8df1	0.54122835
166	0x3f590903	0.84779376
167	0x3f5c0c49	0.85956246
168	0x3f89c5c9	1.0763484
169	0x3f1224ca	0.57087386
170	0x3ea04af2	0.3130718
171	0x3ec424a2	0.383092
172	0x3e869183	0.26282892
173	0x3f10573d	0.56383115
174	0x3eefa712	0.46807152
175	0x3da7ab46	0.08186965
176	0x3c140587	0.009034521
177	0x3e01c7f0	0.12673926
178	0x3de9c6ca	0.11414869
179	0x3ecd3348	0.40078187
180	0x3d6e63a7	0.058200505
181	0x3cffb9ee	0.031216588
182	0xbe1ec105	-0.15503319
183	0x3dff8907	0.12477308
184	0x3e9e3727	0.30901453
185	0x3b4f2055	0.0031604965
186	0xbe6861a4	-0.22693497
187	0xbeaca97d	-0.3372306
188	0xbeace9f5	-0.33772245
189	0x3e8f74ed	0.28018895
190	0xbdb66ecc	-0.089078516
191	0xbd6a12dc	-0.057146892
192	0xbe578409	-0.21046461
193	0xbeaf4032	-0.34228665
194	0x3e71514c	0.23566169
195	0x3e6c34d0	0.23067021
196	0x3e0c8a37	0.137246
197	0x3e8ca604	0.2747041
198	0x3e382f16	0.17986712
199	0x3ec5063b	0.38481316
200	0x3d97844f	0.07398283
201	0xbd6283d2	-0.055301495
202	0xbd932913	-0.07185569
203	0x3ecbe475	0.39822736
204	0x3e2a8dea	0.16655698
205	0xbe8828be	-0.26593584
206	0xbe8d6fc9	-0.27624348
207	0xbd2c7e86	-0.04211285
208	0x3f2c5ea7	0.6733193
209	0x3ec21f74	0.37914622
210	0xbe74dd31	-0.23912503
211	0xbe4680e7	-0.1938511
212	0xbe9ba4c2	-0.30399138
213	0x3dfa493e	0.12221001
214	0x3d0382c1	0.03210712
215	0x3dc7e4de	0.0976045
216	0xba09a9ce	-0.0005251438
217	0xbe678f1b	-0.22613184
218	0x3e0954fd	0.13411327
219	0xbcb8a1fd	-0.02253818
220	0x3e1551be	0.14581963
221	0x3cf27236	0.029595476
222	0xbed9f5e3	-0.4257041
223	0xbe4f52e2	-0.20246461
224	0xbe6edbf2	-0.2332609
225	0x3e3afa19	0.18259467
226	0x3d578d62	0.052625068
227	0xbd9ec9ea	-0.07753356
228	0x3e5050c9	0.20343317
229	0xbd31cdd4	-0.043409184
230	0x3c91ec6c	0.01781293
231	0x3e38a3a6	0.18031177
232	0x3e5d6697	0.21621166
233	0x3df0f532	0.11765517
234	0x3e37fb2b	0.17966907
235	0x3dd2fb71	0.10301865
236	0x3e0192c9	0.1265365
237	0xbe00ce20	-0.1257863
238	0xbd5bd1ea	-0.053666987
239	0x3e000a1f	0.12503861
240	0xbe2ca29a	-0.16858903
241	0xbcac89c4	-0.021061786
242	0xbe4b3359	-0.19843806
243	0xbd1bbc88	-0.038021594
244	0xbe035204	-0.12824255
245	0x3e19fdc2	0.15038207
246	0x3e28a670	0.16469741
247	0x3d4ddc18	0.050258726
248	0xbe2920dd	-0.16516443
249	0xbe043881	-0.1291218
250	0x3d8d386a	0.06895526
251	0xbd8e0a67	-0.06935578
252	0x3e89b8a8	0.26898694
253	0xbc24c610	-0.010056987
254	0xbe47d08a	-0.19513145
255	0x3e243402	0.16035464

encoder.3.bias f4 [32]
0	0x3dc4dffa	0.09613033
1	0xbdb7d3c2	-0.089759365
2	0xbd93dc09	-0.07219703
3	0xbe1e6604	-0.15468603
4	0xbe8ca59c	-0.274701
5	0x3e1d0511	0.15333964
6	0x3cb9bb57	0.022672338
7	0xbe873193	-0.2640501
8	0x3e4be9e4	0.19913441
9	0xbe3fa484	-0.18715101
10	0xbe053e86	-0.13012132
11	0xbdb1b635	-0.08677331
12	0x3e125a03	0.14292149
13	0x3dc20e17	0.09475344
14	0x3e30721a	0.17231026
15	0xbdf70024	-0.12060574
16	0xbb9738f9	-0.004614946
17	0xbdbb86dd	-0.091565825
18	0xbe04a160	-0.12952185
19	0xbe649a6b	-0.22324531
20	0x3e7e07f7	0.24807726
21	0x3da2f87a	0.079575494
22	0xbe18b519	-0.14912833
23	0x3e457f7d	0.19286914
24	0xbde8e108	-0.11371046
25	0x3e4000ca	0.18750301
26	0xbdda9585	-0.1067305
27	0xbe0ce242	-0.13758186
28	0xbd3d2275	-0.04617544
29	0x3e4ef56d	0.2021081
30	0xbd9cf836	-0.0766453
31	0x3defa31b	0.11701032

encoder.4.weight f4 [64, 32, 1, 1]
0	0xbe7fcd09	-0.24980558
1	0xbd7d09a5	-0.061776776
2	0x3ebdfeec	0.37108552
3	0x3e8d406e	0.27588218
4	0x3f3ada1a	0.72989047
5	0xbea8b34e	-0.329493
6	0x3c0004c0	0.0078136325
7	0xbf155597	-0.58333725
8	0x3eceb84f	0.4037499
9	0xbc24ed9f	-0.010066419
10	0x3efb7651	0.49113706
11	0xbf20b7db	-0.6278054
12	0xbe9846c2	-0.29741484
13	0xbd6deae5	-0.05808534
14	0x3c307f36	0.010772517
15	0x3e44837e	0.19190785
16	0x3e800da4	0.25010407
17	0x3eae9d63	0.34104452
18	0x3f49cd49	0.78828865
19	0xbe2f1d7a	-0.17101088
20	0x3df9f608	0.1220513
21	0x3d4040fc	0.046936974
22	0xbc886f32	-0.016654585
23	0xbf10ab63	-0.56511515
24	0x3d9877dc	0.07444736
25	0x3e3d4d19	0.18486442
26	0x3ed7653a	0.42069417
27	0x3e225945	0.15854366
28	0x3df5f2a4	0.12009171
29	0xbdd3db3e	-0.103445515
30	0xbe1898e2	-0.1490207
31	0xbec305cb	-0.38090357
32	0x3e7bb690	0.24581361
33	0xbea6d685	-0.3258554
34	0xbf4cfbea	-0.8007189
35	0xbcf00d1f	-0.029303132
36	0x3a9dc614	0.0012037181
37	0x3e202082	0.15637401
38	0xbf85f720	-1.0466042
39	0xbe2fc55e	-0.17165133
40	0x3e4d3095	0.20038064
41	0x3dd674a9	0.1047147
42	0x3dd890e8	0.10574514
43	0x3e0325cf	0.12807392
44	0xbdb3229f	-0.08746838
45	0xbe06fddd	-0.13182779
46	0xbd99f03a	-0.07516523
47	0xbecedc06	-0.4040224
48	0xbd7e1aa2	-0.062037118
49	0xbd328c0d	-0.043590594
50	0x3f804343	1.0020527
51	0x3d278e3e	0.040907137
52	0xbd40e672	-0.04709477
53	0xbdb14292	-0.086552754
54	0xbde42fe7	-0.11141949
55	0x3c8c1ef5	0.017104605
56	0xbe500a3a	-0.20316401
57	0x3e5e287e	0.21695134
58	0xbda25659	-0.07926626
59	0x3e7cf4fc	0.24702829
60	0xbc77c168	-0.015121795
61	0xbd8e9a9c	-0.06963083
62	0xbd6e1c7f	-0.058132645
63	0x3f22b753	0.6356098
64	0xbd51bde7	-0.051206496
65	0x3a1a9177	0.000589631
66	0xbec1446a	-0.37747508
67	0x3a215d54	0.00061555696
68	0x3ea25305	0.31703964
69	0xbe82fe22	-0.25584513
70	0xbbe7459e	-0.0070578596
71	0xbee1b687	-0.4408457
72	0x3e845cd2	0.25852066
73	0xbd5502d6	-0.052004658
74	0x3e04212e	0.12903282
75	0xbe006743	-0.12539391
76	0x3c41d3d2	0.011830287
77	0x3e2e9cbd	0.17051978
78	0xbd0fa63c	-0.035070643
79	0x3ddefb6e	0.108878
80	0x3e4ce214	0.20008117
81	0x3e4b5f55	0.19860585
82	0xbdfcbcbc	-0.12340686
83	0xbdc14a7a	-0.094380334
84	0x3e6f52ed	0.23371477
85	0xbe5f90ed	-0.21832629
86	0x3eb20b5f	0.347743
87	0xbe309602	-0.17244723
88	0x3dc10000	0.09423828
89	0x3d769060	0.06019628
90	0x3c95fc26	0.01830871
91	0x3cba4913	0.022739923
92	0xbe28e218	-0.16492498
93	0xbee12fa5	-0.43981662
94	0x3dfc9ffa	0.123352006
95	0xbe6379a1	-0.22214366
96	0x3e64f28a	0.22358146
97	0xbe300aca	-0.17191616
98	0x3f496db4	0.7868302
99	0x3d669a41	0.05629945
100	0xbfd015d0	-1.6256657
101	0xbd1aeb47	-0.037822034
102	0xbdacc67d	-0.08436296
103	0xbe80a973	-0.2512928
104	0xbd9d1aab	-0.07671102
105	0xbdcf4ffb	-0.10122677
106	0x3df8f9d1	0.12157024
107	0x3dc4555e	0.09586595
108	0x3dd41e4f	0.103573434
109	0xbe4dd880	-0.2010212
110	0x3ed2c999	0.41169432
111	0xbc518c02	-0.012789728
112	0x3c449a7c	0.011999723
113	0xbe4daf8a	-0.20086494
114	0xbf351ea4	-0.7074988
115	0xbe1f4ee0	-0.15557432
116	0x3e2dfaf9	0.1699027
117	0xbe889f7d	-0.2668418
118	0x39c206fe	0.00037007773
119	0x3d1d13ac	0.03834884
120	0x3e378a7a	0.17923918
121	0x3eb8b989	0.36079052
122	0x3e8ad5d1	0.27116254
123	0x3e8ec0d2	0.27881485
124	0x3e9a76de	0.30168813
125	0xbd16a964	-0.036782637
126	0xbc750f28	-0.014957227
127	0xbe3c2286	-0.18372545
128	0x3d7abfcc	0.061218068
129	0xbd578a9a	-0.052622415
130	0xbef3e704	-0.47637188
131	0xbe729b19	-0.23691978
132	0xbd04efcd	-0.032455254
133	0xbead79c4	-0.33881962
134	0xbc6999a3	-0.014257821
135	0xbda5fe04	-0.0810509
136	0xbe484498	-0.19557416
137	0xbe056f44	-0.13030726
138	0x3e8a6a8a	0.27034408
139	0xba7fbdcd	-0.00097557605
140	0x3df9b681	0.12193013
141	0x3e6c1496	0.23054728
142	0x3b7e082b	0.0038762193
143	0x3d297f0d	0.04138093
144	0x3e67c042	0.22631934
145	0x3e416077	0.18884455
146	0x3e71ec30	0.23625255
147	0x3e74f02e	0.23919746
148	0x3ef18a98	0.4717605
149	0x3d0f2bd8	0.034953922
150	0x3d574b4b	0.05256204
151	0xbe0e6a15	-0.13907655
152	0x3d0d91dc	0.03456293
153	0xbdcd466d	-0.10023198
154	0xbd3a12d4	-0.045428112
155	0xbe2d31d9	-0.16913547
156	0xbe74aa0a	-0.2389299
157	0xbeae55ac	-0.34049737
158	0xbdc39421	-0.09549738
159	0x3c909d58	0.017653152
160	0x3e557c09	0.20848097
161	0x3bb06de4	0.0053841937
162	0xbdf5d610	-0.1200372
163	0x3d318a47	0.043344762
164	0x3fb693df	1.4263877
165	0xbeaa792f	-0.3329558
166	0xbd09850a	-0.03357414
167	0xbeb48c78	-0.3526342
168	0xbcf5ee6d	-0.030020917
169	0xbd9780e3	-0.0739763
170	0x3ecd0031	0.4003921
171	0xbea7e459	-0.32791403
172	0x3e3e8af2	0.18607691
173	0x3e990554	0.29886878
174	0xbe4beabd	-0.19913764
175	0x3d69382f	0.056938346
176	0x3e15326f	0.1457002
177	0x3e83616d	0.25660267
178	0x3e4fc09a	0.20288315
179	0x3db1a470	0.08673942
180	0x3e7ce217	0.24695621
181	0x3e239c2b	0.15977542
182	0x3ee491bb	0.44642434
183	0xbe1e7958	-0.15475976
184	0xbd1b666a	-0.037939467
185	0xbde01b0b	-0.10942658
186	0x3c99d6da	0.018779207
187	0x3e2023a8	0.15638602
188	0x3c997142	0.018730763
189	0xbf409d98	-0.7524047
190	0xbd396177	-0.045258965
191	0xbe562ac8	-0.20914757
192	0x3f08075a	0.5313622
193	0x3d1ef5bb	0.038808566
194	0x3f4500aa	0.7695414
195	0x3e400757	0.187528
196	0x3c814d9a	0.015784074
197	0x3d378b56	0.044810615
198	0xbd3a2cc3	-0.045452844
199	0xbf2268e5	-0.63441306
200	0x3cf54d9a	0.02994423
201	0xbe4ed442	-0.20198157
202	0xbe3015fe	-0.1719589
203	0xbe35d1aa	-0.17755762
204	0xbde0674d	-0.10957203
205	0x3e26e622	0.16298726
206	0x3e12e7cd	0.14346237
207	0x3d4f17ad	0.05055969
208	0xbd0a7720	-0.033805013
209	0x3d9346db	0.07191249
210	0x3efa3279	0.48866633
211	0xbe6d5339	-0.23176278
212	0x3f4ddb5b	0.80412835
213	0xbe5c5cbb	-0.21519749
214	0xbe5611b3	-0.20905189
215	0xbbc0d3d8	-0.0058846287
216	0x3da3ebc9	0.08003957
217	0x3ec393a8	0.3819859
218	0x3eda2a96	0.42610615
219	0xbc665261	-0.014057727
220	0xbe72f223	-0.2372518
221	0xbc3725db	-0.011178459
222	0xbe7f5b3c	-0.24937147
223	0xbf0db59d	-0.55355245
224	0x3f656bc8	0.89617586
225	0x3e8d658d	0.2761654
226	0x3f1c733e	0.61113346
227	0x3c4fb307	0.012676961
228	0xbd8fb6fd	-0.07017324
229	0xbdbc8203	-0.09204485
230	0xbf49b0df	-0.7878551
231	0xbe19668e	-0.14980528
232	0xbe058e58	-0.13042581
233	0xbd8adf2a	-0.067808464
234	0x3ceeb3f4	0.029138543
235	0xbe98a139	-0.29810503
236	0x3da34c53	0.07973542
237	0x3e91897b	0.28425202
238	0x3ef53065	0.47888485
239	0xbd90b44a	-0.070656374
240	0xbd52d24a	-0.05147008
241	0x3e19249a	0.14955369
242	0x3e2fd370	0.17170501
243	0x3dce6778	0.10078329
244	0x3de60708	0.1123181
245	0x3de16c66	0.110070035
246	0xbcde831d	-0.027162129
247	0xbe6772ed	-0.22602434
248	0x3d1b287c	0.037880406
249	0x3e4ccad8	0.19999254
250	0x3dc1b04c	0.09457454
251	0x3d97e79f	0.07417225
252	0x3c788c6f	0.015170201
253	0xbec70c73	-0.38876686
254	0x3ceb1f26	0.028701376
255	0xbe782dfc	-0.24236292

encoder.4.bias f4 [64]
0	0xbf12f89d	-0.57410604
1	0xbdd65437	-0.104652815
2	0xbd3766c4	-0.04477574
3	0x3daed47f	0.08536624
4	0xbe4462f1	-0.19178368
5	0xbe510757	-0.20412956
6	0xbb72be9f	-0.0037039889
7	0xbe103879	-0.14084043
8	0xbe60a0c2	-0.21936324
9	0xbe66df11	-0.2254603
10	0x3e612758	0.21987665
11	0xbea20748	-0.3164618
12	0xbe664cb6	-0.224902
13	0x3e719acb	0.23594205
14	0xbded93c7	-0.11600452
15	0x3e292efb	0.16521828
16	0xbe295a9b	-0.1653847
17	0xbe71a6d4	-0.23598796
18	0xbdf3caf3	-0.11903944
19	0x3d9eb646	0.0774961
20	0xbeb44dfd	-0.3521575
21	0xbd5cc284	-0.053896442
22	0xbe563981	-0.20920373
23	0xbea40a30	-0.32039022
24	0xbe25b700	-0.1618309
25	0x3e09ef99	0.13470306
26	0x3baba311	0.005237945
27	0xbe038712	-0.12844494
28	0xbe4d6386	-0.20057496
29	0xbc429cd6	-0.011878213
30	0xbe234993	-0.15946035
31	0xbe15889a	-0.1460289
32	0xbd9ab73c	-0.075544804
33	0xbd0fa2af	-0.035067257
34	0xbe6091d4	-0.21930629
35	0xbe02a213	-0.12757139
36	0x3e173381	0.14765741
37	0x3e81f06d	0.25378743
38	0x3d9cdd18	0.07659358
39	0x3d896abe	0.067098126
40	0xbdfde6b3	-0.12397518
41	0xbeb28ebf	-0.34874532
42	0xbe887631	-0.26652673
43	0xbd7c4b80	-0.06159544
44	0xbebaa8cd	-0.3645691
45	0xbd9bfcab	-0.07616552
46	0x3eb88cda	0.3604496
47	0xbd8f28e6	-0.06990223
48	0x3d4c92d1	0.049944703
49	0x3de677d3	0.112533234
50	0x3e824570	0.25443602
51	0xbe019c24	-0.12657219
52	0xbe145865	-0.14486845
53	0xbe93718f	-0.28797576
54	0x3e58c3ab	0.21168391
55	0xbced4cee	-0.028967347
56	0x3d334d39	0.043774817
57	0xbe148497	-0.14503704
58	0x3e29358e	0.16524336
59	0xbaf95dad	-0.001902511
60	0x3ed72dec	0.42027223
61	0xbd89b2df	-0.0672357
62	0x3d355e6e	0.04427951
63	0xbd24debb	-0.040251475

encoder.6.weight f4 [64, 1, 5, 5]
0	0x3ebf1d67	0.3732712
1	0x3e100f77	0.140684
2	0xbd8012b9	-0.06253571
3	0xbea86685	-0.32890716
4	0xbd744e37	-0.059644904
5	0x3e0a7b8a	0.13523689
6	0x3e799d6a	0.24376455
7	0x3e977947	0.29584715
8	0xbe5ec427	-0.21754514
9	0xbf203cec	-0.6259296
10	0xbb8f187f	-0.004366934
11	0x3e93740d	0.28799477
12	0x3f288fe2	0.6584455
13	0x3f01361b	0.50473183
14	0xbf1149f0	-0.56753445
15	0xbeeb6375	-0.45974317
16	0xbe00ab15	-0.12565263
17	0x3ea64c19	0.32479933
18	0x3f3288df	0.697401
19	0x3ea177fd	0.31536856
20	0xbd970342	-0.07373668
21	0xbef34d10	-0.47519732
22	0xbee527f3	-0.4475704
23	0x3de09b4a	0.10967119
24	0x3f07d099	0.5305267
25	0xbe2f742f	-0.17134164
26	0xbd883509	-0.06650741
27	0xbd82a1f5	-0.06378547
28	0xbf93a0ed	-1.1533486
29	0xbf25fd03	-0.6483919
30	0xbe537a9b	-0.20652239
31	0xbd10f982	-0.0353942
32	0xbed9d57a	-0.42545682
33	0xbf815cc9	-1.0106441
34	0xbf5b1b92	-0.85588944
35	0xbec966d6	-0.3933627
36	0xbe93b74f	-0.2885079
37	0xbcb59cbf	-0.022169469
38	0xbf084ac6	-0.53239095
39	0xbf32acd3	-0.6979496
40	0xbf03146e	-0.5120305
41	0xbf3c2156	-0.73488367
42	0xbf028ed1	-0.5099917
43	0x3b09c259	0.0021020381
44	0xbe9eebf9	-0.31039408
45	0xbe9a94d9	-0.30191687
46	0xbf00c6d8	-0.5030341
47	0xbf1996b2	-0.5999557
48	0xbe9bc630	-0.30424643
49	0xbf0e6e68	-0.55637217
50	0x3df420b5	0.11920301
51	0x3e1355fa	0.14388266
52	0x3e501efb	0.20324318
53	0x3e12a477	0.14320551
54	0x3dbfb9b5	0.09361593
55	0xbc9b02e6	-0.01892228
56	0x3cc3bb99	0.023893164
57	0x3d09307a	0.033493496
58	0xbe36302d	-0.17791815
59	0x3e4b06a3	0.1982675
60	0x3c7eb700	0.01554656
61	0x3d92a0ef	0.07159602
62	0xbe0c8ffb	-0.13726799
63	0xbe8f04bc	-0.279333
64	0x3e44cfac	0.19219846
65	0xbc9571ee	-0.018242802
66	0xbd809dfb	-0.062801324
67	0xbe56de68	-0.20983279
68	0xbeaf85a7	-0.34281656
69	0x3e79b993	0.24387197
70	0xbdf7ada4	-0.12093666
71	0xbdaebdb2	-0.08532275
72	0xbce603c5	-0.02807797
73	0x3bbf4e9d	0.005838229
74	0xbc2e2633	-0.010629225
75	0xbd5a1bac	-0.053249046
76	0xbd34f34a	-0.04417733
77	0xbe650b99	-0.22367705
78	0xbee12fc5	-0.43981758
79	0xbe4775bc	-0.19478506
80	0xbe336de4	-0.17522389
81	0x3bef8297	0.0073092687
82	0x3e78a132	0.24280241
83	0x3d506971	0.050881807
84	0xbec557b3	-0.38543472
85	0xbe8a6c4f	-0.27035758
86	0x3e10d964	0.14145428
87	0x3f080599	0.5313354
88	0x3eb20350	0.34768152
89	0xbe5948f2	-0.21219233
90	0xbe198f38	-0.1499604
91	0x3eb36491	0.35037664
92	0x3f148a04	0.58023095
93	0x3f126ae9	0.5719438
94	0x3da0d5b1	0.078532584
95	0xbe35db9d	-0.17759557
96	0x3cee09ac	0.029057346
97	0x3e7e633b	0.24842541
98	0x3e36142d	0.17781134
99	0xbb81ed8d	-0.003965086
100	0x3daa1a19	0.08305759
101	0xbe8a2055	-0.26977792
102	0xbd0773a2	-0.03306926
103	0x3e0faa98	0.1402992
104	0x3e73973a	0.23788157
105	0x3d03f269	0.032213602
106	0xbe354107	-0.17700587
107	0xbe683589	-0.22676672
108	0x3dbf6e1f	0.09347176
109	0x3e7a05e0	0.24416304
110	0x3ccfe5a1	0.02537805
111	0xbde9301d	-0.1138613
112	0xbe8f20ea	-0.279548
113	0xbe182d5d	-0.14861055
114	0x3e5468a3	0.2074304
115	0x3e312608	0.17299664
116	0x3de80446	0.1132894
117	0xbdb8c935	-0.09022752
118	0xbdd4c6c3	-0.10389473
119	0xbce3dbd7	-0.027814789
120	0x3c869971	0.016430588
121	0x3dafaf95	0.085784115
122	0x3e6cc4aa	0.23121896
123	0x3dab98fc	0.08378789
124	0xbda7308b	-0.08163556
125	0x3d9443d3	0.07239499
126	0x3e555b7c	0.2083568
127	0x3bd8a781	0.006611765
128	0xbe12f9eb	-0.14353149
129	0xbeceab22	-0.4036494
130	0x3d6ebd01	0.058285717
131	0x3eae0d00	0.33994293
132	0x3e0f07d8	0.13967836
133	0xbe85aa17	-0.2610633
134	0xbe63d456	-0.22248968
135	0xbcd720ce	-0.02626076
136	0x3e0467e2	0.12930253
137	0x3e8520df	0.2600164
138	0xbe82f906	-0.25580615
139	0x3e53fa15	0.20700867
140	0xbe9f37f9	-0.3109739
141	0xbee3312a	-0.44373447
142	0xbe48dd55	-0.19615681
143	0xbe037042	-0.12835792
144	0x3e91d0d0	0.28479624
145	0x3d84355b	0.06455489
146	0xbe16c3a0	-0.14723063
147	0x3d978ba1	0.07399679
148	0x3e03ee60	0.12883902
149	0x3f06faa2	0.52726185
150	0xbedc287b	-0.42999634
151	0xbec8e5bf	-0.39237782
152	0xbf2054e3	-0.62629527
153	0xbedd7dd5	-0.43260065
154	0xbe0c8ed0	-0.13726354
155	0xbf086405	-0.5327762
156	0xbef2d1d2	-0.47425705
157	0xbeecaab0	-0.46223974
158	0xbea3ec15	-0.32016054
159	0xbf5302cd	-0.8242615
160	0xbf24b117	-0.6433272
161	0xbed4c073	-0.41553077
162	0xbea8f4b9	-0.3299921
163	0xbead8302	-0.33889014
164	0xbf026504	-0.5093539
165	0xbebf0bc6	-0.3731367
166	0xbe9b8c4a	-0.3038047
167	0xbe974a81	-0.2954903
168	0xbb70abd5	-0.0036723514
169	0x3e50ee3d	0.2040338
170	0xbde01ee2	-0.109433904
171	0xbf1c428c	-0.6103904
172	0xbf038f7d	-0.5139082
173	0x3e492f9a	0.19647065
174	0x3f289279	0.658485
175	0xbe097d9a	-0.1342682
176	0xbdab0180	-0.083498955
177	0x3da17fcb	0.07885703
178	0xbd8b0b6f	-0.0678929
179	0x3e8c2b69	0.2737687
180	0x3d319f2a	0.04336468
181	0x3e0ae949	0.13565554
182	0xbe1e8fa8	-0.15484488
183	0xbe8be396	-0.27322072
184	0xbddb77f6	-0.1071624
185	0xbcbcccda	-0.0230469
186	0xbde9d2f1	-0.11417187
187	0xbe4db0d4	-0.20086986
188	0xbe5cbfc9	-0.21557535
189	0xbe6f188e	-0.2334921
190	0x3de59376	0.112097666
191	0xbe6c4599	-0.23073424
192	0xbeb1e99a	-0.34748536
193	0xbe843bb8	-0.25826812
194	0xbdde22a8	-0.10846454
195	0x3e541148	0.20709717
196	0x3cfd2c25	0.030904839
197	0xbe5e4077	-0.21704279
198	0xbec1a5e8	-0.3782189
199	0x3d6994be	0.057026617
200	0x3ca5ef2e	0.020255651
201	0xbca98c6b	-0.02069684
202	0xbbdeeafb	-0.006802914
203	0x3dacf3a1	0.08444906
204	0xbe309632	-0.17244795
205	0x3df0d95d	0.11760209
206	0xbd891641	-0.06693698
207	0x3dffa0d7	0.1248185
208	0xbcfdfaaa	-0.031003315
209	0x3e2666b5	0.16250117
210	0xbe22d03e	-0.1589975
211	0x3d3848b1	0.0449912
212	0xbcd7e14e	-0.02635255
213	0xbe0d3256	-0.13788733
214	0xbe16ca8c	-0.14725703
215	0x3c75806b	0.0149842305
216	0xbe30a21f	-0.17249344
217	0x3e09f27e	0.1347141
218	0xbe6927fa	-0.22769156
219	0xbe60507f	-0.21905707
220	0xbe05cb07	-0.1306573
221	0xbdce6a1d	-0.10078833
222	0x3d1e5382	0.038653858
223	0x3e205ebe	0.15661141
224	0x3dff8092	0.12475695
225	0x3f15965a	0.58432543
226	0x3e4714eb	0.19441573
227	0xbe75595d	-0.2395987
228	0xbf0443c8	-0.51665926
229	0xbd3a909e	-0.045548074
230	0x3e6b7641	0.22994329
231	0x3e539097	0.20660625
232	0xbdcaa403	-0.09894564
233	0xbe82e048	-0.25561738
234	0xbda5704d	-0.0807806
235	0xbe7a6eb8	-0.24456298
236	0xbe2f19a2	-0.17099622
237	0x3cf57d45	0.02996696
238	0x3ebb821a	0.36622697
239	0xbe3cb4c9	-0.18428339
240	0xbed76aa8	-0.4207356
241	0xbe30e24a	-0.17273822
242	0x3ea7dceb	0.32785735
243	0x3f1ee334	0.62065434
244	0x3e4dbfd0	0.20092702
245	0xbe0a5b8c	-0.13511485
246	0xbdecb0df	-0.11557173
247	0xbde09126	-0.10965185
248	0x3e1a2351	0.15052535
249	0xbe229ed9	-0.15880908
250	0xbe3b96d6	-0.18319258
251	0xbee4cc2c	-0.4468702
252	0xbd9d39cd	-0.0767704
253	0x3f298d8c	0.6623161
254	0x3f96a30b	1.1768507
255	0xbdb6b36a	-0.08920939

encoder.6.bias f4 [64]
0	0xbd5250c4	-0.051346555
1	0x3d9325d6	0.07184951
2	0x3db42a86	0.08797173
3	0xbe27d700	-0.1639061
4	0x3c3df1af	0.011593266
5	0x3bab28e7	0.005223382
6	0x3d826495	0.06366841
7	0x3bca1b58	0.0061678104
8	0xbc0cd2e0	-0.008595198
9	0xbd95036a	-0.07276042
10	0xbc30f312	-0.01080014
11	0xbdb7defc	-0.08978078
12	0xbcbf4b0b	-0.023351213
13	0x3e2f7b79	0.17136945
14	0xbda6be80	-0.08141804
15	0x3c42d5eb	0.011891822
16	0xbc941dc0	-0.018080592
17	0xbcb75834	-0.022380926
18	0x3dcfb97d	0.10142801
19	0x3e14d9f5	0.14536269
20	0x3cffaf8f	0.031211643
21	0x3d64b45f	0.055836078
22	0xbbfc694f	-0.0077029835
23	0x3ce8ad6d	0.028403008
24	0xbc353057	-0.011058888
25	0xbda0396b	-0.078234516
26	0xbc01bb41	-0.00791818
27	0xbdb5eab1	-0.088826545
28	0x3c2b17ae	0.010442657
29	0x37975782	1.8041352e-05
30	0xbc8e3d6c	-0.017363273
31	0xbdf55a1a	-0.11980076
32	0x3cb228e3	0.021748012
33	0xbd0c2a82	-0.034220226
34	0x3b35cbba	0.0027739839
35	0xbcf01e3d	-0.029311294
36	0x3c88f0b2	0.016716335
37	0x3cb78492	0.022402082
38	0xbc866d92	-0.01640967
39	0x3c80972c	0.015697084
40	0x3b86bccc	0.004111862
41	0xbb873ba5	-0.004126983
42	0x396823d8	0.00022138597
43	0x3da2942a	0.07938416
44	0xbcabcf78	-0.020972952
45	0x3cdaf8a0	0.026729882
46	0x3e2037d5	0.15646298
47	0xbca7fa95	-0.020505229
48	0xbd252801	-0.040321354
49	0x3cd4fa8c	0.025998376
50	0xbd983ecb	-0.07433852
51	0xbd5259bd	-0.051355112
52	0x3d240b40	0.04004979
53	0x3c0541a9	0.00813333
54	0x3c3a9466	0.01138792
55	0xbdb4986a	-0.08818133
56	0xbcb5faa5	-0.022214243
57	0x3c393523	0.011304173
58	0xbe2480a3	-0.16064696
59	0x3b3a5905	0.0028434407
60	0xbce9015e	-0.028443035
61	0x3bc09f69	0.005878378
62	0x3dc696f3	0.0969676
63	0x3d511dc3	0.051053774

encoder.7.weight f4 [128, 64, 1, 1]
0	0x3e8d5df6	0.2761075
1	0xbe94605c	-0.28979766
2	0xbebd8d7f	-0.37022015
3	0x3cb33305	0.021874914
4	0xbdd045a7	-0.10169535
5	0xbf2a79e5	-0.66592246
6	0xbdcb7489	-0.09934337
7	0x3c3b1b1f	0.01142004
8	0xbc29a9a2	-0.010355385
9	0x3ea60c72	0.3243137
10	0x3f01dd64	0.5072844
11	0xbe01fe11	-0.12694575
12	0x3c6fb2a0	0.01462999
13	0x3d765569	0.060140047
14	0xbe5cd4c8	-0.21565545
15	0x3d6dcd55	0.058057148
16	0xbbc3c9a6	-0.005974966
17	0x3ea5daab	0.32393393
18	0xbe9fce6b	-0.31212172
19	0x3e1da464	0.15394741
20	0x3dc5a233	0.09650078
21	0x3ca127d1	0.019672306
22	0x3e2eb975	0.17062934
23	0x3de53add	0.11192868
24	0xbc7693d2	-0.015049892
25	0xbed6440e	-0.41848797
26	0x3d43aad4	0.047770336
27	0x3f125f8a	0.5717703
28	0x3df6d081	0.12051488
29	0xbd88dca7	-0.06682711
30	0xbd1caf1d	-0.03825294
31	0xbe8c2ed0	-0.27379465
32	0xbe21a227	-0.15784512
33	0x3e8d7a9f	0.27632615
34	0x3ceb48e3	0.028721279
35	0x3d3d7aea	0.046259798
36	0xbe26ad9e	-0.16277167
37	0xbee9c7d8	-0.4566028
38	0x3e72ee80	0.23723793
39	0x3ec6f8a7	0.38861582
40	0x3cdb691b	0.026783517
41	0xbd905050	-0.070465684
42	0x3dd0c977	0.10194676
43	0x3c67f767	0.014158106
44	0xbdaf0fb7	-0.08547919
45	0x3dcc6064	0.099793226
46	0xbf050989	-0.51967674
47	0xbe96d75c	-0.2946118
48	0x3ea9bb13	0.3315054
49	0xbdf009a0	-0.11720586
50	0xbc6b9bfd	-0.014380452
51	0x3d47ef70	0.04881233
52	0xbdb89c7b	-0.09014221
53	0x3c75afab	0.014995496
54	0xbf04a827	-0.5181908
55	0x3f2d9c48	0.6781659
56	0x3ef8400e	0.4848637
57	0xbb040a97	-0.0020147914
58	0x3e1e81e7	0.15479241
59	0x3d3ddde5	0.046354193
60	0xbe444069	-0.19165196
61	0xbd70cbbc	-0.058788046
62	0x3db9d8b3	0.09074535
63	0xbdfc4e80	-0.1231966
64	0xbe1618f3	-0.14657955
65	0xbd7bcaf4	-0.061472848
66	0xbdb2d1b8	-0.08731407
67	0x3d15e5d1	0.036596123
68	0x3d164e36	0.03669568
69	0x3ed3ec24	0.41391098
70	0x3c021333	0.007939148
71	0x3f0d7ec7	0.5527157
72	0xbde01c08	-0.109428465
73	0x3de983c6	0.11402087
74	0xbcb5e1c6	-0.022202384
75	0xbdd59335	-0.10428468
76	0xbe3c4a1e	-0.18387648
77	0x3f117b20	0.568285
78	0xbf3dd0f6	-0.74146974
79	0x3e919faa	0.28442127
80	0xbf37af6f	-0.71752065
81	0x3eb93332	0.3617187
82	0x3e10c682	0.14138225
83	0x3f0c35af	0.54769415
84	0x3e24add1	0.1608193
85	0x3e1a199d	0.15048833
86	0xbd70d64a	-0.058798112
87	0x3e784f97	0.24249111
88	0xbe1401ab	-0.14453761
89	0x3e083fd3	0.13305597
90	0xbd3dd3f8	-0.046344727
91	0x3e266de0	0.16252851
92	0xbc991ee0	-0.01869148
93	0xbe0247e3	-0.12722735
94	0xbe1e595a	-0.15463772
95	0xbf046942	-0.5172311
96	0x3e29b55d	0.16573091
97	0x3e64b6eb	0.22335403
98	0xbce438a9	-0.027859049
99	0xbde72142	-0.1128564
100	0x3e6ea406	0.23304757
101	0x3ea3d91e	0.32001585
102	0x3e733d8e	0.2375395
103	0x3dd1726c	0.10226902
104	0x3da771bd	0.08175991
105	0xbd536afc	-0.0516157
106	0xbd8ac9d2	-0.067767754
107	0xbdf96d59	-0.121790595
108	0xbdd0d27f	-0.10196399
109	0x3dd220a3	0.10260131
110	0xbedc7770	-0.43059874
111	0xbeeb3574	-0.4593922
112	0x3f189d91	0.5961543
113	0x3f055f18	0.52098227
114	0x3e8466f6	0.25859803
115	0xbcba39b7	-0.022732599
116	0xbea60c40	-0.3243122
117	0xbb81155a	-0.003939313
118	0x3d92283c	0.0713658
119	0x3ecd8c59	0.4014614
120	0x3ece705d	0.403201
121	0x3dde1150	0.10843146
122	0x3de9d42a	0.1141742
123	0xbe179a37	-0.14804922
124	0x3e33cf80	0.17559624
125	0x3d721d04	0.059109703
126	0xbd754c00	-0.059886932
127	0x3ec19cb8	0.3781488
128	0x3ccb21c2	0.02479637
129	0x3f0ea92e	0.557269
130	0xbd604c73	-0.054760408
131	0x3de61429	0.11234314
132	0xbd306bbe	-0.0430715
133	0x3eb8857a	0.36039335
134	0x3e42986e	0.1900346
135	0xbeb144d0	-0.34622812
136	0xbe8757b6	-0.26434106
137	0x3dc9c330	0.09851682
138	0xbe0ea6c1	-0.13930799
139	0x3c93bd16	0.0180345
140	0xbcdc68c2	-0.026905421
141	0xbe3cf7a2	-0.1845384
142	0xbe9d265e	-0.30693334
143	0x3dafdb9a	0.085868075
144	0x3d2f2386	0.042758487
145	0xbe2f4911	-0.17117716
146	0x3fb17dc9	1.3866512
147	0x3e1ca149	0.152959
148	0x3b6e2e32	0.0036343453
149	0xbf0ae39e	-0.54253566
150	0xbe264820	-0.16238451
151	0x3defc143	0.117067836
152	0xbd31c36c	-0.04339926
153	0xbe088c83	-0.13334851
154	0x3ce37900	0.027767658
155	0xbd1459d3	-0.036218476
156	0xbdb46d61	-0.08809925
157	0xbd7488bc	-0.059700713
158	0xbe092bd8	-0.13395631
159	0x3e388263	0.18018489
160	0xbe682774	-0.226713
161	0xbdc5d91d	-0.09660552
162	0xbe094275	-0.13404258
163	0x3e2c017c	0.16797441
164	0x3d910dd5	0.070827164
165	0x3e2f0bc9	0.1709434
166	0x3e168e98	0.14702833
167	0xbe335fbe	-0.17516991
168	0x3dd7ab11	0.10530675
169	0xbd828b37	-0.063742094
170	0x3daf6db2	0.085658446
171	0xbe00b747	-0.12569915
172	0xbe50f900	-0.20407486
173	0x3ed3f449	0.41397312
174	0x3e563cd5	0.20921643
175	0xbe10d178	-0.14142406
176	0x3eaaaed6	0.33336514
177	0xbe8be478	-0.27322745
178	0x3e3022e5	0.17200811
179	0x3e200622	0.1562734
180	0x3dec2914	0.115312725
181	0x3d439f78	0.047759503
182	0xbcce4222	-0.025178019
183	0x3ed42b25	0.41439167
184	0xbefb6315	-0.4909903
185	0x3defd6d1	0.11710895
186	0xbbaf3dcb	-0.0053479425
187	0x3e5cb1ac	0.21552151
188	0xbd140dc6	-0.036145948
189	0x3e2ad5f6	0.16683182
190	0xbe3cac86	-0.18425187
191	0xbcc2fed3	-0.02380315
192	0x3e6b7623	0.22994284
193	0xbee7536f	-0.45180842
194	0xbd88f0e0	-0.06686568
195	0xbd88a99a	-0.06672974
196	0xbdf6ac1d	-0.12044547
197	0xbea6b10a	-0.32556945
198	0xbdff1ec1	-0.12457038
199	0x3e8431f7	0.2581937
200	0xbd593fd4	-0.053039387
201	0x3ee171dc	0.4403218
202	0x3d1bd7c8	0.038047582
203	0xbe215644	-0.15755564
204	0x3ef8f3f9	0.48623636
205	0xbe63711a	-0.22211114
206	0x3ec95343	0.39321336
207	0x3ede1035	0.4337174
208	0xbe447bc6	-0.19187841
209	0xbdb34f4b	-0.08755358
210	0x3f0806a7	0.5313515
211	0x3ec889e4	0.39167702
212	0x3d3707c3	0.044685137
213	0xbeb6c248	-0.356951
214	0x3e7cc4f8	0.24684513
215	0x3d818bd6	0.063255
216	0xbcb475b7	-0.022028787
217	0x3dfb3231	0.122654326
218	0x3ec34c3c	0.381441
219	0x3da61f10	0.081113935
220	0xbd62247a	-0.055210568
221	0xbd27a361	-0.040927295
222	0x3df93879	0.121689744
223	0xbe924e72	-0.28575474
224	0x3e27b6c4	0.16378313
225	0x3d60f75c	0.0549234
226	0x3d8d7bf6	0.06908409
227	0xbee74aa8	-0.45174146
228	0x3c7cd7c4	0.015432302
229	0x3ec64ef6	0.38732117
230	0xbdbe4c26	-0.09291868
231	0x3e859440	0.26089668
232	0x3dd732b4	0.10507718
233	0x3cd2532d	0.025674427
234	0x3dfccd5e	0.12343858
235	0xbdef4845	-0.11683706
236	0xbd37d6cf	-0.04488259
237	0x3dd1a99a	0.10237427
238	0xbe70f88e	-0.23532316
239	0xbe371c0c	-0.17881793
240	0xbc86dd4c	-0.016462944
241	0xbe4ad3b9	-0.19807328
242	0x3d6be7c1	0.057594065
243	0xbda655f9	-0.08121867
244	0xbae04210	-0.0017109532
245	0x3cd42a4d	0.025899077
246	0x3dc7e661	0.09760738
247	0xbe5075ce	-0.20357439
248	0x3e47c90e	0.1951029
249	0xb8093d25	-3.272029e-05
250	0xbe02ce91	-0.12774111
251	0x3e67f982	0.22653773
252	0x3f0f9fcb	0.561032
253	0xbd4c704a	-0.049911775
254	0xbde428bc	-0.11140582
255	0xbe9a898d	-0.30183068

encoder.7.bias f4 [128]
0	0x3c2947a7	0.010332025
1	0x3dac5dbf	0.08416318
2	0xbbb49d95	-0.0055119493
3	0xbcacc47c	-0.021089785
4	0xbd038dbd	-0.032117594
5	0xbe2c6023	-0.16833548
6	0xbe4277e3	-0.18991046
7	0xbea8dcb2	-0.32980877
8	0x3c4f4a30	0.012651965
9	0xbe8acf09	-0.2711108
10	0xbec1d25f	-0.37855813
11	0xbea96bc8	-0.33090043
12	0xbde2697e	-0.11055277
13	0xbcae1bcb	-0.021253487
14	0x3cf7f0d5	0.030266205
15	0x3e90f23a	0.28309804
16	0xbe79b417	-0.24385105
17	0xbe5f4f46	-0.21807584
18	0xbe749e3f	-0.23888491
19	0x3ba2e949	0.0049716574
20	0x3dc7dd2c	0.09758982
21	0x3df71ab4	0.1206564
22	0xbc299c30	-0.010352179
23	0xbe85784a	-0.26068336
24	0xbe0424c1	-0.12904646
25	0xbf006194	-0.5014889
26	0xbe2e2a06	-0.17008218
27	0xbd55c42d	-0.05218904
28	0xbe0a1690	-0.1348517
29	0x3d8927d2	0.06697048
30	0xbec70dea	-0.38877803
31	0x3e279192	0.16364124
32	0x3ec78fc1	0.38976863
33	0x3be8f340	0.007109076
34	0xbda00470	-0.078133464
35	0xbca01f1f	-0.01954609
36	0xbd195679	-0.037435982
37	0x3d274de4	0.040845767
38	0xbe867ae2	-0.26265627
39	0xbe7259ce	-0.2366707
40	0xbcc6e6bc	-0.024279945
41	0xbeacad2e	-0.33725876
42	0xbea6b402	-0.3255921
43	0xbe56f756	-0.20992789
44	0x3e6f1abf	0.23350047
45	0x3c5705b5	0.013123919
46	0xbc1c69fa	-0.009546751
47	0x3f71c66d	0.944434
48	0xbe94399c	-0.28950202
49	0xbdabfc77	-0.08397763
50	0x3efbda69	0.4919007
51	0x3b9544fb	0.0045553423
52	0xbd7d1b9b	-0.061793905
53	0x3e10dc59	0.14146556
54	0xbd4c2d66	-0.049847983
55	0xbe90162e	-0.28141922
56	0xbd57e6ce	-0.052710347
57	0xbea05d1c	-0.31321037
58	0x39dd0af9	0.0004216058
59	0xbe821e9b	-0.25413975
60	0xbc166968	-0.009180404
61	0xbea7cfa0	-0.32775593
62	0x3da2865a	0.07935782
63	0x3dea706e	0.114472255
64	0xbe3c3fdd	-0.18383737
65	0xbe58f6c9	-0.21187891
66	0xbe1ca39a	-0.15296784
67	0x3d1f35d8	0.03886971
68	0x3d22230f	0.039584216
69	0xbe22463d	-0.15847106
70	0xbe6fb7ba	-0.2340993
71	0x3e19cb19	0.15018882
72	0x3d96e5ee	0.07368074
73	0x3ce73900	0.028225422
74	0xbd663b0f	-0.056208666
75	0xbe1f70e2	-0.15570405
76	0xbf0ebcf9	-0.557571
77	0xbc803b0c	-0.015653156
78	0xbe0d66aa	-0.13808694
79	0x3e2ede67	0.17077027
80	0xbe1639f0	-0.14670539
81	0xbb262185	-0.002534957
82	0x3c931cbc	0.017958038
83	0x3cd8965d	0.026438886
84	0x3d5ac442	0.053409822
85	0xbd8710e8	-0.065950215
86	0x3c206919	0.009790682
87	0xbe1b65fe	-0.15175626
88	0x3dd697d0	0.10478175
89	0xbea5913c	-0.32337368
90	0xbccdcddd	-0.025122577
91	0x3e8ad27f	0.2711372
92	0x3e541dc2	0.20714477
93	0x3dcf7109	0.101289816
94	0xbe2ab2a4	-0.16669708
95	0x3ead6280	0.33864212
96	0x3dafa137	0.08575671
97	0x3e7b83d1	0.24562003
98	0xbdc7cf9f	-0.097563975
99	0xbe31c289	-0.17359366
100	0xbe060441	-0.1308756
101	0xbd88e83a	-0.06684919
102	0xbce80da8	-0.028326824
103	0xbca010bb	-0.019539228
104	0xbdbc40b7	-0.09192031
105	0xbe02160c	-0.12703723
106	0xbe183f11	-0.14867808
107	0xbe064193	-0.13110952
108	0xbe853b72	-0.26021916
109	0xbd6be598	-0.057592005
110	0xbe02476d	-0.1272256
111	0xbe84761f	-0.2587137
112	0xbd6dac7e	-0.05802583
113	0xbda503b0	-0.08057344
114	0xbe03950d	-0.12849827
115	0xbe1d6d76	-0.15373787
116	0xbdac51e4	-0.08414057
117	0x3dffdc34	0.12493172
118	0xbe9948c2	-0.29938322
119	0x3d545ed1	0.051848236
120	0xbe90c87a	-0.2827795
121	0x3df4fe8c	0.119626135
122	0xbe58e4b4	-0.21180993
123	0xbe521333	-0.20515136
124	0x3dfc5cc2	0.1232238
125	0xbcc79e9c	-0.024367623
126	0xbe25002d	-0.16113348
127	0xbbf1884b	-0.0073709837

encoder.9.weight f4 [128, 1, 5, 5]
0	0xbd840795	-0.06446759
1	0xbf0a476b	-0.54015225
2	0xbe6e50a2	-0.23272946
3	0xbe4efc0f	-0.2021334
4	0xbe30528d	-0.1721899
5	0xbef31f97	-0.4748504
6	0xbf0501d3	-0.5195591
7	0xbee7a827	-0.45245478
8	0xbdf33ee0	-0.11877227
9	0xbe14ace8	-0.14519083
10	0xbe81f5e2	-0.25382906
11	0xbed5a474	-0.4172703
12	0xbe63d8aa	-0.2225062
13	0xbd80874b	-0.06275805
14	0xbe518fb8	-0.2046498
15	0xbea2ef87	-0.3182337
16	0xbe2e0aab	-0.16996257
17	0xbd743f0d	-0.059630442
18	0xbec97545	-0.39347282
19	0xbf082db3	-0.5319473
20	0xbe82f30f	-0.25576064
21	0xbe584848	-0.21121323
22	0xbdb93582	-0.09043409
23	0xbf086d48	-0.5329175
24	0xbebfa6a5	-0.37431827
25	0xbe34b1cd	-0.1764595
26	0xbee70931	-0.451242
27	0xbe8ba40b	-0.27273592
28	0x3c8f6d0c	0.017508052
29	0x3e88632c	0.26638162
30	0xbed2e4b8	-0.41190124
31	0xbf329cfc	-0.6977079
32	0xbed9e4a2	-0.42557245
33	0x3d153580	0.036427975
34	0x3e6a43f8	0.2287749
35	0xbec068ab	-0.37579855
36	0xbee1fab1	-0.44136575
37	0xbf04c940	-0.51869583
38	0xbe912d82	-0.28355032
39	0x3d9c2594	0.07624355
40	0xbe321ca0	-0.17393732
41	0xbdd96b99	-0.10616226
42	0xbe9d72d4	-0.3075167
43	0xbdd3b266	-0.10336761
44	0x3e89342e	0.26797622
45	0x3e1bbe55	0.15209325
46	0x3e489457	0.19587837
47	0x3e038e34	0.12847215
48	0x3e982819	0.29718092
49	0x3e938f40	0.2882023
50	0x3e828d9f	0.25498673
51	0x3de2cc4e	0.11074124
52	0x3e1d4307	0.153576
53	0xbd88e483	-0.0668421
54	0xbe7cc4c7	-0.2468444
55	0x3e874173	0.2641712
56	0x3dbc4bdc	0.091941565
57	0x3ea63593	0.3246275
58	0x3cbab99f	0.02279359
59	0xbecc15df	-0.39860436
60	0x3e0eb61a	0.13936654
61	0x3e8f6e49	0.28013828
62	0x3ec6e78f	0.3884854
63	0x3dc89691	0.09794343
64	0xbeb0aca9	-0.3450673
65	0xbdd2a5de	-0.10285543
66	0xbdb50a9f	-0.088399164
67	0x3de80bf6	0.11330406
68	0xbe28bf06	-0.1647912
69	0xbe56039b	-0.20899813
70	0xbed71d13	-0.4201437
71	0xbe5e0f9a	-0.21685639
72	0xbe9064bb	-0.2820185
73	0xbe7811c0	-0.24225521
74	0x3ebb6ec1	0.36607936
75	0x3edb1a34	0.4279343
76	0x3e304563	0.17213969
77	0xbe38fb31	-0.18064572
78	0xbe18bb73	-0.14915256
79	0xbef43622	-0.4769755
80	0x3ed4d2c3	0.41567048
81	0xbdf3da1e	-0.11906837
82	0xbebe230c	-0.37136114
83	0xbedd9a09	-0.43281582
84	0x3e48b712	0.19601086
85	0x3eb8858a	0.36039382
86	0xbdd160db	-0.10223552
87	0xbe09b295	-0.1344703
88	0xbf06cedf	-0.5265941
89	0x3da18ea6	0.07888536
90	0x3d6b4371	0.057437364
91	0xbccfb966	-0.02535696
92	0xbdbc3a57	-0.09190815
93	0xbe3fd318	-0.1873287
94	0xbe590817	-0.21194492
95	0xbd6d1d10	-0.057889044
96	0xbd08f3b2	-0.03343553
97	0xbbe6f719	-0.0070484993
98	0xbe7f5a36	-0.24936756
99	0xbe22ae7e	-0.15886876
100	0xbe4b82b1	-0.19874074
101	0xbe57d616	-0.21077761
102	0xbeaf9d94	-0.3429991
103	0xbd82646a	-0.06366809
104	0xbc6bad41	-0.014384569
105	0x3db350da	0.087556556
106	0xbdac4860	-0.08412242
107	0xbe98bff1	-0.2983394
108	0xbed6ea9b	-0.41975865
109	0xbe1e5e2b	-0.1546561
110	0x3dd071a2	0.10177924
111	0x3dca1b2e	0.09868465
112	0xbe302144	-0.1720019
113	0xbf276b46	-0.6539806
114	0xbe64c0ae	-0.22339126
115	0xbdde5a60	-0.108570814
116	0xbe283622	-0.164269
117	0xbeccd01c	-0.40002525
118	0xbf1f6379	-0.6226116
119	0xbe80fc44	-0.25192463
120	0xbe8c3370	-0.27382994
121	0xbdaa1b6d	-0.08306012
122	0xbd3f666e	-0.046728544
123	0xbc8dcf74	-0.017310835
124	0x3d19dca5	0.03756394
125	0x3d86f03d	0.065887906
126	0x3df48e18	0.11941165
127	0x3e20e2c0	0.15711498
128	0x3e2a2b17	0.16618
129	0x3eb2b4bb	0.3490351
130	0x3d5be398	0.053683847
131	0x3e1be043	0.15222268
132	0x3e3bae1d	0.18328138
133	0x3f0125d9	0.50448376
134	0x3e909771	0.2824054
135	0xbe427fc7	-0.18994056
136	0x3b4de2b9	0.0031415655
137	0xbb257dbd	-0.0025251948
138	0x3f30843f	0.6895179
139	0x3eea9381	0.45815662
140	0xbd49eb24	-0.049296513
141	0xbe00eee7	-0.12591134
142	0xbe2775d1	-0.16353537
143	0x3ed26f88	0.41100717
144	0x3f324702	0.696396
145	0xbd98d477	-0.074623995
146	0x3d850e10	0.06496823
147	0x3d84d428	0.06485778
148	0x3f0842f6	0.53227174
149	0x3ea1dcb4	0.31613696
150	0x3ea60bb7	0.32430813
151	0x3ecb9bad	0.3976721
152	0x3eea260d	0.45732155
153	0x3debaf4c	0.115080446
154	0xbde81318	-0.11331767
155	0x3e9a5867	0.3014557
156	0x3e94188c	0.28924978
157	0x3f1aa586	0.6040882
158	0x3ea8419c	0.32862556
159	0xbb5abf51	-0.0033378194
160	0x3eb37576	0.35050553
161	0x3e8d4212	0.2758947
162	0x3eec369e	0.4613542
163	0x3ea21c94	0.31662428
164	0xbccdcf70	-0.025123328
165	0x3e1a1a04	0.15048987
166	0x3db262c4	0.08710244
167	0x3e149388	0.14509404
168	0xbd1f7ee4	-0.03893937
169	0xbe5f9924	-0.21835762
170	0x3db376c9	0.08762891
171	0x3e17d744	0.14828211
172	0xbe382a0a	-0.17984787
173	0xbeb1b9df	-0.3471212
174	0xbcd7f05d	-0.026359731
175	0xbd88e2ef	-0.06683909
176	0xbd84d24e	-0.06485425
177	0x3d763e6a	0.060118116
178	0xbd754e32	-0.059889026
179	0xbcca7829	-0.0247155
180	0xbd783a9f	-0.06060278
181	0x3d18a00d	0.03726201
182	0x3e26f66b	0.16304938
183	0xbe041f0a	-0.12902465
184	0xbe0ddeee	-0.13854572
185	0x3d9e6e50	0.07735884
186	0x3e4bb003	0.19891362
187	0x3ce3189c	0.027721696
188	0xbf3d82fc	-0.7402799
189	0xbe2abc59	-0.16673411
190	0xbe4816ff	-0.19540022
191	0x3d81205d	0.06305001
192	0x3ec8bd7b	0.39207062
193	0x3eafa959	0.3430889
194	0xbd4c813a	-0.049927928
195	0xbe2abeb4	-0.1667431
196	0xbebe5249	-0.37172154
197	0xbe7d64fe	-0.24745557
198	0x3eb76bab	0.35824332
199	0x3e5674be	0.20942971
200	0xbe190e2d	-0.14946814
201	0x3e1a87bd	0.15090843
202	0x3ebb20e7	0.3654854
203	0xbe05c2c4	-0.13062578
204	0xbdec1e6a	-0.115292385
205	0x3d19e1a6	0.03756871
206	0xbeaf3509	-0.3422015
207	0x3dbd188b	0.09233197
208	0x3c93e80d	0.018054986
209	0x3e1b654c	0.1517536
210	0x3dc7e172	0.09759797
211	0xbe428422	-0.18995717
212	0xbede8f85	-0.43468872
213	0x3d87c56c	0.06629452
214	0x3ebbe79a	0.36700135
215	0xbeaa4d8a	-0.33262283
216	0xbe923985	-0.2855951
217	0xbded3de6	-0.11584072
218	0xbc72e3c1	-0.014824809
219	0x3ed7c28d	0.42140618
220	0xbd7fe050	-0.06246978
221	0xbefdb267	-0.49550173
222	0x3ebbbaaa	0.3666585
223	0x3e351ac6	0.17685995
224	0x3d132f01	0.0359335
225	0x3e4d73e7	0.20063744
226	0x3db77a23	0.089588426
227	0x3e3fc582	0.18727687
228	0xbe353736	-0.17696843
229	0xbed30065	-0.41211239
230	0xbd700d48	-0.058606416
231	0x3da5a910	0.08088887
232	0x3e2cd546	0.16878232
233	0x3e268a70	0.16263747
234	0xbed149bc	-0.40876567
235	0x3cfd32ce	0.030908015
236	0xbc3b2cf6	-0.011424294
237	0xbdbecb1e	-0.09316085
238	0xbeaa915e	-0.3331403
239	0xbda72f58	-0.08163327
240	0x3d87b1d2	0.066257134
241	0x3da368bf	0.07978963
242	0x3db41365	0.08792762
243	0x3e874f64	0.26427758
244	0x3e7b368a	0.24532524
245	0xbdc67038	-0.09689373
246	0x3d921db1	0.071345694
247	0x3e961e57	0.29320022
248	0x3ec1e016	0.37866277
249	0xbf25ecb2	-0.64814293
250	0x3e1f3bb6	0.15550122
251	0xbd609b73	-0.054835748
252	0x3d89f3c1	0.067359455
253	0x3f1c042f	0.60943884
254	0x3f286142	0.65773404
255	0x3e6e3274	0.23261434

encoder.9.bias f4 [128]
0	0x3d4d5c99	0.050137136
1	0x3d3d09e1	0.046152
2	0x3ca4972e	0.02009162
3	0xbc189ed5	-0.009315212
4	0x3d2029d0	0.039102376
5	0xbd16e8ef	-0.036843237
6	0xbdc6eeb3	-0.09713497
7	0x3ce35f45	0.027755389
8	0xbb4aa3ef	-0.0030920466
9	0x3daddb8f	0.08489143
10	0x3dbff05a	0.09372015
11	0xbb5c2a19	-0.0033594428
12	0xbc3e902a	-0.011631051
13	0x3c488de4	0.012240861
14	0xbcedd3b6	-0.029031616
15	0x3e8e40d0	0.27783823
16	0xbdf376bf	-0.118878834
17	0x3d6e82d6	0.058230244
18	0x3c77538f	0.0150956055
19	0x3a060f72	0.0005113996
20	0x3c9bb073	0.019005036
21	0x3e5b9c26	0.21446285
22	0xbc87c166	-0.016571712
23	0xbce318cb	-0.027721783
24	0xbb36571c	-0.0027822917
25	0xbd3da5ce	-0.0463007
26	0xbd917ec0	-0.07104254
27	0x3cf84dd2	0.030310545
28	0x3d8857d7	0.06657379
29	0x3cb90b26	0.022588324
30	0x3bd77220	0.006574884
31	0xbcdbb1cb	-0.026818177
32	0x3dac15c8	0.08402592
33	0xbd79fe7a	-0.061033703
34	0x3dbd48e4	0.092424184
35	0xbd7f1ffd	-0.062286366
36	0xbda7af19	-0.08187694
37	0xbc63be4e	-0.013900353
38	0xbd134f16	-0.035964094
39	0xbd0da080	-0.034576893
40	0x3dbb5c2b	0.09148439
41	0xbdd496ca	-0.10380323
42	0xbd3c30fe	-0.04594516
43	0xbbe983a6	-0.0071262894
44	0x3da61648	0.081097186
45	0x3cc9be4e	0.024626877
46	0xbb036f35	-0.0020055298
47	0xbdc5e944	-0.096636325
48	0xbd5e44d7	-0.05426487
49	0xbd8802ae	-0.06641136
50	0x3e25f0ff	0.16205214
51	0x3b1ddc9b	0.002408779
52	0x3dddffe9	0.108398266
53	0xbd263ca8	-0.04058519
54	0x3d051bfb	0.032497387
55	0x3e039d08	0.12852871
56	0xbd69b4c3	-0.057057153
57	0xbd9b17d3	-0.075729035
58	0xbceacb52	-0.028661404
59	0xbb85a329	-0.004078288
60	0x3d9c4ead	0.07632194
61	0xbd5af4d5	-0.053456146
62	0x3e285cc0	0.16441631
63	0x3e21e889	0.15811361
64	0xbc58425c	-0.013199415
65	0x3d64eafd	0.055888165
66	0x3dc99dd6	0.09844558
67	0xbe2c4c7f	-0.16826056
68	0x3d933b25	0.07189015
69	0x3c9281bb	0.017884126
70	0x3cd9d817	0.026592297
71	0xbde3b386	-0.11118226
72	0x3da23815	0.07920853
73	0x38a17141	7.6981734e-05
74	0x3d97a15c	0.07403824
75	0xbca72e11	-0.020407708
76	0xbbadf7db	-0.0053090877
77	0x3c8262f5	0.015916327
78	0x3c34e772	0.011041509
79	0x3dde1105	0.1084309
80	0x3c3b1246	0.011417931
81	0x3d1f684b	0.03891782
82	0x3d641c2e	0.055690937
83	0x3b1a2f45	0.002352671
84	0x3bba2f8c	0.0056819376
85	0xbd8df018	-0.0693056
86	0x3d95ac74	0.073082834
87	0xbd7a830c	-0.061160132
88	0x3dbec30d	0.09314547
89	0xbc4bf114	-0.012447614
90	0x3c0e464e	0.008683754
91	0xbe4c1175	-0.19928534
92	0xbc69c183	-0.014267328
93	0x3d8364d8	0.06415719
94	0xbd5558c4	-0.052086607
95	0xbcfcfeb3	-0.030883169
96	0xbd2ef4fb	-0.0427141
97	0xbcc062f0	-0.023484677
98	0x3c26f4cb	0.010190199
99	0xbbbfda1f	-0.0058548595
100	0x3d004b83	0.031322014
101	0x3d135485	0.035969276
102	0x3e06a11a	0.13147393
103	0x3b052bac	0.002032022
104	0xbd9d08d7	-0.07667702
105	0x3be516ca	0.006991242
106	0xbdd7801c	-0.10522482
107	0xbbd34096	-0.006446908
108	0xbdaba3f7	-0.08380883
109	0x3d46f513	0.048573565
110	0x3c7b2ac9	0.015330025
111	0x3bf1100e	0.00735665
112	0x3d657c1f	0.056026574
113	0xbca3aed5	-0.019980827
114	0xbcd1bee4	-0.025603719
115	0xbd12d3f3	-0.03584666
116	0x3ddfce87	0.10928064
117	0x3d931503	0.07181742
118	0x3c22299a	0.009897614
119	0x3d5fde09	0.05465511
120	0x3d91cb8b	0.07118901
121	0x3cae3676	0.021266203
122	0xbdfcfea5	-0.12353257
123	0x3cc33bfe	0.023832317
124	0xb86878d0	-5.5425626e-05
125	0xbbee9f89	-0.0072822017
126	0xbcc7ed9e	-0.024405297
127	0xbcfaf9ab	-0.03063663
