src/demo/anomaly_detection/model_checkpoints/cookie/ae_model.pt (torch, 291555 bytes, 32 tensors)

encoder.0.weight f4 [1, 1, 5, 5]
0.04866693 0.05166051 -0.06861521 -0.054467294 0.040706012 0.056746997 0.051524907 -0.16624941
-0.1824615 -0.00037408335 -0.08762217 -0.1615958 -0.28186518 -0.32883275 -0.1478251 -0.048801556
-0.14979374 -0.31883216 -0.28886974 -0.10175434 0.07040371 0.031335067 -0.1724818 -0.13717614
0.010717897
00000000: fa56 473d f999 533d 2286 8cbd 1919 5fbd
00000010: 59bb 263d 8a6f 683d c80b 533d 493d 2abe
00000020: 30d7 3abe 9e20 c4b9 4173 b3bd 5f79 25be
00000030: a250 90be c45c a8be 775f 17be 24e4 47bd
00000040: 8863 19be f83d a3be bce6 93be 9464 d0bd
00000050: d22f 903d 3359 003d 129f 30be e777 0cbe
00000060: 1e9a 2f3c

encoder.1.weight f4 [32, 1, 1, 1]
-0.34245583 0.42609257 0.7050845 1.2649833 -0.7580847 -0.8635055 0.58630705 0.45968223
0.382329 0.8217871 -0.2627541 0.31791428 0.58247787 0.9476475 -0.67401093 0.9283924
0.6192042 -0.7637515 0.5716297 -0.59028167 -0.7122026 0.40967116 -0.4819587 0.8809605
0.15147331 0.08029306 0.38910303 -0.23473115 -0.6714217 0.020892143 0.45927083 -0.7712483
00000000: 5f56 afbe ce28 da3e 6b80 343f f9ea a13f
00000010: d711 42bf b20e 5dbf 3818 163f 785b eb3e
00000020: a0c0 c33e a460 523f b587 86be a9c5 a23e
00000030: 451d 153f 0799 723f fb8b 2cbf 20ab 6d3f
00000040: 2b84 1e3f 3885 43bf 5356 123f b31c 17bf
00000050: e952 36bf 6bc0 d13e 4ac3 f6be a186 613f
00000060: d21b 1b3e b070 a43d 8338 c73e 5d5d 70be
00000070: 4be2 2bbf 0026 ab3c 8c25 eb3e 8770 45bf

encoder.1.bias f4 [32]
-0.6439339 0.98466545 0.6971924 0.6654485 0.47802868 -0.58013296 0.33818576 0.49447733
0.88585734 -0.10922116 -0.3674161 0.72447693 1.0241388 0.77109104 -0.5466968 -0.35614258
0.3235379 -0.47715563 0.3142483 -0.415115 -0.4714418 0.22567135 -0.15715335 -0.60546225
0.2827437 -0.38375604 1.1496636 -0.90671974 -0.5775935 -0.50883234 0.33101416 -0.75521225
00000000: dad8 24bf 0913 7c3f 337b 323f d55a 2a3f
00000010: 2dc0 f43e 9883 14bf af26 ad3e 222c fd3e
00000020: 8cc7 623f 58af dfbd f71d bcbe 5277 393f
00000030: fb16 833f 3966 453f 52f4 0bbf 5258 b6be
00000040: c2a6 a53e be4d f4be 27e5 a03e f489 d4be
00000050: d260 f1be 6416 673e cfec 20be 93ff 1abf
00000060: c8c3 903e ac7b c4be 2d28 933f c91e 68bf
00000070: 2bdd 13bf d642 02bf b07a a93e 9755 41bf

encoder.3.weight f4 [32, 1, 5, 5]
0.25987884 -0.35075977 -0.42553154 -0.53297824 -0.19561557 -0.07944316 -0.43247366 -0.6309441
-0.82875556 -0.29254782 -0.43109593 -0.6978905 -0.6137445 -0.8430993 -0.42467207 -0.34247014
-0.7533313 -0.7464031 -0.8351381 -0.47433195 -0.017555235 -0.64408463 -0.64237475 -0.701061
-0.48577493 0.018579923 0.071341604 0.0016704528 0.12965238 0.09841255 0.30453363 0.019091053
0.065569915 0.16178462 0.054644477 0.10725413 0.12467285 0.17905752 -0.025913304 0.17610402
0.19892219 0.22013244 -0.0030859646 0.10890935 0.029991798 -0.12757239 0.13059196 0.15252393
9.65867e-05 0.05359906 -0.31471536 -0.20067279 -0.004545065 -0.09826505 -0.24680346 -0.10573066
-0.18920842 0.1522564 0.2771081 -0.13945751 0.105303064 0.28043258 0.5766778 0.6278272
0.23035878 0.06420983 0.25522056 0.7578027 0.7543212 0.19308214 -0.29010782 -0.13032398
0.32623136 0.2909404 -0.060395434 0.20536113 0.21851605 0.24326496 0.18914607 0.06031334
0.16945107 0.44567347 0.6231455 0.39376014 0.117958486 0.29786897 0.75200695 0.97852504
0.68526185 0.10587062 0.2936675 0.5405183 0.8863787 0.6357413 0.20399566 0.12853403
0.17154592 0.22303139 0.13452265 0.10114599 -0.067121804 -0.027395181 -0.07386206 -0.09653714
0.033327952 -0.073797025 -0.06512002 0.1891388 0.13098215 0.20540775 0.09244891 0.22294442
0.13430694 -0.14300016 0.08842852 -0.09157609 0.097262 -0.12256746 -0.22308163 -0.13383818
0.13328049 0.018152697 0.2173161 0.020622138 -0.011326594 -0.46791464 -0.5230603 -0.22455317
0.023560721 -0.06749312 -0.51614064 -0.37555507 -0.023663707 0.04466323 -0.03874756 -0.20741272
-0.111780465 0.2220611 0.18199958 0.11345002 0.13196285 0.04545546 0.24880548 0.48172167
0.3889356 -0.23261331 -0.13202237 0.13567728 0.1545181 0.042706985 -0.14148796 -0.11667103
-0.053969644 -0.37465814 -0.17297849 -0.14742649 0.116227 0.20068714 -0.03872188 -0.15504618
-0.07449228 0.34496054 0.5627185 0.061342187 -0.056406252 -0.3677545 -0.11322541 0.33076826
0.30228344 0.15787277 -0.0909827 -0.1696952 0.2478564 0.21274942 -0.06907869 -0.2739405
-0.32317594 -0.0367724 -0.08911269 -0.2796898 -0.18788725 -0.18071707 0.1345412 0.2228553
-0.31648898 -0.20346957 0.07343887 0.3970051 0.3440405 0.101199314 -0.041988987 0.29219955
0.5233501 0.18408659 -0.2973748 -0.33900824 -0.09725604 0.073897265 -0.27495894 -0.50461507
-0.036551744 0.05708999 0.18972264 0.25921944 -0.14178923 0.07005288 0.018385878 0.13439599
0.0640407 0.1655122 0.13353173 0.028661598 0.15610366 0.26302618 0.06792375 -0.017127221
0.2224792 0.1597955 0.17242697 0.22071823 0.2348447 -0.006127763 0.18800901 0.11955082
-0.069228224 -0.08791704 0.12517981 0.10179913 0.05565714 0.007981463 0.051646315 -0.09300791
-0.15150976 -0.03811563 -0.23475991 -0.17736705 -0.109953016 -0.27716947 -0.08664269 -0.20022565
-0.3259027 -0.24965113 -0.051020224 -0.1060627 -0.24308158 -0.26979813 -0.20619851 -0.06274879
-0.0980184 -0.16037045 0.031204311 0.050538305 -0.44405684 -0.24740927 -0.07017472 -0.27601102
00000000: d70e 853e c996 b3be 45df d9be 4371 08bf
00000010: 734f 48be 18b3 a2bd 306d ddbe 8d85 21bf
00000020: 5329 54bf d4c8 95be 9bb8 dcbe f4a8 32bf
00000030: 5c1e 1dbf 5bd5 57bf 9e6e d9be 3f58 afbe
00000040: 52da 40bf 4614 3fbf 9ccb 55bf a3db f2be
00000050: ffcf 8fbc bbe2 24bf ac72 24bf bc78 33bf
00000060: 7eb7 f8be ec34 983c 8c1b 923d 18f3 da3a
00000070: 98c3 043e 858c c93d d5eb 9b3e d764 9c3c
00000080: 8549 863d deaa 253e e3d2 5f3d 0ea8 db3d
00000090: 7b54 ff3d db5a 373e 2348 d4bc 9d54 343e
000000a0: 42b2 4b3e 666a 613e e53d 4abb de0b df3d
000000b0: 5cb1 f53c 56a2 02be e6b9 053e 3c2f 1c3e
000000c0: 978e ca38 b08a 5b3d 5f22 a1be 2b7d 4dbe
000000d0: c5ee 94bb 303f c9bd 0cba 7cbe 5189 d8bd
000000e0: dabf 41be 1ae9 1b3e 1de1 8d3e f3cd 0ebe
000000f0: 22a9 d73d dc94 8f3e 28a1 133f 49b9 203f
00000100: 2ce3 6b3e 7180 833d 45ac 823e 5cff 413f
00000110: 321b 413f 53b7 453e 0389 94be a673 05be
00000120: cc07 a73e 24f6 943e 3461 77bd 304a 523e
00000130: acc2 5f3e 731a 793e 82af 413e 1f0b 773d
00000140: 9584 2d3e 502f e43e 7786 1f3f ee9a c93e
00000150: 3894 f13d 4882 983e 8783 403f 9e80 7a3f
00000160: 526d 2f3f b2d2 d83d 965b 963e 685f 0a3f
00000170: b7e9 623f f1bf 223f 3de4 503e 6d9e 033e
00000180: bca9 2f3e 5762 643e 4ec0 093e a125 cf3d
00000190: 2877 89bd dc6b e0bc fe44 97bd 44b5 c5bd
000001a0: e482 083d e522 97bd a55d 85bd 9aad 413e
000001b0: 2f20 063e 6956 523e db55 bd3d 8b4b 643e
000001c0: c287 093e a26e 12be 031a b53d 3f8c bbbd
000001d0: 4d31 c73d a604 fbbd 836f 64be e00c 09be
000001e0: ae7a 083e f7b4 943c 1d88 5e3e c2ef a83c
000001f0: 2e93 39bc 8292 efbe 48e7 05bf 44f1 65be
00000200: 6a02 c13c d539 8abd cb21 04bf c148 c0be
00000210: 64da c1bc cbf0 363d c3b5 1ebd 0064 54be
00000220: 28ed e4bd fc63 633e 195e 3a3e 7c58 e83d
00000230: 4521 073e 812f 3a3d ddc6 7e3e 39a4 f63e
00000240: 9122 c73e 2f32 6ebe df30 07be fcee 0a3e
00000250: fe39 1e3e 85ed 2e3d 38e2 10be 39f1 eebd
00000260: 460f 5dbd 31d3 bfbe 4621 31be f8f6 16be
00000270: 6c08 ee3d ee80 4d3e d69a 1ebd 6dc4 1ebe
00000280: 698f 98bd ab9e b03e 520e 103f f241 7b3d
00000290: 3e0a 67bd 514a bcbe b9e2 e7bd 755a a93e
000002a0: e5c4 9a3e 66a9 213e 2355 babd 94c4 2dbe
000002b0: 11ce 7d3e fcda 593e 2179 8dbd ee41 8cbe
000002c0: 5177 a5be a89e 16bd b780 b6bd 8033 8fbe
000002d0: 8465 40be e50d 39be 2bc5 093e 2e34 643e
000002e0: d80a a2be 545a 50be 1e67 963d 4144 cb3e
000002f0: 1426 b03e 9641 cf3d a5fc 2bbd 2e9b 953e
00000300: 46fa 053f 3281 3c3e 8341 98be 7d92 adbe
00000310: 2d2e c7bd 7357 973d 6bc7 8cbe 742e 01bf
00000320: 48b7 15bd 31d7 693d a746 423e 69b8 843e
00000330: 3231 11be e277 8f3d fb9d 963c 1a9f 093e
00000340: c527 833d 087c 293e 8bbc 083e bacb ea3c
00000350: a3d9 1f3e 5eab 863e 9b1b 8b3d 634e 8cbc
00000360: 96d1 633e 6ea1 233e b290 303e f603 623e
00000370: 217b 703e 67cb c8bb 6f85 403e 0fd7 f43d
00000380: 87c7 8dbd d90d b4bd 232f 003e 107c d03d
00000390: bef8 633d afc4 023c 168b 533d ee7a bebd
000003a0: 6025 1bbe 231f 1cbd e764 70be b59f 35be
000003b0: 0c2f e1bd 28e9 8dbe b971 b1bd f407 4dbe
000003c0: b8dc a6be 8ca4 7fbe 95fa 50bd 6737 d9bd
000003d0: 61ea 78be fb22 8abe b425 53be 7082 80bd
000003e0: dfbd c8bd 2738 24be 2fa0 ff3c 4101 4f3d
000003f0: 6b5b e3be db58 7dbe c3b7 8fbd 5151 8dbe

encoder.3.bias f4 [32]
0.10954559 -0.14938089 -0.19409053 -0.2865196 0.03271069 -0.014204685 -0.033885952 0.101976074
-0.1715881 0.020910159 0.18130615 -0.07560282 -0.14577633 0.13479844 -0.21104568 0.020726267
-0.2359648 0.10460493 -0.022573944 0.014275042 0.13013737 0.14750697 -0.14358836 -0.013148678
-0.022450319 0.0020199507 -0.42665535 -0.005103973 -0.043743037 -0.0028195418 -0.12564279 0.022842972
00000000: 7059 e03d 4ef7 18be abbf 46be b2b2 92be
00000010: a5fb 053d c4ba 68bc ffcb 0abd d5d8 d03d
00000020: cab4 2fbe c84b ab3c 52a8 393e a7d5 9abd
00000030: 6446 15be 9a08 0a3e 5c1c 58be 22ca a93c
00000040: c2a0 71be 1c3b d63d feec b8bc dee1 693c
00000050: bb42 053e 110c 173e d408 13be 8d6d 57bc
00000060: bbe9 b7bc 2661 043b 9272 dabe 3b3f a7bb
00000070: e62b 33bd 10c8 38bb 81a8 00be 2f21 bb3c

encoder.4.weight f4 [64, 32, 1, 1]
-1.0120604 -0.26484516 0.07575976 0.013464299 -0.19357632 -0.3667045 -0.043699156 0.026725182
-0.17323692 -0.07754243 -0.8032787 0.08198775 0.10691436 0.083915524 0.47489595 -0.13654305
-0.06564726 0.46206346 0.14307839 0.25445718 -0.29040894 0.07141871 0.19098617 -0.20400617
-0.031916354 0.15191588 -0.41641855 0.09133231 0.033256583 0.054399144 0.098866805 -0.6751946
0.3807133 -0.43474042 0.10339086 -0.17340219 -0.51973903 0.17315099 0.23833552 0.43634027
-0.34278342 0.2405155 0.049664967 -0.3951709 0.031892985 0.14849792 0.040546443 0.39083925
-0.084819615 0.2622667 0.04234073 0.32871792 -0.24497609 -0.077016234 0.22806995 -0.16001868
0.10346712 0.18088612 -0.5463605 -0.0438511 -0.50113565 0.090057835 0.24774489 -0.016722556
-0.091044314 -0.291434 0.113713436 -0.05516236 0.21402776 -0.037624672 -0.080771744 -0.34180048
-0.090962976 0.16772342 -0.3186328 -0.1719774 -0.038906224 -0.30294412 0.097977325 -0.045781363
-0.14000708 0.13849759 0.12274271 0.2377032 -0.0085804155 -0.09755991 0.01763429 -0.19379547
-0.023123346 -0.06189665 -0.40555677 0.10672378 -0.04137097 -0.022070974 -0.09517775 -0.21453694
-0.6532463 -0.10597616 0.15661594 0.017500075 0.030791542 -0.058754638 -0.23856571 -0.071160324
-0.30457634 0.09551506 -0.5036516 -0.026783852 0.29733348 -0.2830926 0.15562548 0.0035491483
-0.16519795 0.04161649 0.18836485 -0.023653906 0.038152527 0.05997224 0.20652978 -0.09581268
-0.10594054 0.035622455 -0.33433527 -0.02966231 0.031824555 0.09974753 0.04712666 -0.12830126
-0.24112584 -0.36899504 0.38918778 -0.16689715 -0.05967299 -0.44930184 -0.24344073 0.17832805
-0.3739065 -0.066666156 -0.32647127 -0.13197899 0.5402655 -0.42819738 0.21757181 0.02963375
-0.18769515 0.0073361453 -0.19578297 -0.29002875 -0.1672728 -0.023171455 -0.0004756284 -0.09161348
-0.058631867 0.030336563 0.22393389 -0.0039317766 0.2018726 0.04153712 0.030485496 -0.25500897
-0.47588378 0.10459424 -0.27818877 -0.65420544 0.08383757 1.223378 0.5625465 0.36003697
-0.13245198 -0.5865516 -0.016573204 0.8314427 -0.047919508 0.47941506 0.28866246 -0.41193697
-0.2724065 0.1728914 -1.4397956 0.19006683 -0.086366534 0.41682792 0.30675352 -0.40339053
0.22534327 0.0011010577 0.627502 -0.047054455 -1.1552356 -0.0033488886 -0.14594954 -0.070163645
0.24005753 0.1417916 -0.013130009 -1.6050713 0.1787698 -0.13945559 -0.717511 -0.715148
-0.033682346 -0.23635589 -0.21373439 0.4721 -0.04196323 -1.0242679 -0.33593133 0.20187664
-0.59490865 -0.47486615 0.19637051 -0.85298353 0.38133565 0.53950936 0.7383029 0.053174507
-0.025543883 0.02241136 -0.46628904 0.0083365245 0.53534406 0.026463293 -1.0767916 -0.39658216
-0.3348156 0.07487045 -0.56306547 -0.33388466 0.10249525 -0.12657355 -0.37472555 -0.20942798
0.16630776 -0.0435374 0.17557624 0.017331392 0.002478647 0.000994534 -0.21797043 -0.07035788
-0.36291322 -0.23640205 0.25726408 -0.16086474 0.025804961 0.021574542 0.051734157 0.02812922
-0.015154342 -0.02895637 -0.6796337 -0.02782372 0.14184092 0.03361198 -0.4661014 0.14820857
00000000: 328b 81bf c999 87be ef27 9b3d 5d99 5c3c
00000010: df38 46be b1c0 bbbe e3fd 32bd c5ee da3c
00000020: 0565 31be 91ce 9ebd aca3 4dbf 32e9 a73d
00000030: eaf5 da3d e7db ab3d 9025 f33e f1d1 0bbe
00000040: 1272 86bd 9593 ec3e 2483 123e 3648 823e
00000050: 7bb0 94be f943 923d e191 433e fee6 50be
00000060: b9ba 02bd d68f 1b3e d034 d5be 6f0c bb3d
00000070: 0e38 083d a3d1 5e3d ae7a ca3d 8ed9 2cbf
00000080: dbec c23e 4c96 debe 96be d33d 5890 31be
00000090: 9e0d 05bf 7e4e 313e 3a0e 743e fe67 df3e
000000a0: 4f81 afbe b249 763e 7e6d 4b3d d753 cabe
000000b0: 38a2 023d d70f 183e 0714 263d 151c c83e
000000c0: e8b5 adbd d247 863e 796d 2d3d b74d a83e
000000d0: 03db 7abe b0ba 9dbd 2b8b 693e f0db 23be
000000e0: 92e6 d33d 363a 393e 48de 0bbf 369d 33bd
000000f0: 6d4a 00bf 3e70 b83d d6b0 7d3e befd 88bc
00000100: 7175 babd d636 95be 97e2 e83d edf1 61bd
00000110: 182a 5b3e 541c 1abd a86b a5bd 7900 afbe
00000120: cc4a babd b0bf 2b3e d723 a3be d81a 30be
00000130: 225c 1fbd 7e1b 9bbe 56a8 c83d 3d85 3bbd
00000140: 045e 0fbe 50d2 0d3e 8860 fb3d 7868 733e
00000150: df94 0cbc 7dcd c7bd c975 903c 5272 46be
00000160: 2c6d bdbc 5787 7dbd 23a5 cfbe ff91 da3d
00000170: 9b74 29bd 30ce b4bc 8dec c2bd 92af 5bbe
00000180: 263b 27bf 070a d9bd ee5f 203e 515c 8f3c
00000190: 8b3e fc3c b4a8 70bd 924a 74be 81bc 91bd
000001a0: 6ef1 9bbe 669d c33d 50ef 00bf cf69 dbbc
000001b0: 183c 983e 83f1 90be 495c 1f3e d498 683b
000001c0: a729 29be 0d76 2a3d b7e2 403e d6c5 c1bc
000001d0: d345 1c3d 74a5 753d 8b7c 533e 7039 c4bd
000001e0: 5bf7 d8bd dae8 113d fe2d abbe 5ffe f2bc
000001f0: 775a 023d 6f48 cc3d e207 413d 6861 03be
00000200: b1e9 76be ebec bcbe 9f43 c73e 16e7 2abe
00000210: aa6b 74bd e40a e6be 8748 79be a19b 363e
00000220: ac70 bfbe 4488 88bd 3e27 a7be 8025 07be
00000230: d74e 0a3f b03c dbbe 25cb 5e3e 7ac2 f23c
00000240: 2833 40be 0c64 f03b 557b 48be a67e 94be
00000250: 9049 2bbe 10d2 bdbc c35d f9b9 d99f bbbd
00000260: f827 70bd 6284 f83c ed4e 653e 22d6 80bb
00000270: b1b7 4e3e d422 2a3d b8bc f93c 8990 82be
00000280: 0aa7 f3be 8135 d63d c26e 8ebe 027a 27bf
00000290: 08b3 ab3d a697 9c3f 0c03 103f c456 b83e
000002a0: 7ea1 07be 3f28 16bf 87c4 87bc 6ed9 543f
000002b0: 3f47 44bd e475 f53e 91cb 933e 67e9 d2be
000002c0: dd78 8bbe 710a 313e 394b b8bf e1a0 423e
000002d0: f0e0 b0bd 786a d53e cc0e 9d3e 3489 cebe
000002e0: 63c0 663e 5e51 903a f9a3 203f 2cbc 40bd
000002f0: c3de 93bf 0779 5bbb cc73 15be f5b1 8fbd
00000300: a4d1 753e d131 113e 401f 57bc fa72 cdbf
00000310: 6e0f 373e 72cd 0ebe cdae 37bf f013 37bf
00000320: 80f6 09bd 4707 72be 30dd 5abe 17b7 f13e
00000330: a3e1 2bbd 361b 83bf 31ff abbe c0b8 4e3e
00000340: ef4b 18bf a821 f3be 5a15 493e 215d 5abf
00000350: 6d3e c33e 491d 0a3f 6b01 3d3f 83cd 593d
00000360: 6841 d1bc 0798 b73c 70bd eebe eb95 083c
00000370: 4f0c 093f 8cc9 d83c 4fd4 89bf d10c cbbe
00000380: f36c abbe ae55 993d 0f25 10bf eef2 aabe
00000390: 08e9 d13d 7f9c 01be 07dc bfbe 4a74 56be
000003a0: 954c 2a3e 4654 32bd 42ca 333e 90fa 8d3c
000003b0: cc70 223b 065b 823a a433 5fbe cb17 90bd
000003c0: c3cf b9be 6113 72be 1eb8 833e bab9 24be
000003d0: ed64 d33c 18bd b03c 32e7 533d 406f e63c
000003e0: eb49 78bc e935 edbc 79fc 2dbf 92ee e3bc
000003f0: bf3e 113e b7ac 093d d8a4 eebe fdc3 173e

encoder.4.bias f4 [64]
0.39662766 -0.17718537 -0.23914574 0.044777133 -0.072549224 -0.24235906 0.074053936 0.29880017
-0.23352864 0.11715717 0.26545262 0.19299756 -0.21226935 -0.23029545 -0.30065417 0.16274537
-0.087007254 -0.028967261 0.02914029 0.068407126 -0.20498236 -0.07002858 -0.2505296 -0.030039957
0.080981515 -0.13099742 0.0012039153 -0.05071679 -0.12810425 -0.010278486 -0.17035784 -0.06815728
0.19644809 0.054726467 0.12391034 0.040055037 -0.017368175 0.057368413 -0.0763936 0.17069867
0.08089557 0.05216734 0.10885031 -0.05853618 0.052204907 0.12828167 0.13548106 -0.2486522
0.03875329 0.044854026 0.26525378 0.13100968 -0.23327768 -0.09228592 -0.1516345 0.09484848
0.10315825 0.2076111 -0.023564378 -0.048378736 -0.13016754 0.050825 -0.032968152 0.0004048286
00000000: c812 cb3e 1570 35be 9fe2 74be 3a68 373d
00000010: b094 94bd f92c 78be 97a9 973d 56fc 983e
00000020: 2222 6fbe 19f0 ef3d 68e9 873e 27a1 453e
00000030: 235d 59be 92d2 6bbe 58ef 99be b9a6 263e
00000040: dc30 b2bd c04c edbc 9eb7 ee3c 0919 8c3d
00000050: e5e6 51be 256b 8fbd 6a45 80be 5b16 f6bc
00000060: a3d9 a53d 3024 06be b2cc 9d3a 69bc 4fbd
00000070: c32d 03be 1867 28bc 4972 2ebe 0b96 8bbd
00000080: b029 493e dc28 603d b4c4 fd3d c010 243d
00000090: b447 8ebc 24fb 6a3d 3f74 9cbd a2cb 2e3e
000000a0: 94ac a53d 6cad 553d e9ec de3d a2c3 6fbd
000000b0: d0d4 553d 455c 033e 8cbb 0a3e af9e 7ebe
000000c0: c5bb 1e3d dbb8 373d 58cf 873e 6727 063e
000000d0: 58e0 6ebe 6700 bdbd 1346 1bbe eb3f c23d
000000e0: a244 d33d 0198 543e 150a c1bc c828 46bd
000000f0: a44a 05be e02d 503d 9d09 07bd 2d3f d439

encoder.6.weight f4 [64, 1, 5, 5]
-0.07492066 -0.14027148 0.29858723 0.5893105 0.22376494 -0.07995179 -0.39666146 -0.3883611
0.1861417 -0.0059741912 0.3267851 -0.1260467 -0.27009156 0.0026942932 0.1866094 0.53007925
-0.068437584 -0.1273405 -0.18381608 0.00040074583 -0.17182547 0.22415976 0.16118173 -0.07517386
-0.32145733 -0.4326514 -0.24373427 -0.27726674 0.31976366 -0.18404311 -0.2511997 -0.41540474
-0.08107516 0.32913354 -0.6002898 -0.020838736 0.23930535 0.36221913 0.43301415 0.2598587
0.64027643 0.6007546 0.53405464 0.53079534 0.27782828 -0.08211562 0.31806052 0.41280836
0.23978116 -0.7055109 -0.141032 0.0073043364 -0.07430864 -0.2665624 0.25494683 0.08393147
0.04152183 -0.084224 -0.16009383 -0.08859624 -0.15752533 -0.06385493 -0.13907053 -0.06474041
0.17046823 -0.35540357 -0.13546926 -0.045292716 -0.11265032 -0.29441482 -0.003022372 -0.16181047
-0.20489278 -0.43193364 -0.089207225 -0.09306947 -0.027404461 -0.30651388 -0.39754632 -0.06757526
0.16937129 0.030520268 -0.13109301 -0.23947334 0.06874501 -0.1741062 -0.078236446 -0.03361988
-0.0008146145 -0.16205448 -0.046760455 -0.008341762 0.033968423 0.056931004 0.08384188 -0.18485194
-0.02315653 0.07489346 -0.21359816 0.048082083 0.09023699 0.076457046 -0.12912339 -0.033598162
0.13162418 0.22737077 0.285593 0.2256322 0.21217503 -0.036477152 -0.052371766 0.37277132
0.26203692 0.114083834 -0.023652798 0.049439333 0.19821694 0.2050601 0.10246122 -0.112839825
0.34106365 0.29219988 -0.120465495 -0.08208882 -0.099362604 -1.0403532 -0.56458646 0.27036247
0.82532364 0.7112681 -0.6063223 -0.034735765 0.14932434 0.51026464 0.5139623 0.3171002
0.23731242 0.047198184 -0.05204097 -0.021581251 0.7633654 0.41072315 -0.23478794 -0.3571734
-0.0944003 0.6391558 0.23960938 -0.2127407 -0.24571182 -0.41416094 0.05318913 -0.030483276
0.06392064 0.41833666 0.57559216 -0.015780112 -0.4249911 -0.6036645 -0.35190004 0.2633848
0.15741372 -0.37724647 -0.6165098 -0.63832235 -0.079597265 0.5204355 0.15293254 -0.20048559
-0.5896056 -0.16509412 0.26100054 0.44797403 0.3195802 0.14253975 0.32247669 0.28028435
0.041422587 0.2259503 0.105037436 -0.09433763 0.26713344 -0.17680441 -0.106474265 0.10236869
0.110418715 0.046991136 -0.26882753 0.22449304 0.42866394 0.14792915 -0.18712719 -0.22949319
0.24241632 0.57485425 0.232405 -0.45950368 -0.19900018 0.09819566 0.15130861 -0.017224412
-0.30957296 -0.7076381 -0.38143134 -0.030335918 0.112687774 -0.67397475 -0.87326354 -0.8019398
-0.3657035 0.006628861 -0.3511927 -0.7539065 -0.8226513 -0.30169386 -0.016956916 -0.026070714
-0.2656761 -0.32774433 -0.30178165 -0.09100551 -0.054528687 0.011157571 -0.018079864 -0.15966593
-0.22867003 0.003004589 0.04861438 0.2923708 0.17334926 -0.065640286 0.026441325 0.1458071
0.33186966 0.053417824 -0.06425359 0.39471978 0.31479236 0.058930255 -0.3893544 -0.035739265
0.20182133 0.19152746 -0.19727421 -0.6895451 -0.41405308 -0.11421864 0.1558972 0.10766403
-0.3387446 -0.005700468 -0.23735833 -0.06871555 -0.06159565 -0.17561595 -0.11755903 -0.26403362
00000000: 0170 99bd 54a3 0fbe 6de0 983e 0edd 163f
00000010: a322 653e c4bd a3bd 3617 cbbe 44d7 c6be
00000020: ee9b 3e3e 26c3 c3bb 6050 a73e 6312 01be
00000030: 7149 8abe bd92 303b 8916 3f3e 46b3 073f
00000040: 0129 8cbd 8c65 02be 483a 3cbe 321b d239
00000050: 04f3 2fbe 238a 653e d30c 253e c1f4 99bd
00000060: 0e96 a4be 7c84 ddbe 7a95 79be e8f5 8dbe
00000070: 10b8 a33e cc75 3cbe 3f9d 80be eeaf d4be
00000080: bc0a a6bd 3184 a83e 98ac 19bf ffb5 aabc
00000090: 760c 753e c974 b93e 08b4 dd3e 330c 853e
000000a0: 28e9 233f 0ecb 193f ceb7 083f 34e2 073f
000000b0: 823f 8e3e 3c2c a8bd d4d8 a23e 9e5b d33e
000000c0: 3189 753e 5d9c 34bf b16a 10be 3759 ef3b
000000d0: 212f 98bd de7a 88be 6488 823e 43e4 ab3d
000000e0: cb12 2a3d a27d acbd a3ef 23be f271 b5bd
000000f0: 524e 21be 60c6 82bd 8168 0ebe 9f96 84bd
00000100: 398f 2e3e 75f7 b5be 74b8 0abe db84 39bd
00000110: 36b5 e6bd 8abd 96be fd12 46bb a5b1 25be
00000120: 6acf 51be 6826 ddbe 47b2 b6bd 359b bebd
00000130: 527f e0bc 63ef 9cbe 318b cbbe e664 8abd
00000140: ab6f 2d3e a405 fa3c 3f3d 06be 8038 75be
00000150: 2fca 8c3d e548 32be 6e3a a0bd 00b5 09bd
00000160: db8b 55ba 9cf1 25be e487 3fbd e3ab 08bc
00000170: 7922 0b3d 7c30 693d 4bb5 ab3d d449 3dbe
00000180: c3b2 bdbc be61 993d 7ab9 5abe b8f1 443d
00000190: 2cce b83d 8395 9c3d ec38 04be 3a9e 09bd
000001a0: 7dc8 063e e2d3 683e 3f39 923e 210c 673e
000001b0: 6944 593e 1169 15bd c783 56bd e2db be3e
000001c0: b429 863e c9a4 e93d 83c3 c1bc e680 4a3d
000001d0: 62f9 4a3e 46fb 513e 30d7 d13d 9118 e7bd
000001e0: e59f ae3e 399b 953e 9db6 f6bd 2f1e a8bd
000001f0: 9f7e cbbd 4b2a 85bf bd88 10bf f36c 8a3e
00000200: 6948 533f ab15 363f f037 1bbf 1747 0ebd
00000210: 7be8 183e b4a0 023f 0993 033f f55a a23e
00000220: 0702 733e e252 413d ea28 55bd 2acb b0bc
00000230: ea6b 433f 4e4a d23e 406c 70be 6fdf b6be
00000240: f254 c1bd b79f 233f 295c 753e b3d8 59be
00000250: e19b 7bbe e70c d4be d8dc 593d 10b8 f9bc
00000260: d3e8 823d 3930 d63e 025a 133f 4b45 81bc
00000270: 6f98 d9be c289 1abf 3e2c b4be 5fda 863e
00000280: 1031 213e 7326 c1be 96d3 1dbf 1869 23bf
00000290: e403 a3bd 433b 053f 599a 1c3e 184c 4dbe
000002a0: 65f0 16bf 6f0e 29be dda1 853e da5c e53e
000002b0: 04a0 a33e f1f5 113e aa1b a53e 6e81 8f3e
000002c0: bbaa 293d 845f 673e de1d d73d 1634 c1bd
000002d0: b7c5 883e 370c 35be 2e0f dabd ada6 d13d
000002e0: 3523 e23d c779 403d c3a3 89be 81e1 653e
000002f0: d779 db3e bd7a 173e 459e 3fbe 4300 6bbe
00000300: fc3b 783e a629 133f 94fb 6d3e 1144 ebbe
00000310: b4c6 4bbe ce1a c93d a5f0 1a3e 361a 8dbc
00000320: 5980 9ebe c527 35bf f84a c3be 0883 f8bc
00000330: d9c8 e63d 9c89 2cbf 338e 5fbf ed4b 4dbf
00000340: 7d3d bbbe eb36 d93b 88cf b3be 0400 41bf
00000350: 4799 52bf 9e77 9abe 3be9 8abc 4092 d5bc
00000360: b306 88be 1bce a7be 2083 9abe 1961 babd
00000370: 7959 5fbd 3fce 363c 391c 94bc 777f 23be
00000380: 7a28 6abe a3e8 443b df1f 473d a0b1 953e
00000390: 7882 313e 6a6e 86bd 7a9b d83c 754e 153e
000003a0: d2ea a93e a6cc 5a3d 6397 83bd b618 ca3e
000003b0: 772c a13e da60 713d 7659 c7be 5663 12bd
000003c0: 40aa 4e3e c61f 443e 4002 4abe 0786 30bf
000003d0: c4fe d3be 76eb e9bd 84a3 1f3e f57e dc3d
000003e0: ef6f adbe feca babb 100e 73be bdba 8cbd
000003f0: b84b 7cbd abd4 33be cac2 f0bd 6a2f 87be

encoder.6.bias f4 [64]
-0.11459371 0.010876084 0.007570625 0.0007717412 0.025002431 -0.0566446 -0.07188086 -0.06828917
0.08758297 -0.04165219 0.06633413 -0.02686664 -0.015038301 -0.015385384 0.0008354178 0.11418954
-0.005394849 -0.09830346 0.021247614 0.03387222 0.20360827 0.009455965 -0.031187477 -1.2408666e-05
-0.027299615 -0.1341241 -0.0053125056 0.06149886 0.048830695 -0.044158034 0.034533974 -0.018314015
0.1102935 -0.043674365 0.06641874 0.004027747 -0.0018084956 0.031849604 0.026516536 0.037422244
0.01476852 0.009098074 0.000622259 0.0021334942 -0.048059545 0.06673533 0.026667196 -0.019397637
-0.0677203 -0.0045150435 0.10741192 -0.021017808 0.024784831 0.0050011626 0.00029072992 0.009546014
0.053581845 0.00610353 -0.0039477376 0.00041240017 -0.06355767 -0.12400061 0.0081961565 -0.074096985
00000000: 1bb0 eabd 9a31 323c 0113 f83b ad4e 4a3a
00000010: e6d1 cc3c 2b04 68bd 4636 93bd 31db 8bbd
00000020: b35e b33d 7d9b 2abd 30da 873d 6e17 dcbc
00000030: 3563 76bc fa12 7cbc f1ff 5a3a 35dc e93d
00000040: 46c7 b0bb 5353 c9bd 7a0f ae3c 99bd 0a3d
00000050: b07e 503e 31ed 1a3c e17c ffbc d12e 50b7
00000060: 71a3 dfbc d457 09be 8714 aebb 3be6 7b3d
00000070: b202 483d 0edf 34bd 7f73 0d3d 4607 96bc
00000080: 8fe1 e13d e4e3 32bd 8c06 883d 31fb 833b
00000090: 0b0b edba bb74 023d 3539 d93c 1148 193d
000000a0: aaf7 713c 1710 153c 181f 233a 18d2 0b3b
000000b0: 16da 44bd 88ac 883d 2a75 da3c cbe7 9ebc
000000c0: f1b0 8abd eef2 93bb c8fa db3d 8a2d acbc
000000d0: 8f09 cb3c cbe0 a33b 1c6d 9839 e266 1c3c
000000e0: a378 5b3d 1f00 c83b 065c 81bb 6a37 d839
000000f0: 862a 82bd 08f4 fdbd 2c49 063c 29c0 97bd

encoder.7.weight f4 [128, 64, 1, 1]
-0.06270105 -0.07001782 0.19199142 0.12609948 0.07329976 0.42226312 0.20578471 0.07047872
-0.55340147 0.6510103 -0.1426486 0.64546794 0.08119311 -0.03941644 -0.19796509 -0.1719436
-0.47631958 0.1464619 -0.07888327 0.6715346 0.04921713 -0.057750404 0.07345717 -0.44908533
0.2770555 0.08118709 -0.19503006 0.13630131 -0.13204454 -0.12497434 -0.36613047 -0.016325524
0.088170156 0.6731454 0.10393354 0.065878354 0.059666872 -0.314606 0.14169526 -0.1769616
-0.20577966 -0.11226915 -0.2880682 -0.1338293 0.5891973 -0.4689276 -0.34929043 0.2872636
-0.0063301553 -0.18488689 -0.29899865 0.48023048 -0.12646651 0.11640346 -0.34807158 -0.15753397
-0.8421043 -1.0741333 -0.13491368 -0.0033648708 -0.073748015 -0.25774187 0.52065796 -0.085855104
-0.014779644 -0.12468408 -0.37202498 -0.40748432 0.30029348 -0.12177369 0.17187491 -0.2009064
-0.48600402 -0.019951912 -0.14814928 0.087063335 0.15309238 -0.13591415 0.14041996 -0.033715766
0.08433757 -0.011014736 -0.21447805 -0.21053213 -0.06541417 -0.14903352 0.24991184 0.062786005
-0.33657026 -0.18126822 0.403354 -0.008913292 -0.100685544 0.38165918 0.14225723 -0.15465105
0.023547854 -0.16492552 -0.024464272 0.034107808 -0.033977278 0.8969036 -0.21461083 0.5813759
0.05271951 0.108156465 0.09011465 0.040310256 -0.20087098 -0.16880213 0.0010859352 -0.29998463
0.07640665 0.055078246 0.5529193 -0.26564148 -0.18766993 0.5064887 0.18089911 0.22786245
0.1712729 0.09991807 0.019056294 0.16820271 0.21247704 -0.0903988 -0.13656858 0.122743696
-0.03184817 -0.32798195 -0.070302136 -0.29276142 -0.104845 0.00415477 0.50320584 0.21722306
0.47039124 0.026136704 -0.14358184 -0.0016401123 0.2085273 0.06352671 -0.09142348 -0.22434951
-0.096533574 0.101907894 -0.39735284 0.17489353 -0.59034204 -0.08421355 -0.011339079 -0.0905909
-0.00315941 0.064036265 0.06421096 0.0022014023 0.055601854 0.049553562 0.07800977 0.21091957
0.14911999 0.5366685 0.23765677 0.11735908 0.01090997 0.26504853 -0.13247766 1.0733994
0.031451885 0.19739279 -0.29206404 -0.08249366 0.011715332 0.13349666 -0.1813203 -0.25582743
0.71462345 0.016143614 0.19189663 0.17050092 -0.51531875 0.23969066 0.09504192 -0.3058703
-0.20049943 -0.66625863 -0.032083612 -0.12542804 -0.07034583 0.050092857 -0.017197376 -0.026719794
-0.0720322 -0.16747615 -0.06687199 -0.22025849 -0.055319007 0.092409745 0.4039152 -0.10458414
0.054951526 -0.21635312 -0.29324463 -0.0118835 -0.023507752 0.2262483 -0.20432307 0.07025273
-0.116482124 0.509794 -0.6976637 -0.09534842 -0.19458643 0.072053604 0.72988683 0.034718182
0.43805894 0.21303533 -0.1235114 0.24958983 -0.044252437 0.13058686 -0.053868793 0.118476205
-0.28563404 0.13718946 -0.059665468 -0.095541574 0.13269526 0.37212643 -0.26829752 0.18099493
-0.22965245 0.23553334 -0.53380245 -0.27239603 0.803984 -0.20497951 0.031191066 0.07938446
1.453093 0.21370623 0.15019956 -0.13410008 -0.39816132 0.34611055 0.11675846 0.25304025
-0.074019365 0.18555133 -0.03603818 -0.0036415958 0.18568024 -0.30981332 -0.015450054 -0.038347024
00000000: 6869 80bd 8165 8fbd 6699 443e 3920 013e
00000010: 2f1e 963d df32 d83e 3ab9 523e 2657 903d
00000020: b8ab 0dbf 9ca8 263f 7912 12be 633d 253f
00000030: 9348 a63d 2273 21bd 5cb7 4abe fc11 30be
00000040: 29e0 f3be 1cfa 153e 8d8d a1bd b1e9 2b3f
00000050: e797 493d b08b 6cbd b670 963d 83ee e5be
00000060: 38da 8d3e 6b45 a63d f6b5 47be 9292 0b3e
00000070: af36 07be 8cf2 ffbd 7475 bbbe 1bbd 85bc
00000080: 8e92 b43d 4253 2c3f 1cdb d43d 3beb 863d
00000090: 4065 743d 0a14 a1be 9018 113e 6c35 35be
000000a0: e7b7 52be 5eed e5bd ad7d 93be 8c0a 09be
000000b0: a2d5 163f 4717 f0be 32d6 b2be 3714 933e
000000c0: 316d cfbb fd52 3dbe 5a16 99be c5e0 f53e
000000d0: 7080 01be f064 ee3d 7036 b2be 9650 21be
000000e0: 2694 57bf 337d 89bf d026 0abe 2a85 5cbb
000000f0: 3309 97bd bef6 83be d749 053f cdd4 afbd
00000100: 5226 72bc 5e5a ffbd 0f7a bebe c9a1 d0be
00000110: 11c0 993e 7c64 f9bd faff 2f3e 68ba 4dbe
00000120: 85d5 f8be 3172 a3bc 72b4 17be 434e b23d
00000130: 40c4 1c3e 142d 0bbe 40ca 0f3e 8b19 0abd
00000140: 2db9 ac3d 2777 34bc 22a0 5bbe bc95 57be
00000150: ddf7 85bd 3e9c 18be e4e8 7f3e f395 803d
00000160: f052 acbe 609e 39be 6a84 ce3e 0e09 12bc
00000170: 3934 cebd d568 c33e e1ab 113e d85c 1ebe
00000180: 6ee7 c03c 3ce2 28be 4c69 c8bc a1b4 0b3d
00000190: c22b 0bbd 799b 653f f1c2 5bbe 0dd5 143f
000001a0: 6af0 573d 2381 dd3d 088e b83d 5e1c 253d
000001b0: 1fb1 4dbe 77da 2cbe f055 8e3a 9697 99be
000001c0: 177b 9c3d ba99 613d 1f8c 0d3f 2902 88be
000001d0: 8c2c 40be 3ea9 013f 9e3d 393e c654 693e
000001e0: 2a62 2f3e d8a1 cc3d f21b 9c3c 553d 2c3e
000001f0: 9593 593e 0223 b9bd a2d8 0bbe 0c61 fb3d
00000200: 3a73 02bd 40ed a7be 91fa 8fbd d3e4 95be
00000210: fab8 d6bd bd24 883b 19d2 003f b96f 5e3e
00000220: 1fd7 f03e a41c d63c 1e07 13be 09f9 d6ba
00000230: 2e88 553e 4b1a 823d 3c3c bbbd e1bb 65be
00000240: 65b3 c5bd 16b5 d03d d571 cbbe 4a17 333e
00000250: a820 17bf 2778 acbd 8bc7 39bc b987 b9bd
00000260: 1b0e 4fbb 7225 833d 0981 833d 6745 103b
00000270: c5be 633d adf8 4a3d 96c3 9f3d 4dfb 573e
00000280: e9b2 183e 1b63 093f 4c5c 733e f559 f03d
00000290: bbbf 323c 71b4 873e 39a8 07be 2765 893f
000002a0: b1d3 003d 5621 4a3e 6b89 95be 70f2 a8bd
000002b0: aaf1 3f3c 59b3 083e 07ac 39be d0fb 82be
000002c0: 90f1 363f 9d3f 843c 8d80 443e cb97 2e3e
000002d0: eeeb 03bf 7871 753e 57a5 c23d 089b 9cbe
000002e0: b94f 4dbe ed8f 2abf 1b6a 03bd 3570 00be
000002f0: 7911 90bd 2b2e 4d3d 83e1 8cbc 78e3 dabc
00000300: 9e85 93bd de7e 2bbe 2ff4 88bd 718b 61be
00000310: 2f96 62bd 5241 bd3d f9cd ce3e 3630 d6bd
00000320: da14 613d ac8b 5dbe 2924 96be 03b3 42bc
00000330: 5493 c0bc a2ad 673e 113a 51be aae0 8f3d
00000340: 2e8e eebd dc81 023f 179a 32bf 0846 c3bd
00000350: aa41 47be d790 933d ddd9 3a3f a734 0e3d
00000360: 4349 e03e ef25 5a3e 8bf3 fcbd 7a94 7f3e
00000370: 0b42 35bd 90b8 053e 86a5 5cbd a7a3 f23d
00000380: a03e 92be 657b 0c3e c763 74bd 4dab c3bd
00000390: 44e1 073e 5b87 be3e 4b5e 89be bc56 393e
000003a0: 032a 6bbe a72f 713e 47a7 08bf 7e77 8bbe
000003b0: e5d1 4d3f 26e6 51be 6884 ff3c 5294 a23d
000003c0: f4fe b93f ced5 5a3e eacd 193e 8851 09be
000003d0: cddb cbbe 6735 b13e 0f1f ef3d 7e8e 813e
000003e0: 7797 97bd 2b01 3e3e c59c 13bd d7a7 6ebb
000003f0: f622 3e3e da9f 9ebe 3922 7dbc c511 1dbd

encoder.7.bias f4 [128]
0.11793254 0.14954296 -0.02007747 -0.2872144 -0.19167107 -0.17816056 -0.007109681 -0.23387982
-0.3382076 -0.0112779485 -0.051300436 0.16473822 -0.12963423 -0.26705334 -0.14121954 0.21350409
-0.4041934 -0.110005416 -0.20037137 -0.10870455 -0.25175822 0.016381217 -0.07864873 -0.2360894
-0.2693707 -0.08819238 -0.0015807592 -0.24386904 -0.20224205 -0.29157948 -0.23050505 -0.2269392
0.31130493 -0.23773263 0.07061474 -0.2778307 0.79613185 0.058727488 -0.08071468 -0.18847993
-0.10881876 0.100581214 -0.19669043 -0.21790867 -0.17872377 -0.49138042 -0.11523259 -0.287629
0.07260908 0.0814854 0.11230501 -0.1674607 0.0040231566 -0.06875963 -0.39934683 -0.062758684
-0.0787681 -0.024560543 -0.019845352 -0.16869007 -0.2494149 0.14619657 -0.006538206 0.21845129
0.09244085 0.010924393 -0.36754778 -0.2010105 -0.21528746 -0.029876675 0.053250138 0.03776428
-0.14526711 -0.17744583 0.022240063 0.3625268 -0.27380154 -0.323129 0.00058646494 -0.2764425
-0.121891394 -0.28268224 -0.39857617 0.34692705 -0.05745254 -0.017322391 -0.39146578 -0.36484805
-0.2248643 -0.14710818 -0.2690703 0.023062633 0.07920539 0.0053854347 -0.18991645 0.015373472
-0.20313378 -0.035030417 -0.31388643 0.18486825 0.11377766 0.1656596 -0.12324593 -0.1360106
0.014002445 -0.4986666 -0.20366529 -0.11916103 0.2585492 0.12863614 -0.34814495 -0.7018738
0.16864562 0.322585 -0.011661764 -0.43876907 0.26884064 -0.25809443 -0.15438578 0.13895561
-0.22311123 0.12182181 -0.03034519 0.26002616 0.14890645 -0.0075567407 0.08446002 0.06911331
00000000: 9e86 f13d ca21 193e 8279 a4bc c40d 93be
00000010: 6c45 44be b96f 36be 54f8 e8bb 317e 6fbe
00000020: 8c29 adbe 25c7 38bc 6820 52bd 23b1 283e
00000030: d6be 04be 37bb 88be db9b 10be d1a0 5a3e
00000040: 70f2 cebe 854a e1bd 272e 4dbe 7ea0 debd
00000050: 74e6 80be e731 863c 9612 a1bd 6bc1 71be
00000060: f5ea 89be 359e b4bd 7a31 cfba ceb8 79be
00000070: 8a18 4fbe e849 95be 8409 6cbe c062 68be
00000080: 5c63 9f3e 2f70 73be 769e 903d d33f 8ebe
00000090: 4ccf 4b3f 3c8c 703d bd4d a5bd e200 41be
000000a0: 5fdc debd 86fd cd3d 3769 49be 7323 5fbe
000000b0: 5d03 37be 3796 fbbe 10ff ebbd 1c44 93be
000000c0: 12b4 943d d1e1 a63d 2b00 e63d d17a 2bbe
000000d0: afd4 833b d9d1 8cbd 3077 ccbe a087 80bd
000000e0: 2b51 a1bd 3133 c9bc b892 a2bc 17bd 2cbe
000000f0: 9f66 7fbe 8eb4 153e 723e d6bb b2b1 5f3e
00000100: a151 bd3d 3afc 323c 392f bcbe b2d5 4dbe
00000110: 5174 5cbe eebf f4bc d11c 5a3d b8ae 1a3d
00000120: e7c0 14be 5cb4 35be cb30 b63c 1d9d b93e
00000130: b72f 8cbe 2a71 a5be ffbc 193a df89 8dbe
00000140: 32a2 f9bd babb 90be 2d12 ccbe 6ca0 b13e
00000150: 5b53 6bbd b0e7 8dbc 346e c8be 5dcd babe
00000160: d442 66be 87a3 16be 95c3 89be d9ed bc3c
00000170: 6f36 a23d 4d78 b03b 7579 42be 04e1 7b3c
00000180: 4d02 50be 0e7c 0fbd b9b5 a0be 1a4e 3d3e
00000190: 4304 e93d aca2 293e 5d68 fcbd 5d46 0bbe
000001a0: 836a 653c 3b51 ffbe a28d 50be b30a f4bd
000001b0: 9060 843e 31b9 033e 0e40 b2be 00ae 33bf
000001c0: 70b1 2c3e dc29 a53e fc10 3fbc 57a6 e0be
000001d0: 7ba5 893e f424 84be 4e17 1ebe 614a 0e3e
000001e0: 4577 64be b77d f93d 7a96 f8bc 2622 853e
000001f0: ef7a 183e 899e f7bb 60f9 ac3d 478b 8d3d

encoder.9.weight f4 [128, 1, 5, 5]
-0.25033382 -0.12979282 0.288865 0.32569578 0.19624215 -0.12993349 0.07232511 0.033435732
0.09351361 0.6015972 0.14915325 0.0076839626 -0.31717485 -0.09474753 0.6461908 0.17722982
0.29888844 0.02107323 0.20404847 0.36197948 -0.23213519 0.30264598 0.60471547 0.3779658
0.12801063 -0.37854385 -0.1165528 -0.2693552 -0.2677126 -0.005497463 -0.26938403 -0.14976418
0.052835565 0.14459714 -0.050278727 -0.23992409 0.1629071 0.43943357 0.2401846 0.06802215
-0.027143408 0.100023046 0.36752665 0.1491229 -0.051852517 -0.22566396 0.08653307 0.120435685
0.16476542 -0.2054035 0.017934686 0.25847456 -0.083710775 -0.3280694 0.062177084 0.011955779
0.072418645 -0.02691158 -0.09300325 -0.48757952 -0.19563359 -0.112982966 -0.12277961 -0.39017364
-0.16859357 0.07133588 -0.3852716 -0.5124409 -0.3530811 -0.08320265 0.06967728 0.06154846
-0.16019396 -0.094212316 -0.22170117 0.18431886 0.23335308 0.030575251 -0.43106028 -0.30027387
0.1166048 0.12948237 -0.17601752 -0.5095836 -0.27047613 -0.06342653 -0.29852462 -0.21237168
-0.13508062 0.027239293 0.029950004 -0.42850327 -0.24223967 0.19094121 0.31967038 -0.3803864
-0.20914891 0.19243443 0.5399004 0.7591802 0.13006388 0.14040183 -0.16788752 0.36173362
-0.3224922 -0.07724148 -0.31184667 -0.23885752 -0.30637553 0.023495836 -0.25208655 -0.04649875
0.25623488 -0.14449388 0.24679975 0.007971285 0.075950906 0.12883624 -0.116018675 0.014580474
-0.054692168 -0.23327348 0.3824835 0.5736682 -0.14416905 -0.45965016 0.08718235 -0.06498314
-0.24052787 0.021653438 -0.10158997 0.109979406 0.34915903 0.1983394 -0.26308236 0.2244238
-0.11007149 0.1122821 0.4194658 0.073761344 0.2851975 -0.03471615 -0.045595635 0.096575655
-0.054783348 -0.21873525 0.19085592 -0.14825223 -0.2893991 -0.0007065735 0.45537433 0.2143186
-0.4467888 -0.37187383 0.32604402 0.22838199 -0.04246777 -0.2736734 -0.07680353 -0.11814344
0.051330384 0.14358921 -0.27251685 -0.38670474 -0.1923262 -0.08752613 -0.1055947 -0.0026007714
0.18899728 -0.020785239 0.18037526 0.4283262 0.6694992 0.33054206 0.08040481 0.2155161
0.047396768 -0.12776636 -0.30417472 -0.20894736 -0.5473499 -0.21480739 -0.11114477 -0.06120493
-0.017138489 -0.743761 -0.22565098 -0.06539064 -0.26470312 -0.23529631 0.3490777 0.1076035
0.07343421 0.30683684 -0.52513313 0.45801207 0.1986924 0.19240251 0.08781821 -0.016684545
0.013637078 -0.24151488 -0.27080834 -0.14056261 0.6168625 -0.5867537 -0.48065943 -0.29837847
-0.091226436 0.09789901 -0.3681589 -0.11215145 -0.18779874 -0.40701336 0.039474115 0.24291758
-0.29977804 -0.21610498 -0.0022756418 0.32229796 0.57322496 -0.24340236 0.12081196 0.4428029
0.40822557 0.4499605 0.19635923 0.16376632 0.12112447 0.03314576 0.1243732 -0.16758649
0.103312925 0.08723251 -0.26851773 0.1809355 -0.060165647 -0.11469156 0.11689209 -0.044669796
0.27184844 0.19380762 0.080795966 0.22010997 -0.11699577 0.017614018 -0.0114811165 0.15773849
0.07649586 0.17357975 -0.007463903 0.015760565 0.25725767 0.39114136 -0.111009754 -0.15427543
00000000: c12b 80be 69e8 04be 1de6 933e 99c1 a63e
00000010: b4f3 483e 490d 05be 301f 943d e8f3 083d
00000020: 1084 bf3d 4602 1a3f a1bb 183e c0c9 fb3b
00000030: be64 a2be fe0a c2bd c36c 253f bc7b 353e
00000040: e807 993e c4a1 ac3c 15f2 503e 6055 b93e
00000050: d9b4 6dbe 6af4 9a3e a2ce 1a3f bc84 c13e
00000060: 3815 033e 80d0 c1be 3cb3 eebd ede8 89be
00000070: a011 89be 1024 b4bb b4ec 89be c85b 19be
00000080: 1b6a 583d 4611 143e 11f1 4dbd a9ae 75be
00000090: 1ed1 263e 70fd e03e f4f2 753e 324f 8b3d
000000a0: da5b debc e2d8 cc3d 742c bc3e acb3 183e
000000b0: 4e63 54bd 7414 67be 4038 b13d fca6 f63d
000000c0: 44b8 283e 4c55 52be c3eb 923c c756 843e
000000d0: 8e70 abbd b6f8 a7be 66ad 7e3d 2ce2 433c
000000e0: 3a50 943d ac75 dcbc 7d78 bebd 06a4 f9be
000000f0: 2c54 48be 9d63 e7bd e073 fbbd d7c4 c7be
00000100: cba3 2cbe 8c18 923d 5242 c5be 542f 03bf
00000110: 0cc7 b4be 2766 aabd f6b2 8e3d 3d1a 7c3d
00000120: e309 24be 63f2 c0bd a205 63be 15be 3c3e
00000130: 1cf4 6e3e f378 fa3c efb3 dcbe 7fbd 99be
00000140: 7fce ee3d 0797 043e f03d 34be 1274 02bf
00000150: d97b 8abe c5e5 81bd 38d8 98be f677 59be
00000160: 9352 0abe f024 df3c b659 f53c c864 dbbe
00000170: ad0d 78be 1886 433e d6ab a33e 02c2 c2be
00000180: 222b 56be 880d 453e ea36 0a3f a259 423f
00000190: 772f 053e 7fc5 0f3e b5ea 2bbe 2635 b93e
000001a0: b31d a5be c830 9ebd 5eaa 9fbe 1197 74be
000001b0: 41dd 9cbe 577a c03c 7d11 81be 7975 3ebd
000001c0: 3831 833e 34f6 13be 13b9 7c3e fe99 023c
000001d0: 268c 9b3d a6ed 033e 339b edbd f1e2 6e3c
000001e0: e504 60bd 3edf 6ebe e1d4 c33e ebdb 123f
000001f0: 0da1 13be 4457 ebbe a98c b23d e115 85bd
00000200: f04c 76be 8d62 b13c 670e d0bd e23c e13d
00000210: f9c4 b23e 7c19 4b3e bbb2 86be 5acf 653e
00000220: 296d e1bd 28f4 e53d 39c4 d63e 3010 973d
00000230: 6805 923e 8632 0ebd 7dc2 3abd 75c9 c53d
00000240: 8164 60bd 22fc 5fbe bc6f 433e 6fcf 17be
00000250: 1e2c 94be 5839 39ba d326 e93e 5676 5b3e
00000260: 80c1 e4be 3f66 bebe 3eef a63e f8dc 693e
00000270: aff2 2dbd eb1e 8cbe 2b4b 9dbd 30f5 f1bd
00000280: cf3f 523d 0d09 133e 5487 8bbe 2afe c5be
00000290: 29f1 44be e640 b3bd 0942 d8bd b471 2abb
000002a0: 8188 413e ce45 aabc 4bb4 383e 924d db3e
000002b0: 4d64 2b3f cf3c a93e 47ab a43d 41b0 5c3e
000002c0: 1d23 423d 2fd5 02be cabc 9bbe 4cf6 55be
000002d0: 1f1f 0cbf 78f6 5bbe df9f e3bd 05b2 7abd
000002e0: 0466 8cbc 1f67 3ebf 0d11 67be 87eb 85bd
000002f0: 2b87 87be 84f1 70be 50ba b23e 395f dc3d
00000300: ad64 963d b819 9d3e 206f 06bf 8f80 ea3e
00000310: 0576 4b3e 2a05 453e 09da b33d 07ae 88bc
00000320: 0d6e 5f3c ad4f 77be 64a7 8abe a5ef 0fbe
00000330: b3ea 1d3f 7e35 16bf fe18 f6be 10c5 98be
00000340: edd4 babd 477f c83d 537f bcbe a9af e5bd
00000350: 504e 40be 0e64 d0be 9caf 213d 63bf 783e
00000360: 827c 99be a04a 5dbe ef22 15bb 3d04 a53e
00000370: dfbe 123f 783e 79be 436c f73d 10b7 e23e
00000380: f102 d13e 3961 e63e 6512 493e 5cb2 273e
00000390: 1b10 f83d d9c3 073d 60b7 fe3d cb9b 2bbe
000003a0: ba95 d33d f5a6 b23d 287b 89be 2847 393e
000003b0: 4170 76bd 69e3 eabd 1f65 ef3d adf7 36bd
000003c0: b82f 8b3e 8175 463e 5b78 a53d 8264 613e
000003d0: 7a9b efbd 464b 903c 4b1b 3cbc 3386 213e
000003e0: dda9 9c3d e4be 313e c293 f4bb 4d1c 813c
000003f0: 47b7 833e ae43 c83e 1559 e3bd 61fa 1dbe

encoder.9.bias f4 [128]
-0.0478328 -0.09386042 0.017518653 0.023604043 0.02777683 0.052711386 -0.0065461406 0.026606366
-0.018421572 0.075885326 -0.08634253 -0.05341686 0.056177553 0.04318859 -0.081064105 0.023158893
-0.018267704 -0.0066370443 -0.08358415 -0.022822231 0.0166795 -0.13794972 0.0036150787 -0.0052653477
-0.039807964 -0.08810613 0.053338595 0.022839095 -0.0042712484 -0.007454866 0.084454656 -0.0065864236
-0.05413166 -0.13300025 0.122004464 -0.014272628 -0.14616144 -0.0480079 0.10832566 0.18715797
0.03668864 0.27774027 -0.06523847 0.01064853 0.01589389 0.03626062 -0.041050587 0.002220347
0.08223937 0.1492599 -0.13503945 -0.018116307 0.14019163 -0.039879538 0.04220329 -0.025616333
0.008680457 0.080888174 -0.03635174 -0.007758243 0.009007593 -0.005751718 0.013733648 0.17805086
0.018217105 -0.058341242 -0.08568801 0.00944802 -0.00620217 -0.04279074 -0.022457067 0.16050759
-0.06287072 -0.05002121 -0.027923873 -0.06081097 0.13056098 -0.10192342 0.04082538 0.034846168
0.03409593 0.06097096 0.046429846 0.052298516 -0.0058331504 -0.09707117 -0.0285586 0.003214838
-0.006752736 -0.0052750474 -0.10641693 -0.0344254 0.005158826 -0.057939917 -0.00073645974 0.06379673
-0.12713812 -0.019207126 -0.18648541 0.06730791 -0.19272275 0.011249162 -0.025784591 -0.004299966
-0.25567278 0.014913775 0.043788563 -0.031942092 0.035652746 -0.06471116 -0.08887632 0.009061837
0.10498191 -0.0635372 0.050839905 -0.0049479185 -0.010467289 -0.0025165475 -0.04347195 -0.043908138
-0.0067451666 -0.0764326 0.11456153 0.045699906 0.024793526 -0.019245954 0.12655006 0.013833227
00000000: 53ec 43bd e439 c0bd 4783 8f3c 445d c13c
00000010: 3c8c e33c e5e7 573d 0281 d6bb 98f5 d93c
00000020: d6e8 96bc c469 9b3d 5ad4 b0bd a3cb 5abd
00000030: 6f1a 663d 85e6 303d f004 a6bd b8b7 bd3c
00000040: 27a6 95bc 907b d9bb 2b2e abbd b0f5 babc
00000050: 72a3 883c b142 0dbe f5ea 6c3b f088 acbb
00000060: ad0d 23bd fd70 b4bd 9279 5a3d 0e19 bb3c
00000070: d4f5 8bbb f347 f4bb 90f6 ac3d edd2 d7bb
00000080: 29b9 5dbd 3831 08be 7add f93d bed7 69bc
00000090: 58ab 15be efa3 44bd d8d9 dd3d 57a6 3f3e
000000a0: d446 163d f933 8e3e bf9b 85bd 2c77 2e3c
000000b0: e733 823c 0486 143d a924 28bd 3e83 113b
000000c0: 1d6d a83d 96d7 183e c847 0abe a668 94bc
000000d0: 658e 0f3e ba58 23bd 5bdd 2c3d 58d9 d1bc
000000e0: 7a38 0e3c b3a8 a53d 90e5 14bd dc38 febb
000000f0: 9594 133c e878 bcbb 1803 613c f752 363e
00000100: 0a3c 953c 3af7 6ebd 327d afbd decb 1a3c
00000110: 933b cbbb 5845 2fbd e2f7 b7bc 1a5c 243e
00000120: 5dc2 80bd 0ae3 4cbd 9bc0 e4bc ec14 79bd
00000130: c7b1 053e 3abd d0bd 8338 273d dbba 0e3d
00000140: 2da8 0b3d afbc 793d 392d 3e3d f836 563d
00000150: 0324 bfbb 40cd c6bd baf3 e9bc 08b0 523b
00000160: 0e46 ddbb 4eda acbb 1ff1 d9bd a601 0dbd
00000170: 5e0b a93b 6852 6dbd fa0e 41ba dca7 823d
00000180: 7f30 02be 4358 9dbc 08f6 3ebe bbd8 893d
00000190: 1d59 45be 684e 383c 353a d3bc bbe6 8cbb
000001a0: 8be7 82be e858 743c a35b 333d b6d5 02bd
000001b0: 9d08 123d 4987 84bd ca04 b6bd 1978 143c
000001c0: c100 d73d cb1f 82bd 813d 503d 2622 a2bb
000001d0: fe7e 2bbc a9ec 24bb a50f 32bd 05d9 33bd
000001e0: 8f06 ddbb b288 9cbd 3c9f ea3d d32f 3b3d
000001f0: cb1b cb3c b1a9 9dbc 5796 013e c2a4 623c

encoder.10.weight f4 [128, 128, 1, 1]
-0.26863852 0.04860752 -0.20337214 -0.44197503 -0.10096319 0.066628866 -0.0643745 0.28642288
-0.42112067 0.19280332 -0.17176385 0.039270412 0.074417144 0.049053397 0.13297163 0.0037688627
0.2999042 -0.047594402 -0.3813927 -0.19633304 0.11394483 0.006758155 0.20868841 -0.035097618
-0.008819404 -0.27696094 0.27594838 0.085997365 0.17941675 -0.010482831 0.15689188 0.5186047
0.43462658 0.12112172 0.3173199 -0.34642273 -0.13100213 0.66187143 0.14218359 -0.13821
-0.3182754 -0.15930331 -0.007801219 0.6984917 0.0002836605 -0.16931583 0.32611638 -0.028188277
0.37373978 0.0065359958 0.18653508 -0.6393464 0.19347027 0.04504033 0.10947175 -0.25748533
-0.06907384 0.115172245 0.10832556 -0.044059165 0.18548305 0.123893656 0.21460277 -0.10684359
-0.186132 0.14085005 0.1010762 -0.28148425 0.049999822 -0.19188657 0.3615011 0.29334196
-0.08462993 -1.13541 -0.2635344 0.18242247 0.40599298 0.24819958 -0.18041275 0.16837522
-0.089090034 0.3548719 0.15321507 -0.05541872 -0.08663795 -0.1700011 0.08552908 0.2283803
-0.016305743 0.12917258 1.2845099 -0.061654676 0.13309418 -0.051578328 0.005106905 -0.031715054
0.31360862 0.09695899 0.078565836 0.15939896 0.035946656 -0.23836689 -0.04471848 -0.09221885
-0.008756579 0.14025399 -0.28179437 -0.19689324 0.12691998 -0.25019524 -0.13126636 0.579372
-0.06433261 0.1605655 -0.32672986 0.2389098 0.15424591 0.006999265 -0.14041606 -0.04804851
-0.113649346 0.11276829 -0.010172256 -0.026114361 -0.25320044 0.1397942 -0.16180754 0.06680832
-0.02138779 -0.41340786 0.15810768 -0.12973467 0.027399981 -0.18871334 -0.08088357 -0.12774585
0.21732564 -0.089191735 -0.0069244998 0.11984989 0.035787612 0.13577466 -0.15131478 0.088715
0.60664296 -0.04797255 -0.027890353 -0.0005727977 -0.07150183 -0.20955767 0.0510777 0.05819023
0.021988202 0.08762759 0.44759834 -0.02520077 -0.20261733 0.10661425 0.07773149 -0.096579604
0.16094312 0.15595716 -0.13343325 -0.1451274 -0.03636853 -0.29612666 -0.043768622 0.21177131
-0.14299126 0.40452662 0.15884587 -0.25021124 0.19310685 0.08631552 -0.030491622 0.3012324
-0.142189 0.079729736 -0.031872265 -0.057247825 0.32681474 -0.03502459 0.08257933 0.06402989
-0.0852289 0.6415611 -0.116359435 -0.044915218 -0.050783306 0.086653404 -0.040921144 0.07951018
-0.05991658 -0.06822852 -0.31883982 0.05962866 0.07055474 -0.1458491 -0.14416924 0.07713705
0.025911173 -0.11378888 -0.10872601 0.35872522 -0.029090684 -0.065364726 0.28318828 0.036007192
-0.20119415 -0.03790906 0.07791906 -0.13829233 0.0484821 0.01540237 -0.085747875 0.013404131
0.039906044 0.10376978 0.18652318 0.025832646 0.8331306 -0.050486606 -0.018631937 -0.34268817
0.067653574 0.117779285 -0.21403791 0.14131519 0.040664464 0.031674653 -0.006172468 -0.1451037
-0.3292442 0.367234 0.07918447 0.027276164 0.1541047 0.038276296 -0.11818862 -0.40256104
-0.16675794 0.21564241 -0.048097543 -0.2503984 -0.20219511 -0.010514909 0.3931151 -0.17441288
0.037328195 0.2166033 -0.09608951 0.1472302 -0.12616731 -0.05395261 -0.29437393 0.19416305
00000000: fd8a 89be ae18 473d c940 50be 8d4a e2be
00000010: cac5 cebd b774 883d c7d6 83bd 05a6 923e
00000020: 219d d7be 3c6e 453e dde2 2fbe 03da 203d
00000030: 0468 983d 37ec 483d b729 083e 06ff 763b
00000040: 0b8d 993e 59f2 42bd e745 c3be 870b 49be
00000050: e85b e93d 8373 dd3b 6ab2 553e 85c2 0fbd
00000060: 437f 10bc d3cd 8dbe 1b49 8d3e 631f b03d
00000070: 06b9 373e 2ec0 2bbc 44a8 203e 47c3 043f
00000080: 6087 de3e aa0e f83d c177 a23e 525e b1be
00000090: 6c25 06be 6870 293f 9398 113e ec86 0dbe
000000a0: fef4 a2be 6820 23be 5ea1 ffbb 5ad0 323f
000000b0: 45b8 9439 2161 2dbe baf8 a63e 1aeb e6bc
000000c0: d25a bf3e e82b d63b 0d03 3f3e 35ac 23bf
000000d0: 121d 463e 367c 383d ba32 e03d 1ed5 83be
000000e0: 9676 8dbd 6ddf eb3d cbd9 dd3d 6277 34bd
000000f0: 45ef 3d3e f5bb fd3d d4c0 5b3e d0d0 dabd
00000100: 6399 3ebe ff3a 103e 0a01 cf3d b41e 90be
00000110: 9dcc 4c3d ea7d 44be ac16 b93e eb30 963e
00000120: 7552 adbd 1d55 91bf fbed 86be f5cc 3a3e
00000130: 50de cf3e 0828 7e3e 1fbe 38be 8e6a 2c3e
00000140: d674 b6bd c5b1 b53e 69e4 1c3e bdfe 62bd
00000150: 3d6f b1bd c514 2ebe df29 af3d 86dc 693e
00000160: 9f93 85bc d145 043e d26a a43f 9d89 7cbd
00000170: d749 083e cc43 53bd d357 a73b a5e7 01bd
00000180: 4f91 a03e 6f92 c63d 20e7 a03d 7b39 233e
00000190: cd3c 133d 7316 74be ba2a 37bd 3ddd bcbd
000001a0: c177 0fbc be9e 0f3e 5a47 90be 629e 49be
000001b0: 50f7 013e 9719 80be b06a 06be b951 143f
000001c0: d1c0 83bd 486b 243e 2349 a7be c5a4 743e
000001d0: a4f2 1d3e 175a e53b 3ac9 0fbe 84ce 44bd
000001e0: fdc0 e8bd 10f3 e63d 89a9 26bc c9ed d5bc
000001f0: 7da3 81be 3626 0f3e e0b0 25be cdd2 883d
00000200: 7235 afbc 32aa d3be fbe6 213e 2ad9 04be
00000210: ed75 e03c 123e 41be 49a6 a5bd cfcf 02be
00000220: 9d8a 5e3e 28aa b6bd eae6 e2bb dc73 f53d
00000230: 0896 123d 8308 0b3e 43f2 1abe 36b0 b53d
00000240: f44c 1b3f dd7e 44bd 4f7a e4bc ce27 16ba
00000250: 8d6f 92bd 4996 56be da36 513d e158 6e3d
00000260: 9a20 b43c 1876 b33d 9c2b e53e d871 cebc
00000270: eb7a 4fbe 9258 da3d b031 9f3d 87cb c5bd
00000280: 46ce 243e 3cb3 1f3e baa2 08be 479c 14be
00000290: 2bf7 14bd ea9d 97be ba46 33bd 94da 583e
000002a0: 4d6c 12be 1d1e cf3e 7ea8 223e b01b 80be
000002b0: cdbd 453e 31c6 b03d 91c9 f9bc 223b 9a3e
000002c0: fe99 11be 5849 a33d 7e8c 02bd b27c 6abd
000002d0: 4354 a73e f275 0fbd 5a1f a93d 1a22 833d
000002e0: 7d8c aebd 593d 243f db4d eebd 05f9 37bd
000002f0: 2802 50bd 5777 b13d ee9c 27bd 3cd6 a23d
00000300: 166b 75bd 65bb 8bbd f93e a3be 2f3d 743d
00000310: 017f 903d 7759 15be 1aa1 13be 08fa 9d3d
00000320: ab43 d43c 250a e9bd beab debd d5aa b73e
00000330: 964f eebc f1dd 85bd 0efe 903e 477c 133d
00000340: d705 4ebe 8846 1bbd 0794 9f3d 819c 0dbe
00000350: 2b95 463d 395a 7c3c 959c afbd 009d 5b3c
00000360: 8574 233d 4085 d43d efff 3e3e fc9e d33c
00000370: 0c48 553f 0bcb 4ebd 01a2 98bc d374 afbe
00000380: f58d 8a3d 4436 f13d c12c 5bbe eeb4 103e
00000390: c88f 263d 48bd 013d 6a42 cabb 1096 14be
000003a0: b292 a8be 1806 bc3e 782b a23d 4372 df3c
000003b0: 9fcd 1d3e 9bc7 1c3d e00c f2bd 7b1c cebe
000003c0: 98c2 2abe 5dd1 5c3e ee01 45bd 3834 80be
000003d0: 3c0c 4fbe ba46 2cbc 6246 c93e 4a99 32be
000003e0: 73e5 183d 41cd 5d3e 94ca c4bd 83c3 163e
000003f0: 0132 01be 69fd 5cbd 2eb8 96be aed2 463e
