src/anomaly_detection/model_checkpoints/cookie/ae_model.pt (torch, 291555 bytes, 32 tensors)

encoder.0.weight f4 [1, 1, 5, 5]
00000000: 2087 c8bc a2a6 64bd fd7d 593c f03b d43c
00000010: 18b5 82bc c42b 18bd edc4 d5bc 2127 d63d
00000020: ce25 b63d 196c 56ba 5916 873d 893f b03d
00000030: 3578 ab3e 97c4 de3e 58a1 123e 6d42 9c3c
00000040: 4cde e63d 31f5 d43e 2a3f db3e 4ad7 e43d
00000050: 38c6 7dbd acbd ef3c b976 693e 726c a73d
00000060: de73 5ebd
-0.024478495 -0.055822976 0.013274667 0.025907487 -0.015955493 -0.037151113 -0.026094878 0.10456682
0.088939294 -0.000817956 0.06596059 0.08605868 0.33490148 0.4350936 0.1431936 0.019074643
0.112728685 0.41593316 0.42821628 0.11173876 -0.061956614 0.029265247 0.22799195 0.08174981
-0.05430972

encoder.1.weight f4 [32, 1, 1, 1]
00000000: 9fb7 5f3f b560 a9bf 728e 39bf 031a f23d
00000010: 587c 853f 7d03 ebbe 8935 14bf 6730 7cbf
00000020: e281 efbe b78a 20be 2071 303f ec0d 393f
00000030: ef2f 0cbf 1934 fd3e 06a1 bebd 63ed 26bf
00000040: b9ad 2ebf c06d f6be 6388 ca3f ba45 723e
00000050: a22b e33e c36a a4be 7f04 5ebf 40f3 9cbf
00000060: 3d4a c53e 8556 8d3f 3b60 88be ace8 5b3f
00000070: 60d8 843d 79bc 00bf ae54 20bf 74f6 593f
0.8738956 -1.3232638 -0.7248298 0.118213676 1.0428572 -0.459011 -0.5789419 -0.98511356
-0.4677878 -0.15677916 0.68922615 0.7228687 -0.5476064 0.4945381 -0.093080565 -0.65205973
-0.6823383 -0.48130608 1.5822872 0.23659411 0.44369227 -0.32112703 -0.8672561 -1.2261734
0.38533202 1.1042029 -0.26635918 0.85901904 0.06486583 -0.50287586 -0.6262921 0.8514168

encoder.1.bias f4 [32]
00000000: 46a0 90be f8ab df3e be09 823e 5d89 0abf
00000010: 9d02 0dbf d75d 8fbe 5580 663f b00d 1cbf
00000020: a60e e1bd 5c86 dd3e 13e7 adbe 759f 683e
00000030: e027 fd3e 368d 413f 4515 d43e 5d7a f43e
00000040: 0747 803e 352b 203e 5cb5 5bbf 45cb b0be
00000050: 92a2 46be 6911 d13d d63a 9fbe ded1 ce3e
00000060: 5126 13be 5ae0 13bf 9bcf 163f c2bd 13bf
00000070: cef3 00bf c983 bdbe 99c2 25be f256 d9be
-0.2824728 0.4368589 0.25398058 -0.5411585 -0.5508211 -0.28001282 0.9003957 -0.60958385
-0.10989122 0.4326657 -0.33965358 0.22717078 0.49444485 0.75606096 0.41422477 0.47749606
0.2505419 0.15641482 -0.8582361 -0.34530082 -0.19397953 0.10208399 -0.31099576 0.4039449
-0.14370085 -0.5776421 0.5891053 -0.5771142 -0.50372016 -0.37014607 -0.16187514 -0.42449147

encoder.3.weight f4 [32, 1, 5, 5]
00000000: f77f fb3d 04bd 70be d5fa a1be 94ca d3bd
00000010: dbbc 02be c348 1b3e 995c a2be 68ad bcbc
00000020: e468 413e 01e3 94be 024a 7f3d 134d 9ebd
00000030: 7238 b83d 5922 f03e 5eeb 48be d529 1abe
00000040: fb66 7fbe 28b2 c1bd 997b c73e 3e0f 873d
00000050: 991d a33e 3fd7 65be 6835 0dbd ff41 b53e
00000060: 53d6 543d f41e 103e d530 f83d 2a58 0f3e
00000070: 3f1b 883e 1e0f b73e da96 973e 0335 bf3d
00000080: b8b6 363e 274b 953e 86df 6f3e fe75 983e
00000090: a61a 8e3e 30e6 b13e ce7b b93e 2fd5 833e
000000a0: 6dd4 993e b39b c23e 89e3 1b3f ba63 113f
000000b0: 3abe 893e e0fe ec3e 2cd0 f33e 1ec8 ba3e
000000c0: 36f4 ff3e 8fbd 893e 4552 d0bb 37cb 863b
000000d0: fe63 cdbd db28 7ebe a31b 51be 6675 ad3e
000000e0: e924 e13e e939 a03d 1023 7a3d a8c1 89be
000000f0: df32 633e 9cf1 183c 5d1f 3bbd fb98 c0be
00000100: fc12 d8be 9285 093f 0fde ed3e d064 293e
00000110: df43 9d3e 0f15 01be 48fa ea3e 5a93 083f
00000120: 014d 843e 3e6c fd3e a439 213e 3233 cabd
00000130: 9bdd 24be a91c 21be edb8 2ebe 726c 3e3e
00000140: 003c fb3d 3221 0bbe 8a38 073b afb9 4b3e
00000150: 472d 4b3e 07f9 ae3d 07a9 2bbe ec11 273e
00000160: c34b 9abd 652f 4cbe 009d 133e ea73 943d
00000170: dd19 a03d 7240 18be 76f0 b0bd 2e1b 2e3e
00000180: 0026 7f3d 2093 fd3d 4a72 13be 645f 703c
00000190: e22c 84bc f31f 9fbc 1b58 eebd 2068 eebe
000001a0: 3a8e e5bd 4cd2 fb3b e67b 82bc 2f96 53be
000001b0: 52ae 06bf 6e98 98be b451 dd3d 58c6 a53e
000001c0: 287d 463d ecf5 b2be 1ba8 7cbe c019 e43e
000001d0: 79ba 473f a14e eb3e 5f85 61bd 892b 2f3d
000001e0: fab5 703e 3eea e73e 2b90 e83d b407 abbe
000001f0: a4d5 81bd 300a 91bb 8ba8 093d 987f 213c
00000200: 8b50 7cbe 13fd b4be 4658 a9bd 88a4 b9be
00000210: bbe6 94bd a86a 8ebe 96da ffbe ed62 c4bd
00000220: bf4a bcbd 5b0f 32bd 121f 0cbe 5750 99be
00000230: bd2b e4bd 18b7 57bd ab2b dd3d 3c1e 05be
00000240: cf32 9cbe 2551 a7bd 5e58 2bbe 5f8c 873e
00000250: 30de 60be ac7f 85be a7d0 88bd f379 8bbd
00000260: b1be 2abd 386b ab3c fc93 803d f026 593e
00000270: a3af 893e 65d0 4d3e 6ab4 953e 474c 543e
00000280: dd1a fd3b d21d 963e 02a1 7bbd f32c 3d3e
00000290: bc0b 0a3e 1b74 83be 4c97 523d 9a0c 66be
000002a0: e4fa 713d 8e9d 31bc a57c b4bd 7ca8 d83c
000002b0: 2d9b 42be 92e2 6abb a781 c1bd abe8 053c
000002c0: adfe 073c 0e5a 68bd 88d0 f7bd 5d25 7a3d
000002d0: 851e 55be b4fa 9bbd cbb8 66be 13d3 cbbd
000002e0: 51b9 a13d 4be5 1bbd eb80 75be ebe1 acbe
000002f0: 3b00 64be 8484 1cbe 6997 983d 0462 f7bd
00000300: 2506 93be ea9c a6be 87d0 b9bd b96e 06bd
00000310: 7241 893d c560 9fbd 2334 2ebe 3fa9 ef3a
00000320: 6d44 883e 5945 373e 79ac b93e e50d f43e
00000330: 0eef cf3e 990a 8bbe d61c 71be 8b63 80bd
00000340: d781 f6ba 2930 0d3e e48c 7a3d 7c3c eb3d
00000350: 97ec b13e 0dbd e7bd 6e53 8d3e e8c5 8e3d
00000360: f5e3 6c3e 23e7 7e3e d528 23be afb3 9e3e
00000370: 2691 663e e173 2c3e 5144 cc3e 5ce6 1c3e
00000380: fe09 973e a7de 35be debd 67be 6c89 9ebe
00000390: c3f1 033b 0f65 37bd 741f 8d3d 2a54 c7bc
000003a0: 0cfc 72be 35b7 b2bd 1dd6 a0be 9b5b 1ebe
000003b0: 8e05 ec3b 2116 23be d6c0 01be 47a7 233d
000003c0: d0e4 583d 39d5 973d a7fd 7abe 3954 563d
000003d0: 6bfc 85be cabc 05bd c4ee f2bc 9b30 9fbe
000003e0: e955 c8bd 23f6 5abe 779e 58be 7081 25be
000003f0: 6336 86be 26d4 4ebe 6c91 5cbd 6225 153d
0.12280267 -0.23509604 -0.31636682 -0.10341373 -0.12767355 0.15164475 -0.3171127 -0.023031905
0.18887669 -0.2907944 0.06232644 -0.077295445 0.08995141 0.46901205 -0.19621035 -0.1505502
-0.24941628 -0.09457809 0.38961485 0.06594704 0.3185852 -0.22445391 -0.03447476 0.35401914
0.051962208 0.14074308 0.12118689 0.13998476 0.26583287 0.3575372 0.29607278 0.09336283
0.17843139 0.291589 0.23425111 0.2977752 0.27754706 0.34745932 0.36227268 0.25748584
0.3004488 0.38009414 0.60894066 0.56792796 0.26902944 0.46288204 0.4761976 0.36480802
0.49991006 0.26902434 -0.0063574635 0.0041135806 -0.100288376 -0.24820273 -0.20420699 0.3387863
0.43973473 0.078235455 0.061068594 -0.2690556 0.22187375 0.009334948 -0.045684207 -0.37616715
-0.42201984 0.5371944 0.4645848 0.16542363 0.30715844 -0.1260569 0.45894074 0.5334984
0.2584 0.49496645 0.15744644 -0.09873046 -0.16100161 -0.15733589 -0.17062731 0.18596056
0.122673035 -0.13586882 0.0020633065 0.19895051 0.1984149 0.08543592 -0.16763698 0.1631543
-0.07533982 -0.19939955 0.1441536 0.07248671 0.07817433 -0.14868334 -0.08639614 0.17002556
0.0622921 0.123815775 -0.14399067 0.01467118 -0.016134683 -0.019424414 -0.116378985 -0.46563816
-0.11208768 0.0076849815 -0.01592822 -0.20662759 -0.5260974 -0.29803795 0.10806599 0.32377887
0.048459202 -0.34953249 -0.24673502 0.44550896 0.7801891 0.45958427 -0.055058833 0.042766128
0.23506919 0.452959 0.11355623 -0.33404315 -0.06339577 -0.0044262633 0.033608 0.009857081
-0.246401 -0.3534933 -0.0826879 -0.3625834 -0.07270571 -0.27815747 -0.49971455 -0.09589181
-0.09193944 -0.043471675 -0.13683727 -0.29944107 -0.11141155 -0.052664846 0.10799345 -0.12999815
-0.30507514 -0.08169774 -0.16732928 0.26474282 -0.21959758 -0.26073968 -0.06680422 -0.06810369
-0.041685764 0.02092515 0.06278226 0.2120626 0.26891813 0.20099027 0.29239208 0.20732222
0.0077241496 0.29319626 -0.061432846 0.18474178 0.13481039 -0.2567452 0.05141382 -0.22465745
0.05907716 -0.010840787 -0.088128366 0.026447527 -0.19004507 -0.0035840613 -0.09448557 0.008173148
0.0083004655 -0.056726508 -0.12100321 0.06107079 -0.20812424 -0.07616177 -0.2253143 -0.099523686
0.078966744 -0.038060468 -0.2397496 -0.33766112 -0.22265713 -0.15284926 0.07450754 -0.12079242
-0.28715625 -0.3254159 -0.090729766 -0.032820437 0.06701936 -0.07782129 -0.17012076 0.0018284692
0.26614705 0.17897548 0.362644 0.4766685 0.40612072 -0.27156523 -0.23546156 -0.06268986
-0.0018807006 0.13787903 0.06116952 0.11486146 0.34750816 -0.113153554 0.27602714 0.06971341
0.23133834 0.24892859 -0.15933545 0.30996463 0.22516307 0.1684108 0.3989587 0.1532225
0.2949981 -0.17760716 -0.22631022 -0.3096422 0.0020133115 -0.04477411 0.06890765 -0.024332125
-0.23728961 -0.0872635 -0.31413355 -0.15464632 0.0072028106 -0.1592641 -0.12671217 0.03995445
0.052952588 0.07413716 -0.24510823 0.052326415 -0.26169142 -0.032650746 -0.029654868 -0.3109177
-0.09782011 -0.21382956 -0.211542 -0.16162658 -0.2621337 -0.20198116 -0.053849623 0.036412604

encoder.3.bias f4 [32]
00000000: 94da 0c3e f544 70be e308 393d 9219 9a3b
00000010: fcda 66bd 01b2 e0bd c42d 4ebe be19 613e
00000020: 1443 373d efba 563d ab9a 393d 1e1e 74be
00000030: ae05 413e c73b f7bd f990 d83d 0a61 3cbe
00000040: bf4a ffbd 1e5c 74be c6d0 cfbb a4eb b1bc
00000050: 6e5a a9bd d397 473e 534f 2cbe 5111 553e
00000060: 1b82 96bc 3849 ff3c d288 753d fcf8 c43d
00000070: 5118 e63b a073 f13d 9291 6cbe c24f cebd
0.13755256 -0.23463805 0.04517449 0.0047027553 -0.056361184 -0.109714516 -0.20134646 0.21982476
0.044741705 0.052424368 0.04531352 -0.23839614 0.18849823 -0.120719485 0.10574526 -0.18396392
-0.124654286 -0.23863265 -0.0063420264 -0.021718808 -0.08269201 0.1949151 -0.16827135 0.20807387
-0.018372586 0.031162843 0.059944935 0.096178025 0.0070219417 0.11789632 -0.23102406 -0.10073806

encoder.4.weight f4 [64, 32, 1, 1]
00000000: c133 013e 06fd 0dbd ab50 12be b7fd 8fbd
00000010: a817 ef3d a7b8 643e 1520 013d cb9b f6ba
00000020: 475d e9bd 75eb 853e 02d6 853d f269 20be
00000030: 501b ea3c 4690 243e e7c1 2e3e d3af 8b3d
00000040: 7529 e639 9058 fdbd c672 a43b a588 b0bd
00000050: 1ebc 783d 531f 043e 5b44 793e 5d00 a0bd
00000060: f0a5 a73c 7f87 a33c f16f 82be f3da b13d
00000070: 4c8b 35bd 9ee3 8abd 42be b2bd 488f 72bd
00000080: 3d8e 013f a6ad e9be fdca 68bd babe ac3b
00000090: d3c2 a3bd c11c d3bd 6689 2fbf 169e 8f3d
000000a0: 9e92 c73d b047 8d3e 6e11 123e 9a8c 04bf
000000b0: c910 5fbe f59e bfbe adfc 093e a365 823d
000000c0: 4bab 69be 65c8 02be 7340 423e 28be 1f3d
000000d0: af54 c13d 8a56 503e b65b 82be 6471 c03e
000000e0: 957d d13e e6e1 39be 9f13 40be 23c9 223e
000000f0: 6d97 9cbc b443 593e 28e5 92be a438 8e3e
00000100: bf90 10be 3fb0 55bd 9b4b 2abc 812a 6f3b
00000110: 62d7 c3bc 22a9 abbd 538a 3f3e 303f b7bd
00000120: afc6 603e 1732 f1bc 3905 2bbe 501d ef3c
00000130: 0ff5 133e d07c 9d3e 4174 d23d 23c9 80bd
00000140: 05e8 1abe afd4 20be a08d 3ebf 961a 5b3d
00000150: 8ef5 86bc 4951 7bbc e53e 1abe 0dcc 253e
00000160: 9732 8abe eabc 303d 8941 90be 1cf3 e2bd
00000170: 9a2e 9f3c cea5 b8bd 1ccd 4a3e 6c7f c7be
00000180: b216 f3bc 8ed1 fabc 1b8f e9bd 0034 07bd
00000190: 700e 9f3e 3a12 84bd 07e9 693e 0595 aebd
000001a0: 9377 663d 54e4 a53d f165 893d b5d6 a8bc
000001b0: 49fb 103d 2fdc 4ebe b013 dcbd 4f03 b53e
000001c0: ca28 0fbe e643 26be 1fc4 023e 048e 263e
000001d0: 613f 1bbd 8b0e f5bd 9458 fb3c 5944 073e
000001e0: 6925 75be 1d2b 46be bffc 84be 48f8 8bbe
000001f0: 0323 18bd 11c1 b8bd 231e 343e 31d7 debd
00000200: 84c6 26be 342c a8be a1db 32bd c794 38bc
00000210: 92de 15be 5e56 c9bd 0f8e 363e 7a0c 77bd
00000220: 82cf 9f3e a17b 7a3e 2f7f 09bd a931 b2bd
00000230: a4e9 0dbf f24c c3bd cb01 dfbc 5b0c bfbe
00000240: 32bf debd e467 2bbd bce3 5f3f 4a62 ed3b
00000250: bcd0 223e 6a82 dcbc dc83 22bd 503f bb3c
00000260: 0aec c73e 3669 2abd da55 d1bc 943c 3ebe
00000270: 0e2f b3bc a77b a4be afec e03d 7a57 b63b
00000280: 7805 f7bd 66da 30be 1e18 b33d 81f9 ddbd
00000290: 3655 01bd 7ebb 86bd ddfe 03be 2b2b db3d
000002a0: 8daa 0c3e 9c04 583c 3a51 723c 3838 6ebd
000002b0: 039d b33c 4633 113e f258 3f3e 35a0 9a3d
000002c0: d9c4 013e 01cd 023d a67e bbbd 4e63 4b3d
000002d0: 5d21 35be 3912 edbd ed9d 143e 0c19 da3d
000002e0: 5256 e83d ca29 1abe e850 67be c39d b43d
000002f0: d57a 06be 0eee f5bd e90b f4bc e8a2 b43d
00000300: 5892 423d 4efb ea3d e75e e23a bd88 08be
00000310: 9abf 10be 02fe 963e 5811 103e bfe7 5b3e
00000320: d7b4 89bd dcc7 273e c582 103d 4d8f 54bd
00000330: aa5c aa3c bbac e1bd d5e0 98bc fde1 ca3d
00000340: 9f8c 5cbe 1afc 27bd ea4a fbbd 7879 853e
00000350: 9a54 733d 80e5 dc3d fcd4 fb3d 51ea 52bd
00000360: 24fe 2dbd a0e9 093e a43a 583d e1a3 9abe
00000370: 64b4 ed3b 1aa9 263e cd37 29be 6dd0 0f3d
00000380: a3a4 43be f3b1 08bd 5066 06bd 30e5 00be
00000390: d786 16bd b330 ecbc 1fdf cf3d 4d27 61bd
000003a0: e6cb 523e b519 5b3d 312e 51be 6913 66be
000003b0: a055 4c3e d973 a4be dd82 6cbd 6244 d7bd
000003c0: beac 3cbd 020d d1bd 77be d5be 4113 40bf
000003d0: 6609 623e e246 a83d e8ce d4bd 5537 1fbd
000003e0: a8a7 ab3e 76bb 7bbe c167 f9bc 925e bfbe
000003f0: 0939 843d c058 47be 5aec 203e d409 413c
0.12617399 -0.03466513 -0.14288585 -0.07030814 0.11674434 0.22336064 0.031524736 -0.001881474
-0.11394744 0.26156202 0.065349594 -0.15665415 0.028577477 0.16070661 0.17066155 0.06820645
0.00043899906 -0.123704076 0.005018565 -0.08619813 0.060726278 0.12902574 0.24342482 -0.07812569
0.020464867 0.01996207 -0.2547603 0.086843394 -0.044322297 -0.06781696 -0.08727695 -0.059218675
0.50607663 -0.45640296 -0.05683421 0.00527176 -0.07996144 -0.10308219 -0.6856903 0.070125744
0.09744762 0.27593756 0.14264461 -0.5177704 -0.21783747 -0.37425962 0.13475294 0.06367042
-0.2281925 -0.12771757 0.18969898 0.038999707 0.0943998 0.20345512 -0.25460595 0.3758651
0.40916124 -0.1815258 -0.18757485 0.1589704 -0.019115174 0.21217233 -0.28690457 0.27777588
-0.14117716 -0.052170034 -0.010394002 0.003649384 -0.023906413 -0.08381869 0.1870511 -0.08947599
0.21950792 -0.02944283 -0.16701211 0.029188782 0.14448951 0.30759287 0.1027608 -0.06288364
-0.15127571 -0.15706132 -0.7443485 0.05349215 -0.016474511 -0.015339204 -0.15063055 0.1619112
-0.26991722 0.043148912 -0.28175 -0.11081526 0.019431401 -0.09016 0.19804806 -0.38964403
-0.029673908 -0.030617502 -0.11404248 -0.033008575 0.31065702 -0.06448789 0.22842799 -0.08524517
0.05626638 0.08100191 0.06708897 -0.020610193 0.035395894 -0.20201181 -0.107459426 0.35354087
-0.13980404 -0.16236839 0.12770127 0.16265112 -0.03790224 -0.119656645 0.030681886 0.13209666
-0.23940052 -0.19352384 -0.2597408 -0.2733786 -0.037142765 -0.090211995 0.17589621 -0.10880888
-0.16286665 -0.32846224 -0.043666486 -0.01126594 -0.14635685 -0.09830926 0.17827629 -0.060314633
0.31213003 0.24461223 -0.033568557 -0.08700878 -0.5543463 -0.095361605 -0.027222535 -0.37314114
-0.10876311 -0.041847125 0.8745687 0.007244383 0.15899938 -0.026917655 -0.039676532 0.022857338
0.3904727 -0.041604243 -0.025553633 -0.18577796 -0.021873023 -0.3212559 0.10982644 0.0055646272
-0.1206159 -0.17270812 0.08744834 -0.10838605 -0.031575404 -0.0657873 -0.12890191 0.10701593
0.13736935 0.013184693 0.014789874 -0.058159083 0.021925455 0.14179716 0.18686274 0.07550088
0.12672748 0.03193379 -0.09155016 0.04965525 -0.17688508 -0.11575741 0.14513369 0.106493086
0.11344589 -0.15055004 -0.22589457 0.08819153 -0.13132794 -0.12008296 -0.029790835 0.088201344
0.047502846 0.11473714 0.0017270715 -0.13333412 -0.1413559 0.29490668 0.14069116 0.21475123
-0.067239456 0.16384834 0.03528096 -0.051894475 0.020796139 -0.11019274 -0.018661896 0.09906385
-0.21538018 -0.041011907 -0.12270148 0.26069236 0.059406854 0.10785961 0.12296483 -0.051492993
-0.042478696 0.13468027 0.0527903 -0.30203155 0.0072541703 0.16275445 -0.16525193 0.03511088
-0.19105773 -0.03337283 -0.032812417 -0.12587428 -0.036749687 -0.028831815 0.10149979 -0.05496912
0.20585594 0.053491313 -0.20427777 -0.22468342 0.19954538 -0.32119635 -0.05774199 -0.1051109
-0.046063177 -0.10207559 -0.41746876 -0.7502938 0.22073898 0.08216645 -0.10391027 -0.038871128
0.3352635 -0.2458323 -0.030444982 -0.3737684 0.06456191 -0.19467449 0.15715161 0.011782128

encoder.4.bias f4 [64]
00000000: 6716 e3bc be25 1abc f2ef 04be f77e 02bd
00000010: aeaa a9bd f2d9 fcbd b42a 6abe 574d 4fbe
00000020: b307 a23e cd44 d33c a641 8f3c 8a74 203d
00000030: 317f d13d 4e7a 093d d6ed 9dbe 74ee 26be
00000040: 8c4a 83bd 8eec 31be 9061 8fbb 2e34 0e3d
00000050: f6ac 35be 85c6 1bbe 5972 9ebe 9d0d 3ebd
00000060: 5085 eabd 7dda 9e3d 211e 82be ba26 4dbc
00000070: be8a cebd dfa9 9b3d 4020 02be c587 a7bd
00000080: 41dd b2bd 2943 afbd 7dbe 8ebe b187 e03d
00000090: ae9c af3b baf7 413c b646 0abe 95aa cebd
000000a0: de5f 25bd 37c1 3dbe 7e28 bf3d 2887 363d
000000b0: 69db 343e 397e 94bd 04ef d1bd 4aaf edbd
000000c0: 212a 29be 19ba debc 67fd 37be 5cf1 093c
000000d0: 7dab c8bc 9b62 833e e8c1 043d c9c0 45be
000000e0: d75a d2bd dfe0 4cbd e79d 54be 9b12 1c3e
000000f0: fa73 debc b739 353e 942e bebd e89f 743e
-0.027720643 -0.0094084125 -0.12982157 -0.031859364 -0.08284508 -0.12346257 -0.22867852 -0.20244347
0.316465 0.025789643 0.017487358 0.03917364 0.10229338 0.033563904 -0.30845517 -0.163019
-0.06410703 -0.17375395 -0.004375644 0.03471773 -0.1774176 -0.15212448 -0.30946615 -0.0463997
-0.114512086 0.07756517 -0.25413612 -0.01252144 -0.10085057 0.0760076 -0.12707615 -0.08180193
-0.08733607 -0.08557732 -0.27879706 0.10963381 0.005359254 0.011838848 -0.13503537 -0.1009113
-0.04037463 -0.18530737 0.09333895 0.04456249 0.17661823 -0.072506376 -0.10250667 -0.11605699
-0.16519977 -0.027188348 -0.17967759 0.008419361 -0.024495834 0.25661168 0.032411486 -0.19311823
-0.102712326 -0.05001914 -0.2076336 0.15241472 -0.027154911 0.17697798 -0.09286228 0.23889124

encoder.6.weight f4 [64, 1, 5, 5]
00000000: abcd 533e edcb 1e3e 3e4e b73d 51fb 84bd
00000010: 7b24 483e ac66 0abe d65c 1f3e 9f8d f0bc
00000020: 9805 223e 817b 7d3d d356 3dbd a5e3 dd3c
00000030: 064c 89bd 5407 503e db96 a23d 572c 0f3e
00000040: fc93 b23d f504 293e 64fa febd e9b8 6d3a
00000050: 9861 873e 2e05 c0bd 8c81 c5bd 6b1f 8a3d
00000060: 94ed 973d d161 933e 6ec6 afbe 828f 1abd
00000070: 4e0c fdbe 8454 49be 8c49 86be db28 23bf
00000080: cfa6 c23c 2966 1dbd cbaf 433e bcc7 70be
00000090: d9e9 9b3e 1d69 d73e 6213 123f 7878 393e
000000a0: 67cb a1be e4f5 a6bd 2f06 f53e 8bf9 44bd
000000b0: 476d 2e3e 8558 5cbe c071 eabe e87c ac3e
000000c0: cc44 1ebe 229f 44be 2b0c b33e 0c71 4d3e
000000d0: 6b8c ebbd 24ae a3be 76dc 83be bc71 1f3e
000000e0: 4628 2c3e 84f4 d0bc 1833 d2be afc0 b7be
000000f0: 3ebb 44bd 361a e0bd 5e79 593b 21a9 363d
00000100: 43ec 97bd b23c 14be 696c 13be c2bf 90bd
00000110: e0e8 223d 69e8 f9bd f800 9dbd 9c13 05be
00000120: 776f c1bd 49ea 7bbe 676f a3bd e9b6 96bd
00000130: 1b52 30be b6a6 37bc 932d e23d 6714 f23d
00000140: 971d f33c eea8 77bd 3c64 25be a61f f1bd
00000150: dedd 9e3c 43de a2bd b595 2e3d 45fc 0c3e
00000160: e623 363e 0cb8 c5bd 6add 703e 0d0b 7e3e
00000170: cd99 a23e 4894 143e 2fb1 4a3e 4f3c 543d
00000180: 9dd2 443e c6cf 77bb 1333 7e3e e25e e6bd
00000190: 796f 14bd bcd6 a7be 766a abbe 1cf4 ebbe
000001a0: 2102 73be 44c6 77bd a333 46be 4d3e 22be
000001b0: 030c a8be 697f 96be f150 653e 062d 7c3e
000001c0: a122 3f3e cfae 7ebd 2c3e 3dbe e58d 103e
000001d0: 6e7f dc3e 440a cf3e 07fb 9c3e 1729 633c
000001e0: 5edc 7bbe 36f1 09bd af9f 6b3e 9d36 923e
000001f0: f723 f53d 4375 ccbd faec e1bd 8b22 bc3d
00000200: 2a18 87bd bfa8 0c3e 8af9 2d3d ca3e 163e
00000210: 2f1d fe3d beee 093e f2c8 27be 46a1 2abd
00000220: 8933 e9bd cf2d 0b3d e13b c13b 286e 03bd
00000230: 5dcf 223e 15a0 01bd a720 283e 687e 36be
00000240: 033e 1dbe e22c d1bd 3b85 e53d 1a82 363e
00000250: 5705 ae3d 1fd5 c3bd 4888 adbe cb98 52be
00000260: 0251 11be 3dc3 063e 34a8 8cbd f9b9 9abd
00000270: 9de8 323e c1d9 d73d 2c5a 1e3e e652 7b3d
00000280: 8004 033e e977 9cbd 9f90 173d f838 7dbd
00000290: ac25 833d e1c0 34bd f280 833c 1c62 71bd
000002a0: 8f49 bfbd e03e 41be 0d08 493e 180f ec3c
000002b0: a38a 8ebb b0e2 4bbe edef 75bd 5f59 41bc
000002c0: 1855 86be fbe6 40be c569 83be 3905 b2be
000002d0: ecea 7f3d 6776 913d 5188 7f3e fbc9 6c3e
000002e0: 69b8 2ebe a225 3e3e e3bc 563d a5b0 3d3e
000002f0: c58c 7d3e 277d b53d 0e87 813d f674 e63d
00000300: 7524 573e 5193 a73e 35a0 86bd 1e91 c2be
00000310: a3d9 44be b28d 653c 0668 fe3d e971 7bbc
00000320: ad2b 4e3e 91cb 6d3e a3b6 bb3e 7fb7 8c3e
00000330: ad4a ad3d 0a3c d23e 27f7 a23e 4ac7 363e
00000340: 36bb 0f3e 17fc 3c3d a22c ad3e d7b5 563d
00000350: 817b 3b3e 497b 8dbb d540 0e3d 0961 323d
00000360: 565f 1abd d5f6 aa3d 7a76 843d f0c4 f73d
00000370: b7c2 803d 0997 a8bd 6239 d6bd a0f0 c73d
00000380: 93f4 803e ee46 763e 612e 873e 0779 9c3d
00000390: bd1c 203e 9b8f ddbb 7e38 ff3d 939f babc
000003a0: afac 003e 3218 98bd f94a bfbd 8fa1 983e
000003b0: c6fe 2dbc bb49 36be d558 cdbd c331 60be
000003c0: 16e0 6f3e d1e7 b4bd 5061 dabd ec6f 80be
000003d0: a1fd 8fbe 67c4 54bd 9b25 4bbe 3220 6dbc
000003e0: 9605 82bd f0da edbd 7b39 54bd 0d25 2abe
000003f0: 5d56 81bd 235a 53be cf42 bc3d c534 b1bd
0.20683925 0.15507479 0.089504704 -0.06493247 0.19545166 -0.13515729 0.15562758 -0.029364405
0.15822446 0.06188536 -0.04622538 0.027086088 -0.067039534 0.20315295 0.0793893 0.13981758
0.08719632 0.16505797 -0.12450102 0.0009068386 0.26441646 -0.09375988 -0.0964385 0.06744274
0.07418361 0.28785565 -0.34331077 -0.037734516 -0.4942345 -0.19661146 -0.26227987 -0.63734215
0.023761181 -0.038427506 0.19110028 -0.23513693 0.3045185 0.42072383 0.57060826 0.18112361
-0.31600496 -0.08152369 0.4785628 -0.048089545 0.17033873 -0.21518143 -0.4578991 0.33689046
-0.15455931 -0.1920133 0.3497022 0.20062655 -0.11501392 -0.31968796 -0.25754136 0.1557073
0.16812238 -0.02550722 -0.41054606 -0.35889193 -0.04803013 -0.10942499 0.0033183913 0.044594888
-0.0741811 -0.14476278 -0.14396824 -0.07067825 0.03977287 -0.12202532 -0.076662004 -0.12995762
-0.09445088 -0.24601091 -0.07980233 -0.07359106 -0.17218821 -0.011209181 0.11043849 0.11820298
0.029677195 -0.06046384 -0.16151518 -0.117736146 0.019392904 -0.07952549 0.04262324 0.13768108
0.17787132 -0.09654245 0.23521963 0.24808903 0.31757966 0.1450969 0.19794153 0.051815327
0.19220968 -0.0037813052 0.24824171 -0.11248566 -0.03623912 -0.32781017 -0.3347966 -0.46084678
-0.23731281 -0.060491815 -0.19355635 -0.15844078 -0.32821664 -0.2939408 0.22394158 0.2462655
0.18665554 -0.06217843 -0.18480748 0.14116628 0.4306597 0.4043752 0.3066027 0.013864777
-0.24595782 -0.033677302 0.23010133 0.28557292 0.119697504 -0.099833034 -0.11031528 0.09186276
-0.06596406 0.13736247 0.042474307 0.1467239 0.1240791 0.13469979 -0.16385248 -0.04165771
-0.11386783 0.033979233 0.0058970307 -0.032087475 0.15899415 -0.031646807 0.16418706 -0.17821658
-0.15355687 -0.10213639 0.11207052 0.17823067 0.08497112 -0.09562134 -0.33893037 -0.20566098
-0.14191058 0.13160415 -0.0686802 -0.07555003 0.17471547 0.1053958 0.15464085 0.061358355
0.12794685 -0.076400585 0.037003156 -0.061821908 0.0640367 -0.044129256 0.016052697 -0.058931455
-0.09340202 -0.18871641 0.19631977 0.028815791 -0.004350023 -0.19910693 -0.060043264 -0.011801093
-0.26236796 -0.18838112 -0.25666633 -0.3476961 0.0624799 0.071026616 0.24954344 0.23123924
-0.17062534 0.18569043 0.05242623 0.18524416 0.2476073 0.088617615 0.06324588 0.11252777
0.21010001 0.3272958 -0.06573526 -0.3800134 -0.19223647 0.014010834 0.12422185 -0.0153469825
0.20133848 0.23222186 0.36662778 0.27483746 0.08461509 0.4106143 0.31829187 0.1784946
0.14036259 0.04613885 0.33823115 0.05241951 0.18308832 -0.0043176753 0.034729797 0.04354957
-0.037688576 0.08347861 0.0646791 0.1209811 0.06287139 -0.08231933 -0.10460164 0.097626925
0.25186595 0.24050495 0.26402572 0.07640272 0.15635963 -0.006761504 0.12461947 -0.022781169
0.12565874 -0.0742649 -0.09340472 0.2981076 -0.010619825 -0.17801563 -0.10026709 -0.21893983
0.23425326 -0.08833278 -0.10663092 -0.2508539 -0.2812319 -0.051945116 -0.19838564 -0.014473008
-0.06348722 -0.11614025 -0.05181263 -0.16615696 -0.063153006 -0.20639853 0.0919243 -0.08652643

encoder.6.bias f4 [64]
00000000: d943 2bbc 3c2e e2bb 2b2b cfb9 f2b8 eebd
00000010: 458b 8bbc d5a6 1d3b 51fd 3e3e 581d 923b
00000020: ea76 9b3c fe29 01bd ed46 afbc c88d 49bb
00000030: b41a 9fbd ad0e 9e3a 4ab3 63bc 7d74 f0bb
00000040: b80c 24be 86e3 cdbb f456 b4bc f8af 8bbb
00000050: cba0 4a3d e8dd e1bd 9397 903d 72be ab3d
00000060: 73b8 6d3c c279 8e3a 1cfd f53c fdb5 9e3c
00000070: a108 193b 6431 593d 0dcf 8d3d 76bb a83b
00000080: 923a efbc b8bd adbd 12ac 1cbd 80a4 70bd
00000090: 2a01 10bd 8297 303d 597d b2bd 377a 023b
000000a0: a20e 75b9 516d 84bd 1343 3cbd d7cb 673c
000000b0: 759e bb3e 7c1b 333c 59f4 7cbc 5017 0bbc
000000c0: 0737 733c 251c 223b 329b 92bb e637 a23d
000000d0: 9180 bbbd 6e0f df3c 6396 ad3c 516b 98bc
000000e0: 3ddd fa3d 0311 b6bc 0ded bbbc e89e a53d
000000f0: dde8 763b 4d3d 9abd 592b 3f3b 9656 8abd
-0.010453188 -0.006902484 -0.0003951428 -0.11656369 -0.017034182 0.0024055738 0.1865132 0.0044590645
0.018977601 -0.031534187 -0.021396125 -0.0030754674 -0.07768765 0.0012058817 -0.013897726 -0.0073381052
-0.16020477 -0.0062832264 -0.022014119 -0.0042629205 0.04946975 -0.110286534 0.070601605 0.08385934
0.014509308 0.0010870027 0.030027919 0.019373888 0.002335109 0.05302562 0.069242574 0.0051493
-0.029202733 -0.084834516 -0.038250037 -0.05875063 -0.03515736 0.04311324 -0.087153144 0.0019909272
-0.00023370472 -0.06466163 -0.045962404 0.01414772 0.3664433 0.010931846 -0.015439116 -0.008489445
0.0148446625 0.0024736014 -0.004474067 0.07920818 -0.091553815 0.027229037 0.021189874 -0.01860586
0.12249229 -0.022224909 -0.022940183 0.080869496 0.0037675418 -0.075312234 0.0029170124 -0.06754796

encoder.7.weight f4 [128, 64, 1, 1]
00000000: 3db9 01be a323 893e 4350 12be 3be2 a93c
00000010: a42c 58bd 1cdc 8abe aaa0 883c af35 d5bd
00000020: 211f 903e 06dd 90be 807c d2bd ebbd fb3d
00000030: 6c79 b23c 91cb 68be befb f23e 4659 2f3e
00000040: 329c 94bd 2024 ccbc 8dd5 a5be cd67 a33d
00000050: b7cb e73d 0a35 bfbe bbaa febe 40ca 05bf
00000060: 56a5 a53e 02a2 163e 333d 89be 8431 27bf
00000070: 01a0 6a3d dac7 74bb bd57 dc3d 5081 b03e
00000080: 8739 ee3e 2c5b 6f3d c39a 823c 0516 4a3f
00000090: 7f3c 103e 0ac1 15be c1a0 5d3e 2b29 88be
000000a0: e2d2 40be fceb e13e 7617 c73e 2e08 0b3e
000000b0: 4cd7 ef3d cc63 a23e cdba d03d ebc8 913e
000000c0: e720 20bd 0180 8fbd d027 21be 4400 eebd
000000d0: 01f7 78be c645 703e 0f17 3cbe 56ab 06bf
000000e0: 26e8 673f 78ab 37bd bf3b af3e e78b 96be
000000f0: 6f8c 133f 3091 65bd 8448 4a3e 8c41 153e
00000100: 7a1a c2bc 5fd4 94bc 4977 8cbe d512 0e3e
00000110: 6fb0 8f3d 62b2 a1bc ae06 4d3e 61fd 13bf
00000120: 0664 b53e a475 a63b ebc1 d0bd 1f67 b1be
00000130: c940 e33d a114 fdbd ff92 153f b624 0c3e
00000140: 5611 9ebd d1d0 13bd 91d1 37bd a193 ccbc
00000150: 5c2c 6e3e ecf8 483f 3efd 44bf def8 12be
00000160: c241 2b3f 7ab5 80be 4e05 b8be 7187 cabe
00000170: b57e 20bd 42af ef3e b304 c2bb 2e94 5d3e
00000180: abf0 e23e d479 3abd 57d5 89be 9c9b a03d
00000190: e2a3 193d 7925 0ebf 3ccd 9cbd 96be c1be
000001a0: ae74 873e 83aa ccbd 090b 9f3e ee2d 6e3e
000001b0: a3f4 18be 02dd 563e 5698 93bb e44d a83e
000001c0: 8de5 ddbd 46cb e73c 9492 d33d 03b4 79bf
000001d0: 8dea ac3e ac54 793f f8c5 7f3d 6d77 55bf
000001e0: f4ea c93f fcf4 8a3d 97fa 0f3f c674 4c3e
000001f0: 649d 433f f3f4 a1bd 94ab be3e 5713 313e
00000200: 884b 06be a5e5 893e 290f 493f 044b fbbd
00000210: 17dd 463e d2f0 9e3c 151f a43d b8ca a9bd
00000220: 4ff8 043d 11e3 693e 4eb1 973c 7210 b1bd
00000230: a903 cb3d 4f76 4ebe cafb e0be a821 c6bd
00000240: fccf a03e e688 f6bc bbc5 c2bd da52 64be
00000250: 20f3 27bd 5414 273f 4e91 6b3e 5b79 383f
00000260: d15d e8be ac9a b4be d8e7 223f 39ed 25be
00000270: 42bb c9bd 2aa9 4fbe ef01 983d 176c 803d
00000280: 06f9 07bf e597 973d 9445 343c 4bf4 883d
00000290: 73e6 113e 738d a03e 3290 82be f92d 07be
000002a0: 1dc2 66be 03df 403e b035 86be 0e00 e0bd
000002b0: 12fd 953d 361a a9be 1401 d2bd 3f53 72be
000002c0: fb6d a43d e918 8cbd ea3a 893d daee 563e
000002d0: ad2f 013f a6a1 1cbe 7c3f 8f3d 6417 743e
000002e0: 6401 333e e48e aa3e 71d1 3e3e 4e00 26be
000002f0: 1875 213d 958e a2bd 6588 c4be 63be 01be
00000300: d8e4 4ebd 47ff b33e ff15 07be 0dce 99be
00000310: f9a3 bfbe 0bd5 103e 6c7c 2f3e 9f6c fbbc
00000320: e2ea 8abe 3ced b23e f63d c53d 25b9 cd3c
00000330: 5b1a a5bc 069a f7bc f552 353e 3fa5 05bb
00000340: 264d a93e 5123 00bc 8b54 063e ec6f f3bd
00000350: f99c 9fbc 9d37 b63d 43ab c5bd d2aa a4be
00000360: 42a8 e5be 4924 22be 709f 20be c11b 52bd
00000370: 0310 91bd 0834 30be d344 e1bd 7c29 5b3d
00000380: 795f d0be 23ef 93be b10d 71be 892d b53e
00000390: b586 96be 8420 ae3b ee2f abbe 5fff 82be
000003a0: 5fbf 813f 9850 7bbe 33d0 52be ef5e c9bd
000003b0: e031 283e 35dc b7be 9d51 20be 3819 43bc
000003c0: 7e71 c23e f06b 2c3e 78bd 7a3b 5395 13be
000003d0: f438 3abd 4e06 713e fb08 9e3a 699a 0d3d
000003e0: 0a4e 223b 33ee 683e 6e35 edbc 9de9 333f
000003f0: 709c 923e f326 613e 26a4 283f cb6d ed3e
-0.12668319 0.26785 -0.1428843 0.020737758 -0.052776948 -0.27121055 0.016678173 -0.1041063
0.2814875 -0.28293628 -0.10277653 0.12292083 0.021786414 -0.22733904 0.4745769 0.17123899
-0.072563544 -0.02491957 -0.3238949 0.07978783 0.113181524 -0.37345153 -0.49739632 -0.52261734
0.32352704 0.14710239 -0.26804504 -0.6530993 0.057281498 -0.0037350566 0.10758922 0.34473658
0.46528265 0.058436558 0.015942937 0.7893985 0.14085577 -0.1462442 0.21643354 -0.2659391
-0.18830445 0.44125354 0.38885087 0.13577339 0.117109865 0.31716764 0.101918794 0.284736
-0.039093878 -0.07006837 -0.15737844 -0.116211444 -0.24312975 0.23464116 -0.18368171 -0.5260519
0.90588605 -0.04484126 0.3422527 -0.29403612 0.5763616 -0.056046665 0.19754225 0.14575785
-0.023694266 -0.018167673 -0.27434757 0.13874371 0.07016074 -0.01973838 0.2002208 -0.578085
0.35427874 0.005079942 -0.10193237 -0.34648988 0.11096341 -0.1235745 0.58427423 0.13685879
-0.0771815 -0.036087815 -0.044877592 -0.024972739 0.2325911 0.78504825 -0.76948917 -0.14352748
0.66897213 -0.25138456 -0.35941547 -0.3955646 -0.039183337 0.468134 -0.0059209703 0.21638557
0.4432424 -0.04552634 -0.26920578 0.0784218 0.037509806 -0.5552593 -0.07656333 -0.37840718
0.26456207 -0.0999346 0.31063107 0.23259708 -0.14937072 0.20982745 -0.004504244 0.32871926
-0.10834799 0.02829517 0.10330692 -0.975403 0.33772698 0.97394824 0.062444657 -0.83385354
1.5774827 0.06785008 0.56241745 0.1996642 0.76412034 -0.079080485 0.3724028 0.17292534
-0.1311475 0.26933017 0.7853876 -0.122701675 0.19420277 0.019401941 0.08013741 -0.08290619
0.032463368 0.22840525 0.018517163 -0.08645715 0.099128075 -0.20162319 -0.439421 -0.09674388
0.3140868 -0.030094575 -0.0951037 -0.2229723 -0.041003346 0.65265393 0.23004648 0.72060174
-0.45384076 -0.35274255 0.63635015 -0.16203775 -0.0985017 -0.20279375 0.07422244 0.062706165
-0.53114355 0.074020185 0.011002917 0.0668722 0.14248066 0.31357917 -0.25500637 -0.13201131
-0.22534986 0.18835072 -0.26212835 -0.109375104 0.0732366 -0.3302781 -0.10254112 -0.23664568
0.080287896 -0.06840689 0.0670069 0.20989552 0.5046337 -0.15296039 0.069945306 0.23837048
0.17480999 0.33312142 0.18634583 -0.16211054 0.03941831 -0.079373516 -0.3838531 -0.12670283
-0.05051121 0.351557 -0.13191985 -0.30040017 -0.3742979 0.1414377 0.17137307 -0.030691443
-0.27132326 0.3494662 0.09630959 0.025112698 -0.020154169 -0.030224811 0.17707427 -0.0020392684
0.33066672 -0.00782092 0.13118188 -0.11886582 -0.01948403 0.08897326 -0.09651806 -0.32161576
-0.44854933 -0.15834154 -0.1568582 -0.051296 -0.07083132 -0.17207348 -0.10999455 0.05350636
-0.4069784 -0.28893384 -0.23540379 0.35386303 -0.29399648 0.0053139348 -0.33435005 -0.25585458
1.0136527 -0.24542463 -0.20587234 -0.0983256 0.16425276 -0.35910192 -0.15656133 -0.011907868
0.37977213 0.1683805 0.0038259905 -0.14412431 -0.04546447 0.23537561 0.001205712 0.034571085
0.0024765753 0.22747116 -0.028956141 0.7027834 0.28634977 0.21987514 0.6587547 0.46372828

encoder.7.bias f4 [128]
00000000: 952f b7be 6aad bcbe 658d 483e fd50 143e
00000010: b4bc 9b3c 4ce7 d3bc 8f75 53be d4bb ab3c
00000020: b2ba 84be 5895 923d ae3e 67bd 3708 bfbd
00000030: 8533 b1bc 4679 383d 3eae 9fbe d06e 373e
00000040: d5b1 d5bd c918 eabd 2618 203e 5171 9bbb
00000050: 549c 3cbe 5898 b6bc 42eb e6be 7f57 b73d
00000060: 575e 70be ed3e b2be 4d07 293b 9e8b 14bd
00000070: 9705 22be 6095 2239 f1f3 33bd 3c5b a7bc
00000080: 818c 34bd 2225 88be 72f8 f33d 734d 9d3c
00000090: 305d 813e f1e0 f33d 1493 a7bd f6fd ba3d
000000a0: 4b9e 94be 5c05 50bd 25d4 3b3e 4394 903e
000000b0: 858d f83d 5190 e4bd 5629 36bd c7ab 0bbe
000000c0: 18ef 09bf 6c48 663f 6b31 653d 4e61 cabc
000000d0: 3495 6cbe ae2a 8dbd 3fe6 4bbe 1644 d63c
000000e0: 0642 053e f71f 073c 4646 b93a 1031 abbd
000000f0: 6f47 763c 27d6 ed3c 2487 c4bd 83cc a5bd
00000100: 80da 5bbd 615d 87be 061c bf3d 486a 33be
00000110: 437c aebe 621d 03bc 988f c23b e62d 853e
00000120: b694 4dbe 549f 20be 5e5c 8f3d cbb8 91bd
00000130: 0d99 efbd d219 acbd 3f77 73be bbcf 00be
00000140: 075c 1ebe a1b9 74be 613d b63d 4f8f d13c
00000150: cad0 9cbc f128 e8bd ad92 3fbe 41ee 15be
00000160: 3189 92be 91c6 2dbe 0a2a 14be 7a08 73bd
00000170: b86e 54be 5c50 9c3d 8bec e0bd 2f6d bdbd
00000180: f751 0b3e 5720 56bd 6d9f d9bd 26a4 e33d
00000190: 2b50 54be 7f9e 19be 3b02 a7bd 6a0b 043d
000001a0: cca9 a6bd 6653 c4bd 5108 8cbe 7348 0dbd
000001b0: 4823 303d f1b5 713d 48c4 483e 2420 393e
000001c0: d30d 9b3d 171c ad3e 7988 12bd 1977 34be
000001d0: 5c3a 72bd f9c9 2f3e d7b3 c8bd 1b11 6e3e
000001e0: b76b 54be 86f1 813d 43ae 98be 7f38 a93c
000001f0: 1316 253f b37a bb3d 8128 b6be d822 a4be
-0.3577849 -0.36851054 0.19585188 0.1448402 0.01901088 -0.025867127 -0.20650314 0.020963587
-0.25923687 0.07157391 -0.05645626 -0.09327739 -0.021631012 0.04503753 -0.31187624 0.17913365
-0.104343094 -0.11430509 0.15634212 -0.004743733 -0.1841901 -0.02228944 -0.45101362 0.089522354
-0.23473488 -0.34813634 0.0025791705 -0.03626596 -0.15822445 0.0001550517 -0.043933813 -0.020429246
-0.044079307 -0.2659083 0.119126216 0.01920197 0.2526641 0.119081385 -0.0818235 0.091304705
-0.29027018 -0.05078636 0.18342645 0.28238115 0.12136368 -0.11160339 -0.044473015 -0.13639747
-0.53880453 0.89954257 0.05595533 -0.024704602 -0.23103791 -0.06892906 -0.1991205 0.026155513
0.13013467 0.008247367 0.0014135323 -0.08358967 0.0150316795 0.02903278 -0.095960885 -0.08095648
-0.053675175 -0.2643843 0.09331517 -0.17521012 -0.3407918 -0.008002611 0.005937528 0.2601158
-0.2007626 -0.15685779 0.070000395 -0.071153246 -0.11699114 -0.08403362 -0.23775958 -0.12579243
-0.15464793 -0.23898937 0.08898426 0.02558103 -0.019142527 -0.11335934 -0.18708296 -0.14641668
-0.28620294 -0.16970278 -0.14469162 -0.059334256 -0.20745361 0.07632515 -0.10982617 -0.09249341
0.13605486 -0.052276935 -0.10626111 0.11115293 -0.20733707 -0.15001868 -0.08154722 0.032237448
-0.08137855 -0.095862195 -0.27350095 -0.03449292 0.043002397 0.059011403 0.19606125 0.18078667
0.07570996 0.33810493 -0.03577468 -0.17623557 -0.059137687 0.1716689 -0.09799927 0.23248713
-0.20744215 0.06344895 -0.2982045 0.020656822 0.6448681 0.091542624 -0.35577777 -0.32057834

encoder.9.weight f4 [128, 1, 5, 5]
00000000: c3c5 643d e8cb 8fbd 57a8 26be 5655 9a3d
00000010: 6257 19be e42a 93bd 1066 523d 937f 41be
00000020: 51e5 5cbd 9224 843e 857c 9abd 75b8 10be
00000030: 7ca4 25be 6bfc 483e cb3e 973e 2729 8e3d
00000040: cf93 18be c6f5 28bf 0087 4dbe b8ee a23e
00000050: 910a 3d3e 4651 133e 7292 c03e 402b 073f
00000060: 0a4b 763e 440a fbbd 20c2 d03e 8db5 b33e
00000070: 520c 9c3d ea24 5dbd a212 f13e 70f4 443f
00000080: 71bb bc3d 133b aabd c6a3 3abd 243e e93e
00000090: 1522 e23d bbba e7bd d2fa 98be d27c 993e
000000a0: ca1d 173d fbb9 7dbe e21f 933d 360a 9d3e
000000b0: db20 043f 3003 c4bd 45c5 82be d060 5e3d
000000c0: 9683 083f 134b 3d3f 4e22 f63e 4d4a f73d
000000d0: b004 213c 810b 32bd 5218 d9bd e7c7 d33d
000000e0: a14f 20be 1133 4fbe 559e b33e f236 30be
000000f0: cf6f 9abd 08e3 b03e 69c8 13bd 41fb 5bbe
00000100: 583e 31be c3fb 07bc 7641 e13e 91a0 103e
00000110: 09e5 e2be 8127 72be 2ef4 ac3d f723 91bd
00000120: c7bd c2bd 7beb 01be 9a12 3a3d 039d 2abd
00000130: 199a b33e fa71 343f 7942 a03e 5d1f ee3d
00000140: 469c 323e 6114 883e a9f2 af3e 8cbb 203e
00000150: b109 093e d8ef 8e3e 3bb1 793e a660 883e
00000160: 4779 213e 29a6 003e a831 383e 1775 cd3d
00000170: 9385 1e3e a706 c4be f0ee c4be 26dc 173b
00000180: f77d fdbd 99bb 8abe b32e 2cbf 14de 1bbf
00000190: 3382 c13a c59d 213d 5fd7 663e 4185 90bd
000001a0: c119 a0bc a9b2 09bd fa4c 573c ae3b 2d3e
000001b0: d39a e23d 2fbb 83be 5679 053e 0cd0 91bd
000001c0: 34f0 efbe 2ec7 1dbe d42c e8bd 4aa5 183f
000001d0: 4922 a23e c782 a8be 3818 f7be b3cd e93d
000001e0: 3185 28be 213b 023f c663 fd3e 73e4 713d
000001f0: 2442 053e 0fb7 683e 4a6e 8c3d f817 c8bd
00000200: a399 0dbe dbf2 bfbd 8c2e e0bc d2cc 813e
00000210: 6b98 acbd ef0e ce3c 7a2d b53d cb81 45be
00000220: 12e3 843d dc77 70be 0652 c1bc 188c 0a3e
00000230: fe24 37be a9a6 98bd bb33 d3bd 7e3f 95be
00000240: 4422 f2bd 6f6b 163d c72b df3d c0ec 03be
00000250: 0d9a 03be 539c 623e 1f83 653d b9bd 443e
00000260: 22d4 173e d916 0a3d 1667 c33e 03ff 09be
00000270: debd 8e3d b90d cb3d e6ed 3c3e 97a3 dc3e
00000280: bdd4 a3be 9d42 88be b640 8cbe 3820 2abe
00000290: a62b 833e 4add b1be 41f3 20bf 1639 03bf
000002a0: a0b8 e4be 55fd 523e 9e0a 91bc fdee 40be
000002b0: b09a bebe be1c abbe 937f 943d 76b1 4abc
000002c0: ccc3 0c3d 3e70 12bc a9f9 38be 7cee 123d
000002d0: c105 51bd cd9e fb3c c5a7 d63d c574 b8bd
000002e0: 6e1f 70bd 385d 1b3d 08a1 b2bd 597e 343e
000002f0: 2ab4 923e ee28 463e f72a 8c3e f7cd 87bd
00000300: decb e0bd ea4c 873c a755 08be bd22 4c3d
00000310: 4fdd 38bd f56e c6bd 2bcb 1fbd 52ac dbbd
00000320: 8981 2e3f 7cd8 5d3e b645 39be 87e9 d5be
00000330: 2bce 8abd 5a05 8e3e 8e54 aebe b2ab 03bf
00000340: 0176 2ebf a8b8 8ebd 4596 87be 72d9 2fbf
00000350: 0a6e 0bbf b955 fbbd 854a af3e f860 c4be
00000360: fae7 10bf 43e7 71be 5267 cc3e 6ac3 213f
00000370: bf76 61be 33e4 a2bc 09d3 063e 8e9e 163f
00000380: e844 c63d fe58 20be b42c 1fbe 9fcb f23d
00000390: 4228 413e 3261 2cbd cdeb dcbd 9cbc ee3d
000003a0: f407 69bd e367 41bd 5f32 12be a491 963e
000003b0: 88f6 38be 3ae1 e2be 6882 68be 806d 443d
000003c0: f761 003e fa4f a23d 0bdc b73c 2de9 a03e
000003d0: 8f4b 543e 331b 813e 428c 96be cd0b 11be
000003e0: 0102 da3e cdbf 5cbe 84b7 ebbd be41 9d3e
000003f0: acfe 943e 4314 b83e 4696 09be e75b ccbd
0.055852663 -0.07021314 -0.16275154 0.07535808 -0.1497474 -0.07185915 0.051366866 -0.18896322
-0.05392963 0.2580915 -0.075432815 -0.14132865 -0.16176027 0.1962754 0.29540095 0.06941443
-0.14900135 -0.6600002 -0.2007103 0.31822753 0.18461062 0.14386472 0.3761173 0.5280037
0.24052063 -0.122578174 0.40773106 0.3509945 0.076195374 -0.053990282 0.47084528 0.7693548
0.09215439 -0.08312049 -0.045566343 0.45555222 0.11041657 -0.11314913 -0.2987886 0.29978043
0.036893643 -0.24777977 0.071838155 0.30671853 0.51612633 -0.095709205 -0.2554113 0.054291546
0.53325784 0.7394268 0.48073047 0.120747186 0.009827778 -0.043468002 -0.10600342 0.10340863
-0.15655376 -0.20234324 0.35081735 -0.1720846 -0.07540857 0.3454821 -0.036079798 -0.21482565
-0.17308939 -0.008299771 0.43995255 0.14123751 -0.44315365 -0.23647882 0.08445011 -0.07086938
-0.095088534 -0.12687485 0.045427896 -0.041653644 0.35078505 0.70486414 0.31300715 0.11627076
0.17442426 0.26578048 0.34364823 0.15696543 0.13382603 0.2791736 0.24384014 0.26636237
0.1576892 0.12563385 0.17987692 0.10032099 0.15480642 -0.38286325 -0.38463545 0.002317199
-0.123775415 -0.2709625 -0.6725876 -0.6088574 0.0014763534 0.0394571 0.22543095 -0.07056666
-0.01954353 -0.03361765 0.013140911 0.16917297 0.110646866 -0.25728747 0.13034567 -0.0711976
-0.46862948 -0.15408012 -0.11336675 0.5962721 0.31666782 -0.32912275 -0.48260665 0.11416187
-0.16457058 0.50871474 0.49490184 0.059055757 0.13013512 0.22726081 0.068569735 -0.09770197
-0.13828139 -0.09372493 -0.027365945 0.25351578 -0.08427509 0.025153605 0.088465646 -0.19287793
0.06488623 -0.23483223 -0.023598682 0.13530004 -0.17885205 -0.07453663 -0.10312601 -0.29150003
-0.11822942 0.03672355 0.10897022 -0.12883282 -0.12851734 0.22129945 0.05603325 0.19212998
0.14827016 0.033713195 0.38164586 -0.13476186 0.06969808 0.09914727 0.18450126 0.4309356
-0.31998244 -0.26613322 -0.2739312 -0.16613853 0.2561924 -0.34739143 -0.62871176 -0.5125898
-0.44672108 0.20604451 -0.017705258 -0.18841167 -0.37227392 -0.33420366 0.07250895 -0.012371412
0.034366414 -0.008937893 -0.18063988 0.035871968 -0.051030878 0.03071537 0.10481218 -0.09006647
-0.058623724 0.037930697 -0.087221205 0.17626323 0.2865308 0.19351551 0.2737653 -0.066310816
-0.109763846 0.016516168 -0.13313924 0.049837817 -0.04513293 -0.09689132 -0.039012115 -0.10726227
0.68166405 0.21664613 -0.18092999 -0.4177973 -0.06777605 0.27738458 -0.34048885 -0.5143386
-0.6814881 -0.06968814 -0.26481834 -0.6869117 -0.5446478 -0.1227221 0.3423654 -0.3835523
-0.5660397 -0.23623376 0.39922577 0.63188803 -0.22017954 -0.019884204 0.13166441 0.58835685
0.096811116 -0.15658948 -0.15544397 0.11855244 0.18863013 -0.04208488 -0.10787163 0.11657068
-0.05689235 -0.047218215 -0.14277028 0.2940799 -0.18062794 -0.4431246 -0.22705996 0.04795599
0.1253737 0.079254106 0.022443792 0.314279 0.20731948 0.25216064 -0.29403883 -0.14164658
0.42579654 -0.21557541 -0.11509612 0.3071422 0.2910055 0.35952958 -0.13436231 -0.099784665

encoder.9.bias f4 [128]
00000000: d795 e53c ca8e 48be a644 1d3d 3b2b 61bc
00000010: e505 cb3c 258d 31bd 2cf6 94bd 3c3c 5abc
00000020: 4f3c f73c fd23 46bc 3112 86bc 598c 40bd
00000030: d365 a436 1188 01bd f043 aebc 1d7a adbd
00000040: e31d 43bc 2242 9dbd 27e7 83bc 5269 2a3b
00000050: 1c7b b73c 6c05 333d 55d8 593d d2c5 86bd
00000060: 56ee e13d 48e2 65bd f648 8c3d 9287 613c
00000070: b623 3e3c c0bd 2fbc 87ba 8c3d 1f55 5a3d
00000080: 8baf 8a3c ecdb 15bb b97f 0a3c 33c1 293d
00000090: 0c42 a33d a28c 733c 4dce 7cbd d0ec bf3d
000000a0: d557 ff3c f8e2 063e 3466 bcbc d99d 8e3e
000000b0: ff21 edbd 90a8 743c 2d8b 263d 1ef9 cc3b
000000c0: 2d1c 5536 f7ac 87bd 6d19 fd3d 1dc6 023d
000000d0: 6da6 883c 32d9 993d d35f 5abd 9a3e afbd
000000e0: d731 16be 822a cf3d a39d 113d 0802 013c
000000f0: 7d4f 3abd ceaa 0dbc 6ef5 82bc 7d45 173b
00000100: 8c0f d1bb 1885 fe3c 8bba 993d 64e2 4ebd
00000110: 8132 81ba 6f12 a03c 181f 84bc b7bb 213e
00000120: b1f3 4cbc 0c55 fd3b 58de 0abe 850d 9c3c
00000130: db19 fd3c 4f90 eb3c 6ea6 e53c a36e 423e
00000140: 4000 8c3c 6153 1f3d cbfc 76be a55e ce3a
00000150: 0b2c 1b3d c5df 8abc b8d9 3ebc 08a1 a2bc
00000160: eebb 1c3d 411b b1bd 18bd 593c 8aec 9c3d
00000170: f801 53bc 9467 c53c 9c24 f13d eabf 6d3d
00000180: 5f43 cb3c f563 32bc e6ea 02bd e762 c9bc
00000190: e4a8 d93c 1c79 4abc c0c5 37bd 4d79 be3c
000001a0: c61f 0a3c 9a2d 763a 4d91 743d c2f5 02bd
000001b0: 90da 023e dc57 133d 8139 813c 40a9 ccbc
000001c0: 7144 a2bd b9f2 253e 2f59 0a3d 68f0 553e
000001d0: 049a a43c 43be 86bd 4ef2 bd3c 8d43 54bd
000001e0: 074f 2bbd 0ad5 bbbb 71b9 ad3d 0c03 07bd
000001f0: 3dcc cd3c f9db a4bc 909c c4bd 762e c2bb
0.02802555 -0.1958572 0.038395546 -0.013743217 0.024783084 -0.043347497 -0.07273516 -0.013320025
0.030180125 -0.012093541 -0.016366096 -0.047008846 4.8994348e-06 -0.031623904 -0.02127263 -0.08470557
-0.011908981 -0.076786295 -0.016101433 0.0026002717 0.02239757 0.043706343 0.053184826 -0.065807
0.11031787 -0.056124 0.06849854 0.013765233 0.011605194 -0.010726392 0.06871515 0.053303834
0.016929409 -0.002286668 0.008453303 0.041444015 0.07971582 0.014865072 -0.06172018 0.0937134
0.031169811 0.13172519 -0.022997953 0.27854803 -0.1157875 0.014932767 0.040660072 0.006255283
3.1755874e-06 -0.06624787 0.12358365 0.031927217 0.01668092 0.0751213 -0.05331404 -0.08556862
-0.1466745 0.101155296 0.035550725 0.007874019 -0.045485962 -0.00864668 -0.01598617 0.002308219
-0.006380027 0.031069323 0.075062834 -0.05050887 -0.000985697 0.01954004 -0.016128108 0.15794264
-0.012509272 0.0077310856 -0.1356138 0.019049415 0.030896118 0.028755335 0.028033461 0.18987517
0.017089963 0.038897876 -0.2411987 0.0015744759 0.0378838 -0.016952405 -0.011648588 -0.019852176
0.03826516 -0.086477764 0.013289712 0.07662304 -0.012878887 0.024097241 0.11774561 0.05804435
0.024812398 -0.010888089 -0.031962298 -0.024583293 0.026569791 -0.012357976 -0.044866323 0.0232512
0.008430427 0.00093909504 0.059708882 -0.031972654 0.12778687 0.03597246 0.01577449 -0.024983048
-0.079232104 0.16205873 0.03377646 0.20892489 0.020092972 -0.06579258 0.023186829 -0.051822234
-0.041823413 -0.0057321833 0.08482636 -0.03296189 0.025121802 -0.020124422 -0.096001744 -0.0059259487

encoder.10.weight f4 [128, 128, 1, 1]
00000000: b549 80be 5c95 37bf 6774 2a3e 5937 6abe
00000010: f125 b83d 4d2c b43e c88a 493d 93d6 803d
00000020: 503b 91be fdbd 1b3e 90c9 71be 849f b03e
00000030: 1d07 8bbb d95d cc3d 4c09 733e 5f06 68be
00000040: bdfb 8ebe 6175 403f dc4e 323e 0bcd 39be
00000050: 5a45 663e 7733 7ebe d064 7fbd d4ab 20bf
00000060: 50eb ed3e e120 143e 1a77 d4be 70c7 9c3e
00000070: 8427 59be 2ab8 e9be e10d 783c 90ab a53e
00000080: fa4a 803e 3dc9 acbd a8c6 c4be 87d7 833d
00000090: 7caf d93d 0572 2dbd 3059 0b3e a7be a53e
000000a0: 4f17 cfbd 3996 563e a8e1 71be deea 4d3e
000000b0: 1e51 e0bd 0d06 10be ef99 d43e 064f af3d
000000c0: 8409 b1be 3b1a b83d ac67 1fbd 9661 d6be
000000d0: 83c8 93be e53f 34bd 7717 6e3e 8790 dabb
000000e0: e77b 41be 4b15 dc3d 2701 05bd 509b 813e
000000f0: ae88 25be 5646 963d bb5b a73e 0e6f 1b3d
00000100: 2a0f babd 89f8 bcbd 621d 36bf d8ef 90bd
00000110: a6a4 52be f2db a73b e69c bf3b a62a 0dbe
00000120: f480 683d a997 53bd 9ba1 82bd a51c 8a3d
00000130: 0a93 143e ec00 ddbd 963b c2bd 7425 923f
00000140: 4ebc 84bd cbb0 a83d e008 193e ff8b ba3d
00000150: a4ea 17bf 7ab3 423d 79fa d93e 42e2 a33c
00000160: a7b6 a8bd 3449 e9bd a4d2 cb3d 98d2 2c3e
00000170: f240 9a3e 41e8 f63d fc4c 5fbf f9f9 983e
00000180: e2f6 d93e 76a4 053d e135 823b 4b74 a63e
00000190: f955 22be a850 96be bbd8 563d 3489 18be
000001a0: 6334 2f3d 7b03 843d 2cea 11be ad24 013e
000001b0: e3b2 2c3e b176 b4bd 9c47 03bf f26c 453e
000001c0: e4b9 63bc ac8a b63d 807d 6c3e 70e5 84bf
000001d0: cce2 2c3f c692 b53d f7b4 52bf ba62 d53e
000001e0: 3af8 56be ce5f f23b db1d 373e 6198 13bf
000001f0: 85a6 0cbd 057f a33e d80f bcbd b44a 75bd
00000200: 4671 01bf 45f4 6fbc 326b 8d3e 560d ca3e
00000210: 5b0d 3a3e 431a fe3c bc85 783e 4121 b5bc
00000220: b1b9 5a3f e07a 553d 163b 923e 7838 8a3d
00000230: 37b7 873e d032 ebbe 2308 dcbe 755e 32bd
00000240: 0786 55be caac 37be f54e 99bb 7016 063f
00000250: f40f 4cbc 5299 0abe 9b4c 83be dbaf 97be
00000260: 9354 a7ba 9487 e13d 0b10 e63e a37e 49be
00000270: 32c8 4dbe 1a1c b03e 3ab0 b33e ccd6 1abe
00000280: 663c 483c 85f3 293d f06e 933d bb73 cc3d
00000290: 75f0 55bd 2bc9 38be 63cc 023c 132e 2b3d
000002a0: d98a 02be ace2 47be 63d1 503e 497f 87be
000002b0: 11c4 293e 8e94 b83e 4938 19bd f353 493e
000002c0: fe57 a1be 1904 21bd 7f91 9ebe f9ac 743e
000002d0: cb19 57bd c8ef 91bd 4fa2 13bd d1c2 f03e
000002e0: 559a 8bbc 9e8c a7be 7747 90be 8916 e5bb
000002f0: 5b0b 54be 99fe 55be b0be 62be 42e2 823d
00000300: e0e7 79be effb 0a3f 7342 82bd e141 9cbd
00000310: 9314 69bf 012f 0d3f 9e85 36be c3cf 24be
00000320: c1d3 813c ed19 91be 9c57 14bf ac1d 8cbd
00000330: 2352 193d cf04 ab3d 7ff8 213e e6ea d43d
00000340: 043f d5bc e576 61bb 25e3 13bd 9281 253e
00000350: 000a 04be 7710 acbc a113 b33d 048d 8c3d
00000360: 4981 74be 2596 e9bd 4d0f 5f3e 814c a23d
00000370: 097f d63e b6fa e0bc 5976 ae3d 0d09 06bf
00000380: 2cd6 fa3c e0a7 a2bd c495 1f3f f708 ea3e
00000390: c5ed bdbe 0e8a 31be 4f15 90bd aab7 583e
000003a0: 343a 283e 8cb8 9c3d 2e1b 0dbf 0c51 28be
000003b0: 2780 173e 7ac8 5c3e b194 7ebe 127e 303e
000003c0: 9525 963e 2df4 953d 1378 2ebe 3f36 a7be
000003d0: ef6f 083e 7383 8dbd f5b0 8fbe f7be 2b3d
000003e0: 0740 2a3e b7a8 3bbe 95ae fabd 76de 883d
000003f0: ec91 1b3e 9219 903e 2b12 6cbe 47f9 9e3e
-0.25056234 -0.7171228 0.16645966 -0.22872676 0.08991612 0.3519005 0.049204618 0.06290927
-0.28365564 0.15209194 -0.23612046 0.344967 -0.0042427913 0.099788375 0.23734015 -0.2265868
-0.27926436 0.75179106 0.17412895 -0.18144624 0.22487393 -0.2482432 -0.062352 -0.6276219
0.46468592 0.14465667 -0.41497117 0.3062091 -0.2120648 -0.4564832 0.015140028 0.32357454
0.25057203 -0.08436821 -0.38432813 0.06437593 0.10629174 -0.042345066 0.13608241 0.3237202
-0.10111868 0.20955743 -0.23621237 0.20109126 -0.10952972 -0.14064808 0.41523692 0.085599944
-0.34577572 0.08989378 -0.03891723 -0.41871327 -0.28863916 -0.044006247 0.23251139 -0.006670061
-0.18894921 0.10746249 -0.032471802 0.25313807 -0.1616542 0.07337634 0.32687172 0.037947707
-0.090849236 -0.09227092 -0.71138585 -0.070769966 -0.20570621 0.005122655 0.005847561 -0.137858
0.056763604 -0.051658306 -0.0637848 0.06743745 0.14509216 -0.107911915 -0.09484021 1.141768
-0.06481229 0.082368456 0.14944792 0.091087334 -0.5934241 0.047534443 0.42573908 0.02000535
-0.08237963 -0.113909155 0.09952286 0.1687721 0.30127674 0.12056018 -0.87226844 0.29878214
0.4257117 0.032627545 0.003973708 0.325106 -0.15853108 -0.2935841 0.052452784 -0.14896089
0.04277457 0.06445976 -0.14249486 0.12611647 0.16865115 -0.08811701 -0.5128114 0.1927984
-0.0138993 0.08913168 0.2309475 -1.0382519 0.67533565 0.088658854 -0.8230738 0.41676885
-0.20993128 0.0073966747 0.17882483 -0.57654387 -0.034338493 0.31932846 -0.091827095 -0.059885696
-0.50563467 -0.014645641 0.27620846 0.394633 0.18169157 0.031018382 0.24269766 -0.022110583
0.8543959 0.052119136 0.28560704 0.06749052 0.2650697 -0.45937204 -0.42974958 -0.043547112
-0.20851909 -0.17937008 -0.004678602 0.52377987 -0.012454975 -0.1353505 -0.25644383 -0.29626355
-0.0012766294 0.110121876 0.44934115 -0.19677214 -0.200959 0.3439644 0.35095388 -0.15121001
0.012221431 0.041492004 0.07198894 0.09983011 -0.05223127 -0.1804549 0.0079833 0.041791987
-0.12748279 -0.19520062 0.20392375 -0.26464298 0.165787 0.36050838 -0.037407193 0.1966093
-0.31512445 -0.03931055 -0.3097038 0.23894109 -0.052514832 -0.07125813 -0.03604346 0.47023633
-0.017041365 -0.3272447 -0.28179523 -0.006991212 -0.20707457 -0.20897903 -0.22143054 0.063908115
-0.2440486 0.5429067 -0.063603304 -0.07629753 -0.9104702 0.5514985 -0.17824408 -0.1609488
0.015848042 -0.28340092 -0.5794618 -0.06841597 0.037431847 0.083505265 0.1581745 0.10396366
-0.026031025 -0.0034403142 -0.036105294 0.16162708 -0.1289444 -0.021003945 0.08743978 0.06862834
-0.23877443 -0.11405591 0.2178318 0.07924748 0.41893795 -0.027463298 0.08518667 -0.5235756
0.030619703 -0.07942176 0.623379 0.45709965 -0.37095466 -0.1733782 -0.07035314 0.21163812
0.16428453 0.07652387 -0.551196 -0.16437167 0.1479498 0.2156085 -0.24861409 0.17235592
0.29325548 0.073219635 -0.17037992 -0.32658574 0.1332395 -0.069098376 -0.28064695 0.041930165
0.16625987 -0.18326078 -0.1224033 0.06683056 0.15192384 0.2814451 -0.23053806 0.3104956
