src/anomaly_detection/model_checkpoints/cookie/ae_model.pt (torch, 291749 bytes, 32 tensors)

encoder.0.weight f4 [1, 1, 5, 5]
0	0x3c9848de	0.018589433
1	0x3c129174	0.008945812
2	0x3abdd924	0.0014484269
3	0x3bb47e0c	0.00550819
4	0x39c21ec6	0.00037025491
5	0x3c132537	0.008981041
6	0xbc5b7b8b	-0.013396154
7	0xbc0ba379	-0.008522862
8	0x3c2ff98e	0.010740651
9	0x3b5e1497	0.0033886784
10	0xbe7787eb	-0.24172942
11	0xbe87e652	-0.26542908
12	0xbdd2c991	-0.10292352
13	0xbb970909	-0.0046092314
14	0x3b879b63	0.0041383966
15	0xbe9bf670	-0.30461454
16	0xbef5585a	-0.4791897
17	0xbed05940	-0.40693092
18	0xbca95765	-0.020671556
19	0x3bf39abc	0.0074342173
20	0xbddc029a	-0.10742684
21	0xbec5901d	-0.38586512
22	0xbe901d60	-0.2814741
23	0xbb395c19	-0.0028283654
24	0x3c2fc7d2	0.010728793

encoder.1.weight f4 [32, 1, 1, 1]
0	0xbdaa5730	-0.08317411
1	0xbf0b0953	-0.543111
2	0x3dadd50f	0.08487903
3	0x3f4316ae	0.7620648
4	0xbf165d1c	-0.58735824
5	0xbf310d34	-0.6916077
6	0xbedd5d53	-0.43235263
7	0x3e7d8686	0.24758348
8	0xbf42b324	-0.76054597
9	0x3e819471	0.25308564
10	0xbf06556c	-0.52474093
11	0x3f53c1b5	0.8271745
12	0xbf1b7b48	-0.6073499
13	0xbf1c7033	-0.611087
14	0xbeee736e	-0.4657244
15	0xbf5f7ce3	-0.87299937
16	0xbf8688de	-1.0510519
17	0xbf5ad096	-0.85474527
18	0xbf0edeff	-0.55809015
19	0x3f0a4b09	0.54020745
20	0x3e318dfb	0.17339318
21	0xbed43821	-0.41449073
22	0xbce35b80	-0.027753592
23	0x3f078dc5	0.529507
24	0x3e20354b	0.1564533
25	0xbedd1ca7	-0.43185923
26	0xbe7c8fac	-0.24664181
27	0x3b447400	0.0029976368
28	0xbf29b131	-0.66286
29	0x3d6c834e	0.05774241
30	0xbf3ed9f7	-0.7455134
31	0xbf4c82a2	-0.7988683

encoder.1.bias f4 [32]
0	0xbf20dd98	-0.62838125
1	0xbf6bf4ab	-0.9217021
2	0x3f62ab28	0.88542414
3	0x3f341146	0.7033886
4	0xbf4212f5	-0.75810176
5	0xbf18b393	-0.5964901
6	0xbec8b385	-0.39199463
7	0x3da210de	0.079133734
8	0xbecad7b3	-0.3961769
9	0x3e900159	0.28126028
10	0xbdee7454	-0.116432816
11	0x3e9fcccc	0.31210935
12	0xbebd5e19	-0.36985853
13	0xbf5afb79	-0.85539967
14	0xbeaa73ca	-0.33291465
15	0xbf300588	-0.6875844
16	0xbf47063b	-0.7774388
17	0xbf083d9b	-0.53219
18	0xbedf23d3	-0.4358202
19	0xbd6b163a	-0.057394244
20	0x3e4ad4ee	0.19807789
21	0xbf5d8495	-0.8653043
22	0xbe885948	-0.26630616
23	0xbe1714eb	-0.14754073
24	0xbf74cc45	-0.9562419
25	0xbe3b9e9d	-0.18322225
26	0xbd2e1f9b	-0.04251061
27	0xbece518c	-0.4029659
28	0xbeadb508	-0.33927178
29	0x3e08bb3e	0.13352677
30	0xbf20e032	-0.62842095
31	0xbf3b1cc8	-0.7309079

encoder.3.weight f4 [32, 1, 5, 5]
0	0xbe0eb8e7	-0.13937722
1	0xbd78fd07	-0.06078818
2	0x3d7a18fa	0.061058976
3	0xbd754dad	-0.05988853
4	0xbe052b3b	-0.13004772
5	0xbe262867	-0.1622635
6	0x3c1d23cd	0.009591055
7	0xbceff5e7	-0.02929206
8	0xbdca9efd	-0.09893606
9	0x3e07937a	0.13239852
10	0xbd706847	-0.058693197
11	0xbdd7f117	-0.10544031
12	0x3e06d81d	0.13168378
13	0x3cb9b14d	0.022667551
14	0xbe4b3fe8	-0.19848597
15	0xbd3c8da0	-0.0460335
16	0xbd54f687	-0.05199292
17	0xbdfde4f3	-0.12397184
18	0xbe15be18	-0.14623296
19	0xbcc7041a	-0.024293948
20	0xbbfd4300	-0.0077289343
21	0xbe0ded12	-0.13859966
22	0xbe039adb	-0.12852041
23	0x3d500e27	0.050794747
24	0xbe36a94a	-0.17838016
25	0x3c9c198c	0.01905515
26	0xbe8e61ff	-0.2780914
27	0xbf21c73c	-0.6319463
28	0xbf7a6268	-0.97806406
29	0xbf278491	-0.65436655
30	0xbe19b051	-0.15008666
31	0xbf6856e8	-0.9075761
32	0xbfcf83aa	-1.6212056
33	0xbfd6ce9e	-1.6781805
34	0xbf8222e7	-1.0166901
35	0xbf13c5ff	-0.57723993
36	0xbf8f74c3	-1.1207508
37	0xbfdb2eea	-1.7123692
38	0xc00e9d73	-2.22836
39	0xbfc8c546	-1.5685203
40	0xbeac8b49	-0.33700016
41	0xbf4fd78a	-0.8118826
42	0xbfaabf3f	-1.3339614
43	0xbfecc60d	-1.849794
44	0xbfc048cb	-1.5022215
45	0x3caf0c2a	0.021368105
46	0xbeab3fb8	-0.3344705
47	0xbf17c06c	-0.5927799
48	0xbf78c0af	-0.9716901
49	0xbf57aee5	-0.8425124
50	0xbd3821ce	-0.044954114
51	0xbe83a0d8	-0.25708652
52	0xbca8b70a	-0.020595092
53	0x3cfe6cd6	0.031057756
54	0xbe95ec9c	-0.2928208
55	0xbe6c2c1d	-0.23063703
56	0xbe72c58a	-0.23708168
57	0x3e3f95b0	0.18709445
58	0x3e91c2c8	0.2846892
59	0xbe97ce14	-0.29649413
60	0x3d3d1aa0	0.04616797
61	0x3acb66da	0.0015518323
62	0x3ed72ec7	0.42027876
63	0x3ef371b9	0.475477
64	0xbe44329a	-0.19159928
65	0x3dc8dc74	0.09807673
66	0xbc433f8a	-0.011917004
67	0x3e88219e	0.26588148
68	0x3ed0647d	0.40701666
69	0xbe0b294c	-0.13589972
70	0xbeaa9074	-0.33313334
71	0xbe8dc5a7	-0.2768986
72	0xbdfe791b	-0.12425443
73	0xbd9a6486	-0.075387046
74	0xbede91b9	-0.43470553
75	0x3d77dc03	0.060512554
76	0x3cff332f	0.031152336
77	0xbd8e7567	-0.069559865
78	0xbd5193b9	-0.05116627
79	0x3d29d6a0	0.041464448
80	0x3bc97478	0.0061479174
81	0xbdde6908	-0.10859877
82	0xbe73e811	-0.23818995
83	0xbedbaef1	-0.42906907
84	0xbdf33dfb	-0.11877056
85	0xbd6b1d6e	-0.057401113
86	0xbe495dfa	-0.19664755
87	0xbecf9fbb	-0.40551552
88	0xbf794591	-0.97371775
89	0xbeba2b97	-0.3636138
90	0x3c96ff1d	0.018432194
91	0xbd7f54cb	-0.062336724
92	0xbe704672	-0.23464373
93	0xbef808e6	-0.4844429
94	0xbe6c83dd	-0.23097177
95	0x3d4c3d6d	0.049863268
96	0x3d1ce991	0.038308684
97	0xbd6a6014	-0.057220533
98	0xbe1670e2	-0.14691499
99	0xbcc78576	-0.024355631
100	0xbe0c6a05	-0.13712318
101	0xbe849370	-0.25893736
102	0xbe18c6b9	-0.14919557
103	0xbeb92e86	-0.36168307
104	0xbedf6fd9	-0.4364002
105	0xbdbeff91	-0.09326089
106	0xbebdd7d9	-0.3707874
107	0xbf3a48d3	-0.7276737
108	0xbf6c2a85	-0.9225238
109	0xbf1553f8	-0.5833125
110	0xbe8754dd	-0.26431933
111	0xbedc2792	-0.4299894
112	0xbf95389c	-1.1657901
113	0xbfea1f68	-1.8290834
114	0xbf49e7bc	-0.78869224
115	0xbe759700	-0.23983383
116	0xbf1bda19	-0.60879666
117	0xbf436cfc	-0.7633817
118	0xbf975b46	-1.182473
119	0xbf20dd54	-0.6283772
120	0xbe392dd7	-0.18083893
121	0xbeb7878f	-0.3584561
122	0xbed38927	-0.41315576
123	0xbefe19cc	-0.49629056
124	0xbe6ee631	-0.23329999
125	0x3e8bd92c	0.27314126
126	0x3e0446ef	0.12917684
127	0xbce7a7ff	-0.028278349
128	0x3e0b1e4d	0.13585778
129	0x3e97beba	0.296377
130	0x3e2b3aec	0.16721696
131	0xbce2f66d	-0.027705396
132	0xbe74f457	-0.23921333
133	0xbdbf2a2c	-0.093342155
134	0xbd9443fb	-0.07239529
135	0x3decd5da	0.115642264
136	0x3ca11bef	0.01966664
137	0xbe3e1fb8	-0.18566787
138	0xbeb92cc9	-0.3616698
139	0xbe8045f2	-0.25053364
140	0x3db2c6c1	0.087293155
141	0xbd876443	-0.0661092
142	0xbe98c891	-0.2984052
143	0xbf226aa8	-0.63443995
144	0xbf22dc81	-0.6361771
145	0x3e737e4e	0.2377865
146	0xbd1b6ba0	-0.037944436
147	0xbe5012b6	-0.20319638
148	0xbecbd650	-0.39811945
149	0xbed3c692	-0.41362435
150	0xbf005994	-0.50136685
151	0xbf366cfb	-0.7126004
152	0xbe785d63	-0.24254374
153	0x3e204cb6	0.15654263
154	0xbdc1a7c3	-0.09455826
155	0xbe8af470	-0.27139616
156	0xbe833445	-0.25625816
157	0x3ea63c8a	0.32468063
158	0x3f0cc7e7	0.54992527
159	0x3db2074d	0.08692799
160	0x3dd0ff9a	0.10205002
161	0x3e5ff2b8	0.21869934
162	0x3f2458bf	0.64197916
163	0x3f6936db	0.9109933
164	0x3e26c52f	0.16286157
165	0xbe766db6	-0.24065289
166	0x3cc82235	0.024430374
167	0x3e38b098	0.18036115
168	0x3e2e0b71	0.16996552
169	0xbd1e447d	-0.038639534
170	0xbe4ce2fd	-0.20008464
171	0xbe66bda0	-0.22533274
172	0xbe31d341	-0.17365743
173	0xbde58f80	-0.11209011
174	0xbeb133b2	-0.34609753
175	0xbdee231e	-0.11627792
176	0xbe6c2c5f	-0.23063801
177	0xbcadd3db	-0.021219185
178	0x3df2c780	0.11854458
179	0xbdc04b79	-0.09389395
180	0xbe1fb862	-0.1559768
181	0xbe5f2665	-0.2179199
182	0x3eb7260e	0.3577122
183	0x3ec43513	0.38321742
184	0xbd487dc5	-0.04894807
185	0x3d8a5f68	0.067564785
186	0x3d9b3c59	0.0757987
187	0x3f3fbefb	0.7490079
188	0x3f5e6a53	0.8688099
189	0xbd48b91d	-0.049004663
190	0x3d182b5d	0.03715073
191	0x3d5afe72	0.053465314
192	0x3ec51c18	0.38497996
193	0x3e126c32	0.14299086
194	0xbe7b405d	-0.24536271
195	0xbe02d0be	-0.12774941
196	0xbd78f8db	-0.060784202
197	0x3db972b5	0.09055082
198	0xbe2578e9	-0.16159405
199	0xbe9df144	-0.30848134
200	0x3e62917a	0.22125807
201	0x3f076c96	0.52900064
202	0x3be9e539	0.007137921
203	0xbee8f1ab	-0.45496878
204	0x3e4db842	0.2008982
205	0x3dd8015c	0.10547134
206	0x3e8bddc4	0.2731763
207	0xbddc0f86	-0.10745148
208	0xbee8b493	-0.45450267
209	0xbd47c503	-0.04877187
210	0xbe878713	-0.2647024
211	0xbf042ec2	-0.51633847
212	0xbea43c8a	-0.32077438
213	0xbe5124a8	-0.2042414
214	0xbe0d418e	-0.13794538
215	0xbd9f4d90	-0.07778466
216	0xbe0ea3a9	-0.13929619
217	0xbe707eb9	-0.23485841
218	0xbda535b8	-0.08066887
219	0x3ed06b03	0.40706643
220	0x3e859d60	0.2609663
221	0x3e81f74d	0.25383988
222	0xbd4f29f2	-0.05057711
223	0x3d223a83	0.039606582
224	0x3f099e53	0.5375721
225	0x3e72da89	0.23716177
226	0x3d4c20dc	0.049836025
227	0x3dcb24fa	0.09919162
228	0x3ea9ca5d	0.33162203
229	0x3e8463d8	0.25857425
230	0x3e22b2fe	0.15888593
231	0x3c9e2437	0.019304378
232	0xbdd87652	-0.10569443
233	0xbd2879fc	-0.04113196
234	0x3e13ca50	0.14432645
235	0x3eb46ad0	0.3523774
236	0x3e1ebc48	0.15501511
237	0xbe82b52f	-0.25528857
238	0xbe322464	-0.17396694
239	0x3e5345c8	0.20632088
240	0x3e3b9ba0	0.18321085
241	0x3d5c2d4a	0.05375413
242	0xbe3d2d9a	-0.18474427
243	0xbe571b18	-0.21006429
244	0x3c5f2c5f	0.013621419
245	0x3cae08a3	0.021244353
246	0x3deba37a	0.1150579
247	0x39dd762d	0.00042240453
248	0x3dc3482f	0.09535252
249	0xbc2504b4	-0.010071922
250	0x3e9c532e	0.3053221
251	0xbc7ac2c7	-0.015305228
252	0xbdc5edb9	-0.096644826
253	0xbe47c137	-0.195073
254	0xbd623c53	-0.05523331
255	0x3d82ff1a	0.06396313

encoder.3.bias f4 [32]
0	0x3b6f8ccb	0.0036552425
1	0xbd164cb8	-0.03669426
2	0x3e88ee86	0.2674448
3	0x3eb3130b	0.34975466
4	0x3cbbcff4	0.022926308
5	0x3d8b8d78	0.068140924
6	0xbe6a3c82	-0.22874644
7	0x3c0b9b37	0.008520893
8	0x3dc09e41	0.094051845
9	0xbe38f763	-0.1806312
10	0x3e170fb0	0.14752078
11	0x3e1fd66f	0.15609144
12	0x3de5a805	0.11213688
13	0x3dba54de	0.090982184
14	0xbe6a4be7	-0.22880517
15	0x3db3ba77	0.087758
16	0xbe15f0f3	-0.14642696
17	0xbde94000	-0.1138916
18	0x3d01ced8	0.031691402
19	0xbbe96f41	-0.007123858
20	0xbd82d347	-0.06387954
21	0xba1feb23	-0.0006100407
22	0x39d3424b	0.00040294448
23	0x3d588a78	0.05286643
24	0xbb4cb729	-0.0031237102
25	0xbd28dbc8	-0.041225225
26	0xbc703d8e	-0.014663113
27	0x3b1d01c1	0.0023957344
28	0xbe92050d	-0.28519478
29	0xbd840573	-0.06446352
30	0xbe47b6ce	-0.19503328
31	0xb9622a3f	-0.00021568777

encoder.4.weight f4 [64, 32, 1, 1]
0	0xbc464a1a	-0.012102628
1	0xbe494c9e	-0.19658133
2	0xbe069c16	-0.1314548
3	0xbe28be18	-0.16478765
4	0xbf13117a	-0.5744854
5	0xbdd0c003	-0.10192873
6	0xbd046e18	-0.032331556
7	0xbe7089a5	-0.23490007
8	0x3de8db7c	0.11369988
9	0xbdace25b	-0.084416114
10	0x3e2784bd	0.1635923
11	0x3d27a17c	0.040925488
12	0x3e01954c	0.12654608
13	0xbe16007c	-0.14648622
14	0xbdeea3a3	-0.11652305
15	0xbdca2a14	-0.09871307
16	0x3d8dae73	0.06918039
17	0xbe138340	-0.14405537
18	0x3dc65905	0.09684948
19	0xbe291638	-0.16512382
20	0x3e499174	0.19684392
21	0xbef3f23d	-0.4764575
22	0xbd38c935	-0.04511376
23	0x3ccffbb9	0.025388585
24	0x3d1bef84	0.038070217
25	0x3e624e00	0.22100067
26	0x3ca0a351	0.019609125
27	0x3ca4b7c9	0.020107167
28	0xbdf93325	-0.12167958
29	0x3e69b241	0.22821905
30	0x3df0eb41	0.11763621
31	0x3d9a84c5	0.07544855
32	0xbc9f8020	-0.019470274
33	0x3f96e66b	1.1789068
34	0x3f29ccd0	0.66328144
35	0xbe159360	-0.14607
36	0xbf0489c3	-0.5177271
37	0xbe4f7512	-0.20259503
38	0x3e35d8cc	0.17758483
39	0xbec41bfd	-0.38302603
40	0xbd842d49	-0.0645395
41	0x3d18a272	0.037264295
42	0x3d2370be	0.03990244
43	0xbd585b27	-0.052821305
44	0xbdebb02a	-0.1150821
45	0x3dfe8838	0.124283254
46	0xbd7ee64a	-0.06223134
47	0x3e0399d2	0.12851647
48	0x3d174203	0.036928188
49	0xbd45058c	-0.048100993
50	0xbe46b2a7	-0.19404088
51	0xbe702496	-0.23451456
52	0x3d12b0fa	0.03581331
53	0x3ea78305	0.32717147
54	0xbc946008	-0.018112198
55	0xbe36058a	-0.1777555
56	0x3b84fb09	0.004058246
57	0xbd1912a5	-0.037371296
58	0x3d97958b	0.0740157
59	0xbc370151	-0.011169747
60	0xbdca2e10	-0.09872067
61	0xbe1336ba	-0.14376345
62	0x3d66ddce	0.056363873
63	0xbe9d9219	-0.30775526
64	0x3a0aa088	0.0005288203
65	0xbe057100	-0.13031387
66	0x3e6258eb	0.22104232
67	0xbe1296a8	-0.14315283
68	0x3e0b6004	0.13610846
69	0xbe112c95	-0.14177163
70	0xbd2e37b6	-0.0425336
71	0x3cb40ebf	0.021979688
72	0x3ef5d074	0.480106
73	0xbf05fecf	-0.5234193
74	0x3def4216	0.11682527
75	0x3ebaa5fb	0.36454758
76	0x3f0a2f59	0.53978497
77	0xbe20cff5	-0.1570433
78	0x3e92d72c	0.28679788
79	0x3edd4a67	0.43220827
80	0x3e251dac	0.161246
81	0xbea5021c	-0.32228172
82	0xbf213642	-0.62973416
83	0x3ec99e09	0.39378384
84	0x3e84e93f	0.25959203
85	0xbf5523a0	-0.83257484
86	0xbd8bfb04	-0.06834987
87	0xbd5cebc1	-0.05393577
88	0x3c16d6dc	0.0092065
89	0xbf6c8a86	-0.9239887
90	0x3dd838e2	0.105577245
91	0xbcfc2884	-0.030781038
92	0x3ee2af72	0.4427448
93	0xbdd3d769	-0.103438206
94	0x3ed5de8e	0.41771358
95	0xbea0e04d	-0.31421128
96	0x3d04e693	0.032446455
97	0x3d263b38	0.04058382
98	0x3f651041	0.89477926
99	0x3dfcdb89	0.123465605
100	0xbdfe5f5c	-0.12420532
101	0x3e759d61	0.23985817
102	0x3f2f7b0d	0.68547136
103	0x3e843ba0	0.2582674
104	0x3e7d6e83	0.24749188
105	0x3dd0e828	0.1020053
106	0xbbfb9501	-0.0076776748
107	0x3f848fbe	1.0356367
108	0x3e9504bb	0.29105172
109	0xbda654de	-0.08121656
110	0x3eaa5ad7	0.3327243
111	0xbf2c2579	-0.6724468
112	0x3e1488d7	0.14505325
113	0xbdaa2864	-0.08308485
114	0x3ea55729	0.3229306
115	0x3fd91220	1.6958656
116	0xbfbad70a	-1.4596875
117	0xbf0647be	-0.5245322
118	0x3c1e1971	0.00964962
119	0x3e57d0df	0.21075772
120	0xbba658ca	-0.0050765024
121	0xbdbea259	-0.09308309
122	0x3e12d4c9	0.14338984
123	0x3d189f3f	0.037261244
124	0xbeb2d445	-0.34927574
125	0xbf6f67db	-0.93517846
126	0x3eb6d911	0.35712484
127	0x3e8a0c07	0.269623
128	0x3c093749	0.008374997
129	0xbb82055d	-0.0039679245
130	0x3dfc20d1	0.12310947
131	0x3f8f430d	1.1192337
132	0x3ec7717e	0.38953775
133	0xbe1e5738	-0.15462959
134	0x3d599766	0.0531229
135	0xbec4e20c	-0.3845371
136	0x3c9d7dd8	0.019225046
137	0xbeadf4fc	-0.3397597
138	0x3d6e586f	0.058189806
139	0x3ce037ed	0.027370417
140	0xbeaa68d4	-0.33283103
141	0xbdddb879	-0.10826201
142	0xbd99ca51	-0.07509292
143	0x3f27d1a6	0.65554273
144	0x3e2c7900	0.16843033
145	0x3d441337	0.047869887
146	0xbede1d57	-0.4338176
147	0x3e535dbb	0.20641224
148	0xbdbcea26	-0.09224348
149	0xbfea5e6c	-1.8310065
150	0xbc88401d	-0.016632134
151	0x3dffecea	0.1249636
152	0xbb95a73d	-0.0045670555
153	0x3d2e6555	0.042577107
154	0x3da60d88	0.0810805
155	0xbc847e16	-0.016173404
156	0x3e1db818	0.15402257
157	0x3da7948a	0.081826285
158	0x3ec1e4e7	0.3786995
159	0xbe3fb9af	-0.18723176
160	0xbe252187	-0.16126071
161	0x3b4d8a90	0.0031363107
162	0x3d40a9d0	0.047036946
163	0x3e1c7e2b	0.15282504
164	0x3e4658c3	0.19369797
165	0xbd101b40	-0.035182238
166	0xbdbdef57	-0.09274166
167	0xbdd35f8b	-0.10320958
168	0xbdbc9239	-0.09207577
169	0xbe30934e	-0.17243692
170	0x3e515fc8	0.20446694
171	0x3d7409b9	0.059579585
172	0x3d3d35e2	0.046193965
173	0x3d1554f8	0.036457986
174	0x3dff2d75	0.12459842
175	0x3c3d80fa	0.011566395
176	0xbe4abb9e	-0.19798133
177	0x3cbddb61	0.023175897
178	0x3d27b587	0.040944602
179	0xbc8d8508	-0.017275348
180	0x3c760048	0.0150147155
181	0xbe11c4c5	-0.14235218
182	0x3aa05716	0.0012232985
183	0x3dc6fc10	0.09716046
184	0xbc8b5b39	-0.017011272
185	0xbde608fd	-0.11232183
186	0x3e0e3ae1	0.13889648
187	0x3e2c629e	0.16834494
188	0xbe95074e	-0.29107136
189	0x3da0359a	0.07822724
190	0x3d6cea80	0.057840824
191	0xbca71ab9	-0.020398485
192	0x3c519a88	0.012793191
193	0x3ec929ea	0.3928979
194	0x3e8f8b42	0.28035933
195	0xbe3201c2	-0.17383483
196	0x3e64bda2	0.22337964
197	0xbe73b634	-0.23799974
198	0x3e696e0f	0.2279589
199	0x3e68d9a5	0.22739275
200	0x3f2a81a3	0.6660406
201	0xbdc03796	-0.09385602
202	0xbd90cd1d	-0.07070372
203	0x3ee47664	0.44621575
204	0x3eeee23e	0.46656984
205	0xbf3fdd5f	-0.7494716
206	0xbc9106bf	-0.017703412
207	0xbdaaafb9	-0.08334298
208	0x3e16a5a1	0.1471162
209	0xbdc15898	-0.09440726
210	0x3f2b75cf	0.66976637
211	0x3ea11000	0.3145752
212	0x3e89c519	0.26908186
213	0x3f417452	0.75568116
214	0xbd16c4f8	-0.036808938
215	0x3e6db873	0.23214893
216	0xbc2bfd63	-0.010497424
217	0x3f265cb3	0.649852
218	0xbebd9fad	-0.37035885
219	0xbd57df1e	-0.052703016
220	0xbe488fc5	-0.19586094
221	0x3f06cca7	0.52656025
222	0x3eb506e4	0.3535682
223	0xbeac2de7	-0.3362877
224	0xbd4c1fa1	-0.04983485
225	0xbd8e488c	-0.06947431
226	0x3e915e73	0.28392372
227	0x3e7003fd	0.23439021
228	0xbd96c205	-0.07361225
229	0xbe7b33a7	-0.24531423
230	0x3e072328	0.13197005
231	0x3e4e433f	0.2014284
232	0x3e1b0a26	0.1514059
233	0xbdaedf27	-0.08538657
234	0xbe76b2a6	-0.24091586
235	0xbd565629	-0.052328262
236	0x3f182fe2	0.59448063
237	0x3e00a201	0.125618
238	0x3d44bc9e	0.048031442
239	0x3d6815aa	0.056661285
240	0x3e2b43ac	0.16725034
241	0xbe784a5e	-0.24247119
242	0xbecb5cc2	-0.39719206
243	0x3f1aac16	0.6041883
244	0xbe0600de	-0.13086268
245	0xbf8c0df1	-1.0941755
246	0xbdd1dc39	-0.10247082
247	0xbd997d97	-0.074946575
248	0x3eb9fee3	0.36327276
249	0xbe2204aa	-0.15822092
250	0x3e23dfb1	0.160033
251	0xbe1b742b	-0.15181033
252	0x3e38ad67	0.18034898
253	0x3d5d55e7	0.054037
254	0xbca4e3e6	-0.020128202
255	0xbec85c1d	-0.39132777

encoder.4.bias f4 [64]
0	0x3db33f3f	0.087522976
1	0xbedf23f6	-0.43582124
2	0xbe321f74	-0.17394811
3	0xbeb6ec28	-0.35727048
4	0xbe8c39ca	-0.2738784
5	0xbe8d0cbe	-0.27548784
6	0x3dd14659	0.10218496
7	0xbe880e1f	-0.26573274
8	0xbd124d44	-0.035718217
9	0xbd2da2a5	-0.042391438
10	0x3dc9b498	0.09848899
11	0x3df093b2	0.11746921
12	0xbdb975cd	-0.09055672
13	0x3ed7bf62	0.421382
14	0x3e0cca5b	0.13749067
15	0x3f2bbb93	0.6708309
16	0xbeb469f8	-0.35237098
17	0x3ba91a35	0.005160595
18	0x3e237fa4	0.1596666
19	0x3c912741	0.017718913
20	0xbe8ec89a	-0.27887422
21	0x3ecd3ef5	0.40087095
22	0xbf81e788	-1.0148783
23	0xbe4372dc	-0.19086784
24	0xbf083af1	-0.5321494
25	0xbee319d0	-0.4435563
26	0xbddc93d8	-0.107703865
27	0xbdfcbc2d	-0.12340579
28	0xbe24bac6	-0.16086873
29	0x3db737df	0.089462034
30	0xbe465760	-0.19369268
31	0x3dea588e	0.11442672
32	0xbf629ed1	-0.88523585
33	0x3d1f3fb9	0.03887913
34	0xbe8621f7	-0.26197788
35	0xbd2e6b69	-0.042582903
36	0x3eaca635	0.33720556
37	0x3d5f8614	0.054571226
38	0xbd95890c	-0.0730153
39	0xbc93122f	-0.017953007
40	0x3d870c7e	0.065941796
41	0x3c9f3608	0.019434944
42	0x3d9f7211	0.07785428
43	0xbdb2df87	-0.08734041
44	0x3e8a8597	0.27055046
45	0x3b9c73a3	0.004774527
46	0xbea3f2d1	-0.32021192
47	0xbf2b6730	-0.66954327
48	0xbe3477d3	-0.17623834
49	0xbcac4c3e	-0.021032449
50	0xbe1a6454	-0.15077335
51	0xbd439436	-0.047748767
52	0x3e39a88d	0.18130703
53	0xbdb2a603	-0.087230705
54	0xbdb22e92	-0.08700289
55	0xbe109385	-0.14118774
56	0x3e88c9e8	0.26716542
57	0x3f271a0a	0.6527411
58	0xbd28f7ff	-0.041252133
59	0xbe1af639	-0.15132989
60	0x3eaa6eef	0.3328776
61	0x3c37a351	0.011208371
62	0xbe9e0fe1	-0.3087149
63	0xbe94dfad	-0.290769

encoder.6.weight f4 [64, 1, 5, 5]
0	0x3e338262	0.17530206
1	0x3ddad00b	0.10684212
2	0xbd303f09	-0.043028865
3	0x3e0bfa5a	0.1366972
4	0x3d91b8e0	0.0711534
5	0xbbfc8e5b	-0.0077074
6	0x3da70490	0.08155167
7	0x3de16fba	0.11007638
8	0x3d7a8cc1	0.06116939
9	0xbd637879	-0.055534814
10	0xbd2ee4a2	-0.04269851
11	0xbd370c69	-0.04468957
12	0xbdc4e77c	-0.09614465
13	0xbe85adbe	-0.26109117
14	0xbd349c51	-0.044094387
15	0x3d90aabf	0.07063817
16	0xbe065822	-0.13119557
17	0xbeb196f7	-0.3468549
18	0xbe575ce4	-0.21031529
19	0x3db941ed	0.090457775
20	0x3d7596e7	0.059958365
21	0xbd32c0f3	-0.043641042
22	0xbe0e7f77	-0.13915811
23	0x3c42a672	0.011880504
24	0x3d8dee72	0.069302455
25	0x3e55745d	0.2084517
26	0x3dad95f7	0.08475869
27	0x3d0b761b	0.03404818
28	0xbddd3a1f	-0.10802101
29	0x3df47925	0.11937169
30	0x3cf6a6bc	0.030108802
31	0x3dd7b6ef	0.10532939
32	0x3e438bae	0.19096252
33	0x3e19a560	0.15004492
34	0x3da8eca8	0.082482636
35	0x3e474c39	0.1946267
36	0x3e71a75e	0.23599002
37	0x3eae9306	0.34096545
38	0x3edf639b	0.4363068
39	0x3e54dfbf	0.20788477
40	0x3d08398b	0.033258002
41	0x3d920927	0.07130652
42	0x3ec06439	0.37576464
43	0x3e8c6058	0.27417254
44	0x3e359905	0.17734154
45	0x3c934020	0.017974913
46	0x3d8c3365	0.0684574
47	0x3e565e0e	0.20934317
48	0x3e8b5be7	0.27218553
49	0xbc9c6279	-0.019089924
50	0xbe0da35e	-0.13831851
51	0xbe57fea0	-0.21093225
52	0xbe5c5535	-0.21516879
53	0x3c331d74	0.010932315
54	0xbeba1ad9	-0.36348608
55	0xbdc3d883	-0.09562781
56	0xbd7794d6	-0.060444675
57	0x3e0c1c6c	0.13682717
58	0x3e04eab2	0.12980154
59	0xbef9e415	-0.48806825
60	0xb97638e7	-0.00023481586
61	0x3d839d21	0.06426454
62	0x3e198089	0.14990439
63	0x3e48bd8c	0.19603556
64	0xbee0c5fe	-0.43901056
65	0x3e8bd91b	0.27314076
66	0x3e90f3b6	0.28310937
67	0x3d72b1b5	0.059251506
68	0x3d85050f	0.064951055
69	0xbec42832	-0.38311917
70	0x3e5ff270	0.21869826
71	0x3e92c948	0.2866919
72	0x3dbf506b	0.093415104
73	0x39b91508	0.0003530162
74	0xbe8bd187	-0.27308294
75	0xbdb23682	-0.08701803
76	0xbecdda7d	-0.40205756
77	0xbf5ba4f0	-0.8579855
78	0xbf0a5620	-0.54037666
79	0xbe10166b	-0.14071052
80	0xbf255943	-0.6458933
81	0x3e809a49	0.2511771
82	0x3d6df429	0.058094177
83	0xbc77c953	-0.015123683
84	0xbe16a530	-0.14711452
85	0xbf18d2bc	-0.59696555
86	0x3d8b0f11	0.06789983
87	0x3f6d0c26	0.9259666
88	0x3ea9f8fc	0.33197773
89	0xbe453b09	-0.19260801
90	0xbefc8e70	-0.4932742
91	0x3f006d15	0.50166446
92	0x3f311646	0.6917461
93	0x3dc544e6	0.09632282
94	0xbe7e2555	-0.24818929
95	0xbda7febc	-0.082028836
96	0x3eea67d0	0.45782328
97	0x3d444f82	0.047927387
98	0xbd92751b	-0.07151242
99	0x3e8cf102	0.27527624
100	0x3d332ef4	0.04374595
101	0xbd1bd767	-0.03804722
102	0xbe3f88e9	-0.18704571
103	0xbce073c9	-0.02739896
104	0x3e187814	0.14889556
105	0x3bb6c559	0.005577725
106	0xbe1ba888	-0.15201008
107	0xbeb1ea21	-0.3474894
108	0xbea18e2e	-0.31553787
109	0xbcee03d5	-0.029054562
110	0xbd2ba6f1	-0.041907255
111	0xbdf94901	-0.121721275
112	0xbefedb7b	-0.49776825
113	0xbf1d1ca4	-0.6137183
114	0xbdfd223c	-0.12360045
115	0x3bf94c0e	0.0076079434
116	0xbdcf5aab	-0.101247154
117	0xbeac79c1	-0.3368664
118	0xbe8246f7	-0.25444767
119	0xbd5e1196	-0.05421599
120	0x3c470dbe	0.0121492725
121	0x3da3f862	0.0800636
122	0xbd494460	-0.049137473
123	0xbcbd9de5	-0.023146579
124	0x3da97a80	0.08275318
125	0xbd995612	-0.0748712
126	0xbd64cba1	-0.05585826
127	0xbe3b9632	-0.18319014
128	0xbadbd4d1	-0.0016771798
129	0xbe36e0bc	-0.17859167
130	0xbd6edce0	-0.05831611
131	0xbe02599b	-0.12729494
132	0x3e159ed2	0.14611366
133	0xbdedb3f8	-0.11606592
134	0x3e19b3b6	0.1500996
135	0x3d96d018	0.073639095
136	0x3e0a19ec	0.13486451
137	0x3e4029ae	0.187659
138	0xbddca764	-0.10774115
139	0xbe5730fc	-0.2101478
140	0xbd86744d	-0.06565151
141	0x3e3e279b	0.18569796
142	0xbd2c37fd	-0.042045582
143	0xbc0a70a4	-0.008449707
144	0xbe46c9c7	-0.1941291
145	0x3d9549e8	0.07289487
146	0xbe12fc76	-0.14354119
147	0xbdbdbddc	-0.092647284
148	0x3c54ab32	0.012980269
149	0x3ce30691	0.027713092
150	0x3d1dd8cc	0.03853683
151	0xbe6b69fe	-0.22989652
152	0xbea51dfa	-0.32249433
153	0xbe605838	-0.21908653
154	0xbcb70a71	-0.022343846
155	0xbbff0f14	-0.00778378
156	0xbe301d69	-0.17198719
157	0xbda5ce76	-0.0809602
158	0xbd0cbd55	-0.03436025
159	0xbdd73b69	-0.105093785
160	0xbe669239	-0.22516717
161	0xbe8fa9e3	-0.280593
162	0x3efbdde8	0.4919274
163	0x3f2c6110	0.67335606
164	0xbda0b122	-0.078462854
165	0xbe921957	-0.28534958
166	0xbe9e0678	-0.3086431
167	0x3ee8f2c6	0.4549772
168	0x3f33a420	0.7017231
169	0x3e154077	0.14575373
170	0x3d587af1	0.05285162
171	0xbe27d4dc	-0.16389793
172	0x3d6874e6	0.056752108
173	0x3eaa9055	0.33313242
174	0x3ee3bac6	0.44478434
175	0x3e87472c	0.26421487
176	0xbe9ea73b	-0.30986962
177	0xbf0647cf	-0.5245332
178	0xbcfc2f80	-0.030784369
179	0x3f134096	0.57520425
180	0x3e9be9f4	0.3045193
181	0x3dff1c37	0.124565534
182	0xbd7e7551	-0.0621236
183	0xbdc7f2b9	-0.097630925
184	0xbd76d436	-0.060260974
185	0xbe1a759e	-0.1508393
186	0x3e7ecdb2	0.24883154
187	0x3eb6c119	0.35694197
188	0x3db43233	0.08798637
189	0xbf129e4a	-0.5727278
190	0xbee7f087	-0.45300695
191	0x3d965b9f	0.07341694
192	0x3eb47410	0.352448
193	0x3e38dc02	0.18052676
194	0xbeffc5a7	-0.49955484
195	0x3e5e1d90	0.21690965
196	0xbe831bd3	-0.25607166
197	0xbe9e1902	-0.30878454
198	0x3e219cb9	0.15782441
199	0x3ec417e8	0.3829949
200	0xbe2b8f3a	-0.16753855
201	0xbd4128d7	-0.04715809
202	0xbe1cffae	-0.15331909
203	0xbe5381e2	-0.20655015
204	0xbe0beeef	-0.13665365
205	0x3e18560b	0.14876573
206	0x3e71cff3	0.23614483
207	0x3ec9da43	0.39424333
208	0x3ee45d70	0.44602537
209	0xbb953a2f	-0.004554055
210	0x3c9984e1	0.01874012
211	0x3f0f3c73	0.55951613
212	0x3f821a63	1.0164303
213	0x3f63f78b	0.89049596
214	0xbd30b933	-0.04314537
215	0xbe1eb733	-0.15499572
216	0x3f1e290e	0.61781394
217	0x3f8845cc	1.06463
218	0x3f2f2dcd	0.6842926
219	0xbd057fd6	-0.032592617
220	0xbbd845cc	-0.0066001173
221	0x3bdfe101	0.0068322425
222	0xbc59bc3b	-0.013289507
223	0x3e1b538e	0.15168592
224	0xbe4ee490	-0.20204377
225	0x3d24b728	0.040213734
226	0x3e4bdb35	0.1990784
227	0x3e844857	0.2583644
228	0x3e49b964	0.19699627
229	0x3dc786ad	0.09742484
230	0x3e80090c	0.25006902
231	0x3e2ec827	0.1706854
232	0xbe7e8447	-0.24855147
233	0xbe8e8dab	-0.2784246
234	0x3e158a2a	0.14603487
235	0x3e8ba4da	0.2727421
236	0xbe0e1ae2	-0.13877442
237	0xbf3a1473	-0.72687453
238	0xbf174d7e	-0.5910262
239	0x3d8097a8	0.06278926
240	0x3e599448	0.21247971
241	0xbdc4c366	-0.09607582
242	0xbef4b0f6	-0.4779126
243	0xbedee4a8	-0.43533826
244	0x3c012e4c	0.007884573
245	0x3dca8668	0.09888917
246	0x3db7e02f	0.089783065
247	0x3dfb8496	0.12281148
248	0x3cfab478	0.030603632
249	0x3e580b70	0.21098113
250	0xbee741c6	-0.4516737
251	0xbea636dd	-0.32463732
252	0xbe3502e8	-0.1767689
253	0xbe908724	-0.28228104
254	0xbed26adf	-0.4109716
255	0xbe2a431a	-0.1662716

encoder.6.bias f4 [64]
0	0xbe9b447e	-0.30325693
1	0x3ccf7403	0.025323873
2	0xbcc774a4	-0.02434761
3	0x3d6242a4	0.055239335
4	0x3e0b864c	0.13625449
5	0xbaf4da08	-0.0018680701
6	0x3d2af63b	0.04173873
7	0x3d1dede9	0.038556967
8	0x3c7362c2	0.014855089
9	0x3d3d05b4	0.046148017
10	0x3d65bf83	0.056090843
11	0x3d41b615	0.047292788
12	0xbbd93d6e	-0.0066296374
13	0xba91901f	-0.0011105574
14	0xbd19e445	-0.03757121
15	0x3e73f537	0.23824011
16	0xbcd0c5e7	-0.025484992
17	0x3a514d54	0.000798424
18	0x3e3560e6	0.17712745
19	0xbe09ebb6	-0.13468823
20	0xbc74b9bb	-0.01493686
21	0xbd0e8d11	-0.0348025
22	0x3cbdf97d	0.023190254
23	0xbb6d2be9	-0.0036189503
24	0xbb4167ac	-0.0029511256
25	0xbc1df1ba	-0.009640152
26	0x3b904d2e	0.004403732
27	0xbc45dc6d	-0.012076479
28	0x3b5dd989	0.0033851585
29	0xbc2056ba	-0.009786302
30	0x3a054ed4	0.00050852937
31	0x3b0a7868	0.0021128897
32	0xbc913ca1	-0.017729105
33	0x3c92dd92	0.017927919
34	0xbbe54f01	-0.0069979434
35	0xbddc758d	-0.107646085
36	0x3d9ce8e4	0.07661608
37	0xbcf7d3de	-0.030252393
38	0xbcf4579a	-0.029826928
39	0x3ce3fd73	0.027830815
40	0x3da94162	0.08264424
41	0xbaf6f34f	-0.0018840822
42	0xbd7837f0	-0.06060022
43	0x3c7c57cb	0.015401791
44	0x3d9976dc	0.07493374
45	0x3dcbfd4b	0.09960421
46	0x3b51ac94	0.0031993734
47	0x3d8cccae	0.06874977
48	0xbc0f8f35	-0.008762171
49	0x3df7bada	0.12096186
50	0x3ccfc639	0.025363075
51	0xbd155dd9	-0.036466453
52	0x3d5b237c	0.053500637
53	0xbe7abcd4	-0.24486095
54	0x39e02151	0.00042749432
55	0x3d68f581	0.056874756
56	0xbe50bf14	-0.2038539
57	0xbdcc9ffc	-0.09991452
58	0xbd4217ba	-0.04738591
59	0xbd70ab1d	-0.058756936
60	0xbdcfcd0f	-0.10146534
61	0x3b389e64	0.002817058
62	0x3ba9496f	0.0051662247
63	0x3e1b18d7	0.15146194

encoder.7.weight f4 [128, 64, 1, 1]
0	0x3fa69926	1.3015487
1	0x3d7de175	0.06198259
2	0xbf0b718d	-0.5447014
3	0xbeb650dd	-0.3560857
4	0xbe6553fb	-0.22395317
5	0xbd5f587d	-0.05452775
6	0x3e48485a	0.1955885
7	0xbc97c5aa	-0.01852687
8	0x3e2fab58	0.17155206
9	0xbe734f74	-0.23760778
10	0x3f0a7491	0.54084116
11	0xbebc81dc	-0.36817825
12	0xbd873469	-0.06601793
13	0xbf5f6a30	-0.87271404
14	0xbf68a10f	-0.90870756
15	0x3d970065	0.07373122
16	0x3ed840ee	0.42237037
17	0xbe980843	-0.29693803
18	0x3e07cdd1	0.13262106
19	0x3dd707a4	0.10499504
20	0x3e6c9639	0.2310418
21	0xbe98b638	-0.29826522
22	0xbea98964	-0.33112633
23	0x3e64205e	0.22277972
24	0x3e0b3df3	0.1359785
25	0xbe5e568c	-0.21712703
26	0xbcb35676	-0.021891814
27	0xbf368c1a	-0.7130753
28	0x3b5720c9	0.0032825938
29	0x3e949fe7	0.29028246
30	0x3ad3be54	0.0016154745
31	0xbd0e127a	-0.03468559
32	0xbe5cd6c2	-0.21566299
33	0x3dd16fa8	0.10226375
34	0xbf22540c	-0.63409495
35	0x3e0e5942	0.13901237
36	0xbe38f67f	-0.18062781
37	0xbe752620	-0.23940325
38	0xbde595a1	-0.1121018
39	0x3d129a20	0.035791516
40	0x3ebe9240	0.37220955
41	0xbf445596	-0.76693094
42	0x3e686d9f	0.22698067
43	0x3dbb83e1	0.09156013
44	0xbe9d9a87	-0.30781958
45	0xbecb1995	-0.39667955
46	0xbf290eb7	-0.6603808
47	0xbe622cdd	-0.22087426
48	0xbd0af8fa	-0.03392885
49	0xbeb0517b	-0.34437165
50	0xbe89ee7f	-0.2693977
51	0x3d50084c	0.050789163
52	0x3e9ae39a	0.3025177
53	0xbeb3230f	-0.34987685
54	0xbc8b2904	-0.016987331
55	0xbde8d887	-0.11369424
56	0x3e98354d	0.29728165
57	0xbf2bbbbc	-0.67083335
58	0xbed03098	-0.40662074
59	0x3e31c338	0.17359626
60	0x3ec1919b	0.378064
61	0xbde9910f	-0.11404621
62	0xbf268b1a	-0.65056
63	0xbe9cd33a	-0.30629903
64	0x3e117876	0.14206108
65	0xbd1961bd	-0.037446726
66	0xbc9f25ac	-0.019427143
67	0xbda9ac56	-0.082848236
68	0x3cb67939	0.0222746
69	0xbdd49cde	-0.103814825
70	0xbdb30b78	-0.08742422
71	0xbc8c3006	-0.017112743
72	0xbe081b48	-0.13291657
73	0xbe20d278	-0.15705287
74	0x3dac35c2	0.08408691
75	0xbdbc02e2	-0.09180237
76	0x3d07d269	0.033159647
77	0xbd999cbc	-0.07500598
78	0xbc4544a6	-0.012040293
79	0xbc6844d7	-0.014176569
80	0xbcb67217	-0.0222712
81	0x3cd5fe52	0.026122246
82	0xbcfea4fd	-0.031084532
83	0x3dabdfe9	0.08392317
84	0x3d9922b7	0.074773245
85	0xbe1cc2a4	-0.15308625
86	0x3d956d45	0.07296232
87	0xbd6d182a	-0.057884373
88	0x3d3946ff	0.045233723
89	0xbdfa0a12	-0.12208952
90	0x3d9c860e	0.076427564
91	0xbd6e452c	-0.058171436
92	0x3c9d202f	0.019180385
93	0xbd546124	-0.051850453
94	0x3cc3889c	0.023868851
95	0x3d47bca8	0.0487639
96	0xbcf67675	-0.030085782
97	0xbcfd9db5	-0.03095899
98	0x3dd63175	0.10458652
99	0xbd5b3d0e	-0.053525023
100	0x3deeaa51	0.11653579
101	0xbddf6c7d	-0.10909364
102	0x3d5c36c5	0.05376317
103	0x3d232142	0.03982664
104	0x3cf66518	0.030077502
105	0xbdbb3a0d	-0.09141932
106	0x3e2e2ee2	0.17010072
107	0x3daa22f9	0.08307452
108	0x3d30f95e	0.043206565
109	0x3ca8c17f	0.020600079
110	0x3b3b1031	0.0028543586
111	0xbcf71e4b	-0.030165812
112	0xb9334c36	-0.00017099161
113	0xbdd00298	-0.10156745
114	0xbd9cdb53	-0.0765902
115	0xbe1d192b	-0.15341632
116	0x3dacfb00	0.08446312
117	0xbd4ad087	-0.049515273
118	0xbd1d1228	-0.038347393
119	0x3d875f1f	0.0660994
120	0xbdecd075	-0.115631975
121	0xbdb9b455	-0.09067599
122	0x3d8383f3	0.06421652
123	0xbc4ebbbd	-0.0126180025
124	0x3d07441b	0.033023935
125	0xbde82baf	-0.11336457
126	0x3d88cdcd	0.066798784
127	0x3d887e7f	0.06664752
128	0x3e19b0de	0.15008876
129	0xbf0d5509	-0.5520788
130	0x3eaec4f9	0.34134653
131	0x3d859989	0.06523425
132	0x3d705d7c	0.058682904
133	0x3de948b3	0.113908194
134	0xbf12e2e7	-0.57377476
135	0xbe65de50	-0.22448087
136	0xbe38c08e	-0.18042204
137	0xbedda15f	-0.4328718
138	0x3e62eaaa	0.2215983
139	0xbd455034	-0.04817219
140	0x3ea798c6	0.32733744
141	0xbe986a7d	-0.29768744
142	0x3d9b9c21	0.075981386
143	0xbebf56ba	-0.37370855
144	0x3c9e9794	0.019359387
145	0x3de798fe	0.11308478
146	0x3eba2436	0.36355752
147	0x3ed9fe21	0.42576697
148	0x3ef6b3f3	0.48184165
149	0xbe27c90e	-0.1638529
150	0x3f6415fc	0.89096045
151	0x3d1fa71f	0.03897774
152	0xbd970a7c	-0.073750466
153	0xbe89ee23	-0.26939496
154	0x3c15efd1	0.009151415
155	0x3cd00d71	0.025397034
156	0xbca68f73	-0.020332074
157	0x3e07e82c	0.1327216
158	0xbdd906df	-0.10597014
159	0xbddde001	-0.10833741
160	0x3dd3e283	0.10345938
161	0x3cf928a2	0.030414883
162	0x3f0847ed	0.5323475
163	0xbd41de59	-0.047331188
164	0xbe021c30	-0.12706065
165	0x3dea08e3	0.11427476
166	0x3f0f3e26	0.55954206
167	0xbba2072b	-0.004944702
168	0x3dfc2ae0	0.12312865
169	0xbddeeeeb	-0.10885414
170	0xbcbb5940	-0.022869706
171	0xbebceb0c	-0.36898077
172	0x3d9baa66	0.0760086
173	0x3daaa76f	0.08332717
174	0x3e00cede	0.12578914
175	0xbda544b1	-0.080697425
176	0x3de61aec	0.11235604
177	0xbe4c88e7	-0.19974099
178	0x3e8e9cf3	0.27854118
179	0x3d146607	0.036230113
180	0x3d8485b5	0.06470815
181	0xbe58070c	-0.21096438
182	0xbe0fd7a8	-0.1404711
183	0xbe8b3efc	-0.2719649
184	0x3d96df45	0.07366804
185	0x3e460b4d	0.19340248
186	0xbde53cc2	-0.11193229
187	0x3e24285e	0.16031024
188	0x3e265431	0.16243054
189	0xbf0f0819	-0.5587173
190	0xbf3ec4bd	-0.7451895
191	0x3d778e7e	0.060438626
192	0x3e376156	0.17908224
193	0x3e45251d	0.19252439
194	0x3d5302ab	0.051516216
195	0x3ceb971d	0.02875858
196	0x3ea69ea8	0.3254292
197	0xbaf70f67	-0.0018849195
198	0x3c97cc2a	0.01852997
199	0xbe74b15c	-0.23895782
200	0xbe086c05	-0.13322456
201	0xbe4a57f1	-0.1976011
202	0x3ebfa437	0.37429973
203	0xbf466afa	-0.77506983
204	0x3e9e0b29	0.3086789
205	0x3ef37a0e	0.47554058
206	0xbf3ac926	-0.7296318
207	0x3e98180d	0.2970585
208	0x3e274957	0.1633657
209	0x3e8fa589	0.2805598
210	0x3e65658a	0.22402015
211	0xbdf980e8	-0.1218279
212	0xbd402da3	-0.046918523
213	0xbf1a7eee	-0.6034993
214	0xbd29d8cb	-0.041466516
215	0x3ddf65bc	0.10908076
216	0xbe842301	-0.25807956
217	0xbf075cac	-0.5287578
218	0xbd24a5ca	-0.04019717
219	0xbe2fa856	-0.17154059
220	0xbd4b69fd	-0.049661625
221	0xbf2724a9	-0.65290314
222	0xbd6a4f8a	-0.05720476
223	0x3ea5001c	0.32226646
224	0xbc99c820	-0.018772185
225	0x3f01c838	0.50696135
226	0x3e25d2e5	0.16193731
227	0xbeab24ad	-0.3342642
228	0x3f2b98ae	0.67029846
229	0x3e992c0e	0.29916424
230	0xbcda4859	-0.026645826
231	0x3f0cff6e	0.55077255
232	0xbe420b8d	-0.18949719
233	0xbf266399	-0.64995724
234	0xbe01093f	-0.12601183
235	0x3e1a1f9c	0.1505112
236	0x3e807b69	0.25094154
237	0x3f38df60	0.72215843
238	0xbe4f3ec2	-0.20238784
239	0x3dada71d	0.0847914
240	0xbc239792	-0.009984868
241	0xbd8aa7b1	-0.06770266
242	0x3eed9a03	0.46406564
243	0xbf7e7e2d	-0.9941128
244	0xbe85e05f	-0.26147744
245	0xbf75f3d3	-0.9607517
246	0xbd3c6cfc	-0.046002373
247	0xbdbca5ae	-0.092112884
248	0xbe769bb9	-0.24082841
249	0xbe1f949c	-0.15584034
250	0x3c0e9bdc	0.008704152
251	0xbeecbd09	-0.46237972
252	0xbeb34c6d	-0.35019246
253	0xbd4723f6	-0.04861828
254	0xbda278a2	-0.07933165
255	0x3e0c4a9a	0.13700333

encoder.7.bias f4 [128]
0	0xbf4fb74c	-0.81139064
1	0xbe1fc884	-0.15603834
2	0xbf04b6df	-0.5184154
3	0x3da0f4e5	0.0785921
4	0x3f0dd6ef	0.5540609
5	0xbee4ab94	-0.44662154
6	0x3ea5a714	0.32354033
7	0xbe6f1e2b	-0.23351352
8	0x3f377e13	0.7167675
9	0x3dd1b6c1	0.10239936
10	0xbdc20697	-0.09473913
11	0x3ddee48f	0.10883438
12	0xbe8579c2	-0.26069456
13	0x3ea503d2	0.32229477
14	0x3ffa3ac2	1.9549181
15	0x3ee4c502	0.44681555
16	0xbf0fb24e	-0.56131446
17	0x3dc1bb8f	0.09459602
18	0x3e2b51d2	0.1673043
19	0xbe495687	-0.19661914
20	0xbec617f3	-0.38690147
21	0x3d9ce4da	0.076608375
22	0x3cd87e78	0.026427492
23	0xbead1a2f	-0.3380904
24	0x3e8c276e	0.27373832
25	0xbdb390f3	-0.08767881
26	0x3de31112	0.1108724
27	0xbf0724c0	-0.5279045
28	0x3f1b9fda	0.6079079
29	0xbdad8c1d	-0.0847399
30	0x3e17604e	0.14782831
31	0xbe7019fa	-0.2344741
32	0xbe560282	-0.20899394
33	0xbf4dcf41	-0.8039437
34	0x3dec6cb2	0.115441695
35	0x3e8609cc	0.2617935
36	0x3d7b6196	0.061372362
37	0x3e3bb7ab	0.18331783
38	0x3e6b7a77	0.22995935
39	0xbbd554c9	-0.0065103513
40	0x3e8c057d	0.27347937
41	0xbe3f8c56	-0.18705878
42	0xbe67b053	-0.22625856
43	0xbdf37116	-0.11886804
44	0xbe53a6a2	-0.20669034
45	0xbe35fe2b	-0.17772739
46	0xbd755bbe	-0.059901945
47	0xbe8a417a	-0.2700308
48	0xbe624c23	-0.22099356
49	0x3e69df4d	0.22839089
50	0xbe654f1b	-0.22393458
51	0xbd1375df	-0.036001083
52	0x3ec3d97b	0.38251862
53	0x3ef6a4f0	0.48172712
54	0xbe3eaf63	-0.18621592
55	0xbe90f404	-0.2831117
56	0xbefb5d65	-0.49094692
57	0xbdc959db	-0.09831592
58	0x3d3f61e5	0.04672422
59	0xba6579dd	-0.0008753816
60	0x3e89ae00	0.26890564
61	0xbe7fe9a4	-0.2499147
62	0xbe6477c7	-0.22311316
63	0x3dc4d12b	0.09610208
64	0xbef9117b	-0.4864615
65	0xbea44366	-0.3208267
66	0xbd95d1ff	-0.07315444
67	0xbd874ba2	-0.06606223
68	0xbe85b91b	-0.26117787
69	0xbe723948	-0.23654664
70	0xbe1718aa	-0.14755502
71	0x3eed7016	0.46374577
72	0x3e0b7d01	0.13621904
73	0xbe1810fb	-0.14850228
74	0xbee1f2ba	-0.44130498
75	0x3d9b96f4	0.075971514
76	0xbe0824de	-0.13295314
77	0xbf0468c0	-0.51722336
78	0xbe50055d	-0.20314546
79	0xbf1ca71c	-0.6119249
80	0xbeb4589f	-0.35223863
81	0x3f4ac162	0.7920133
82	0x3ec4daf0	0.38448286
83	0xbd494a19	-0.04914293
84	0x3c6c3e75	0.014419188
85	0xbe968586	-0.29398745
86	0x3db6823d	0.0891156
87	0x3ee0f7d2	0.43939072
88	0x3e7cdd21	0.24693729
89	0x3e563052	0.2091687
90	0x3fddc95e	1.7327077
91	0xbd43e06d	-0.04782145
92	0x3f70f849	0.94128853
93	0xbe917fbd	-0.2841777
94	0xbe86edac	-0.26353204
95	0x3d259729	0.04042736
96	0xbebfc91c	-0.37458122
97	0xbe34de02	-0.17662814
98	0xbe9b0e50	-0.30284357
99	0xbe9b1e93	-0.30296764
100	0xbdb12fa6	-0.08651666
101	0x3e964213	0.29347286
102	0xbf2fe9ce	-0.6871613
103	0x3e3c2ce7	0.18376504
104	0x3ed5c30c	0.4175037
105	0x3ee21f09	0.44164303
106	0xbec46d97	-0.3836486
107	0xbe34a325	-0.1764036
108	0xbf008cc4	-0.5021479
109	0xbed070d7	-0.4071109
110	0x3ee1a2c2	0.44069487
111	0xbd93bb7a	-0.07213493
112	0xbe3df4eb	-0.1855046
113	0x3cc92f3f	0.024558662
114	0x3eb96994	0.36213362
115	0xbe8ae84e	-0.2713036
116	0xbe2141d0	-0.15747762
117	0xbd423b0a	-0.047419585
118	0xbf05766f	-0.5213384
119	0xbe23198a	-0.15927711
120	0xbe9a6d20	-0.3016138
121	0xbf13901d	-0.57641774
122	0xbe1abe2d	-0.15111609
123	0x3d8da605	0.06916431
124	0xbe8307a3	-0.25591764
125	0xbebfb04d	-0.37439194
126	0x3e12a153	0.14319353
127	0x3e2b7fe4	0.16748005

encoder.9.weight f4 [128, 1, 5, 5]
0	0xbbdc6dee	-0.006726972
1	0xbd288deb	-0.04115097
2	0xbe155b76	-0.14585671
3	0xbe172d8b	-0.14763467
4	0xbdc55235	-0.0963482
5	0x3d66a611	0.056310717
6	0x3c9498b9	0.01813923
7	0xbe5ace32	-0.2136772
8	0xbe90f7c6	-0.28314036
9	0xbe6a2550	-0.22865796
10	0x3e2b0de2	0.16704515
11	0x3eb8706a	0.36023265
12	0x3e0faf6b	0.1403176
13	0xbe8e52b3	-0.2779747
14	0xbe8e7c05	-0.27828994
15	0x3e54ab22	0.20768407
16	0x3f29da2a	0.66348517
17	0x3f1178be	0.5682486
18	0xbddba1de	-0.10724233
19	0xbe9abb54	-0.30221045
20	0x3e99fadd	0.30074206
21	0x3ecbbd8b	0.39793047
22	0x3e85b1f3	0.26112327
23	0x3c89f987	0.016842617
24	0xbd840305	-0.064458884
25	0x3e424971	0.18973328
26	0x3e305a42	0.1722193
27	0x3c8ba90b	0.01704838
28	0x3c0ab41c	0.008465793
29	0x3da137f6	0.07872002
30	0xbd19169f	-0.03737509
31	0x3ca4499b	0.02005463
32	0xbe14735b	-0.1449713
33	0x3d42a76a	0.04752294
34	0xbd3641c5	-0.044496316
35	0x3e2d93e4	0.16950947
36	0x3e33cfcb	0.17559735
37	0xbe11670c	-0.14199466
38	0xbe45861d	-0.19289441
39	0xbd8c8cc4	-0.068627864
40	0xbd62b57a	-0.05534885
41	0xbc1e05a7	-0.009644902
42	0x3e0285d0	0.12746358
43	0xbe11a376	-0.14222512
44	0xbd5a6818	-0.053321928
45	0x3e2313f7	0.15925585
46	0xbd1f5a69	-0.03890458
47	0xbdcfad67	-0.10140496
48	0xbe1a72d3	-0.15082864
49	0xbe0bf42c	-0.13667363
50	0x3d38498d	0.04499202
51	0x3f372d6f	0.715537
52	0x3f25e6b4	0.6480515
53	0x3eef52f8	0.46742988
54	0x3e58ea51	0.21183135
55	0x3ee439bb	0.44575295
56	0x3ee390e9	0.44446495
57	0x3eae3e2d	0.3403181
58	0x3f2a968f	0.66635984
59	0x3e7abb51	0.24485518
60	0x3d3ef7fd	0.04662322
61	0x3e2c6b9f	0.16837929
62	0xbe85409b	-0.26025853
63	0x3e5994c1	0.21248151
64	0x3e00af27	0.12566815
65	0x3dbed410	0.093177915
66	0xbe0de18a	-0.13855568
67	0xbeb4a5d2	-0.3528276
68	0xbe018c78	-0.12651241
69	0x3e85f5eb	0.26164183
70	0x3d944803	0.07240298
71	0x3ee9e286	0.45680636
72	0x3ec6a70b	0.3879932
73	0x3ec0a6a0	0.37627125
74	0x3e5e9b11	0.2173884
75	0xbf1a9458	-0.60382605
76	0x3eb9439e	0.361844
77	0xbe6258ce	-0.22104189
78	0xbf31d3be	-0.6946372
79	0x3dc30a5d	0.09523461
80	0x3e1d7e74	0.1538027
81	0xbeafb744	-0.34319508
82	0xbf1d19e1	-0.61367613
83	0x3f02fe4f	0.51169294
84	0xbdd887f2	-0.105728045
85	0xbca0c400	-0.01962471
86	0xbfa7b31d	-1.3101536
87	0xbf63b586	-0.8894886
88	0xbea52e0b	-0.3226169
89	0xbe886a90	-0.266438
90	0xbf004df0	-0.50118923
91	0x3eaa305f	0.3324003
92	0xbf0c85b1	-0.54891497
93	0xbf4c276c	-0.79747653
94	0xbe9a8e1c	-0.30186546
95	0xbe99a5ba	-0.30009252
96	0xbe8e660f	-0.2781224
97	0xbef28b32	-0.47371823
98	0xbf1c06ab	-0.60947675
99	0x3ddf0bac	0.10890898
100	0xbda760e6	-0.08172779
101	0xbc76c1c6	-0.015060848
102	0x3e2bf1c5	0.16791447
103	0x3e478d77	0.19487558
104	0xbd280e50	-0.041029274
105	0xbac60907	-0.0015108892
106	0x3d04fc1a	0.032466985
107	0x3e6c2de0	0.23064375
108	0x3e62343a	0.22090235
109	0x3df7b08c	0.120942205
110	0x3e2eff6f	0.17089628
111	0x3ddb31dd	0.1070287
112	0xbed5c118	-0.4174888
113	0xbeb71899	-0.35760954
114	0x3cd2ffe1	0.025756778
115	0x3e61fc34	0.22068864
116	0x3e87417b	0.26417145
117	0xbf05a7b7	-0.5220904
118	0xbf4dbd6a	-0.8036715
119	0xbd78f1f8	-0.060777634
120	0xbd2c3bba	-0.042049147
121	0x3e1aba4c	0.15110129
122	0xbc57fb4a	-0.013182471
123	0xbde7015a	-0.11279555
124	0x3d6b2056	0.057403885
125	0xbcb3ef12	-0.021964584
126	0x3de37bd0	0.111076
127	0xbd87c3b1	-0.06629122
128	0xbe5b61e1	-0.21424057
129	0xbd6e04e4	-0.058110133
130	0x3e920824	0.28521836
131	0x3e54b9bf	0.20773982
132	0xbea4416d	-0.32081166
133	0xbef53a72	-0.47896153
134	0xbe1f4ef6	-0.15557465
135	0x3f14e134	0.5815613
136	0x3f509454	0.8147633
137	0x3ebaec7d	0.3650855
138	0xbe7d5069	-0.24737705
139	0xbee9fa9a	-0.45699006
140	0x3f1cd9cd	0.6126984
141	0x3fa07912	1.2536948
142	0x3f5f0cf2	0.8712913
143	0xbc8f0fa1	-0.017463507
144	0xbe5bd730	-0.21468806
145	0x3ea04240	0.31300545
146	0x3f331a4e	0.6996201
147	0x3f1bcd39	0.6086002
148	0x3e1576b7	0.14596067
149	0xbe01d5d6	-0.12679228
150	0x3de3019d	0.11084292
151	0x3e7867f3	0.24258403
152	0x3d9b435f	0.075812094
153	0x3d956f52	0.07296623
154	0x3d99f0c0	0.075166225
155	0x3e6c2954	0.2306264
156	0x3e8db3d5	0.27676263
157	0x3ea75638	0.32682967
158	0x3e94c1e2	0.2905417
159	0x3e2e3bc6	0.1701499
160	0x3e0d77dc	0.13815254
161	0x3eb8832d	0.3603758
162	0x3f20abe0	0.6276226
163	0x3f0d2690	0.55136967
164	0x3e1efd34	0.15526277
165	0x3e6271fc	0.22113794
166	0x3ee525fb	0.4475554
167	0x3f1ec78b	0.6202323
168	0x3e90266a	0.28154308
169	0x3e33c50c	0.17555636
170	0xbcaedac2	-0.021344546
171	0x3e7b539c	0.24543613
172	0x3ea4e6a2	0.3220721
173	0x3e549928	0.2076155
174	0x3deaa675	0.114575304
175	0xbe5a726f	-0.21332715
176	0x3d04bcfd	0.032406796
177	0x3ebde595	0.3708922
178	0x3e9faa0c	0.31184423
179	0x3dbbeea9	0.0917638
180	0xbcb60c56	-0.02222268
181	0x3eb5f949	0.35541752
182	0x3f265f79	0.6498943
183	0x3f1b3cd6	0.60639703
184	0x3e7596b2	0.23983267
185	0x3e87c694	0.2651869
186	0x3f1a75de	0.603361
187	0x3ed63e49	0.41844395
188	0x3dfc27e7	0.12312298
189	0xbe1496cd	-0.14510651
190	0x3e8198f5	0.2531201
191	0x3f077d4f	0.5292558
192	0xbc03c5c7	-0.008042759
193	0xbf32f1e9	-0.69900376
194	0xbf4489c1	-0.76772696
195	0x3e16aec5	0.14715107
196	0x3dd717a1	0.10502554
197	0xbe8fe15b	-0.2810162
198	0xbf49e17c	-0.78859687
199	0xbefb5bf3	-0.4909359
200	0xbcb71abd	-0.022351617
201	0xbd1fbc00	-0.03899765
202	0xbdd7ee15	-0.105434574
203	0xbd3ac15a	-0.04559455
204	0x3cda4b97	0.026647372
205	0xbccb84ec	-0.024843656
206	0xbe730b50	-0.23734784
207	0xbe221ea8	-0.15832007
208	0xbe023314	-0.12714797
209	0xbe1645e8	-0.14675105
210	0xbe1b496b	-0.15164725
211	0xbd9b7b14	-0.07591835
212	0x3eef6d45	0.46763054
213	0x3f1bbd6d	0.60835916
214	0xbd96b5de	-0.07358907
215	0xbd4f1688	-0.050558597
216	0xbe1a60a5	-0.1507593
217	0x3e36717b	0.17816727
218	0x3f231649	0.6370588
219	0xbd9b1a70	-0.07573402
220	0x3c104b1f	0.008806973
221	0xbdc7cf3e	-0.09756325
222	0xbddc48f8	-0.10756105
223	0xbde1f38b	-0.1103278
224	0xbe21f59a	-0.15816346
225	0xbd3e849a	-0.046513177
226	0xbd726fcb	-0.059188645
227	0xbdbd728f	-0.09250366
228	0x3d0881f5	0.03332706
229	0x3e14e292	0.14539555
230	0xbe0cc0df	-0.1374545
231	0xbe88262b	-0.2659162
232	0xbe942494	-0.28934157
233	0xbe46ec96	-0.19426188
234	0x3d4725c2	0.048619993
235	0xbe0cd477	-0.13752924
236	0xbe8f3207	-0.27967855
237	0xbf35aa87	-0.7096333
238	0xbf0d4d9d	-0.55196553
239	0x3c71def6	0.014762631
240	0x3db766df	0.08955168
241	0xbe357497	-0.17720257
242	0xbf235e9e	-0.6381625
243	0xbebd348e	-0.3695416
244	0xbc3fe9de	-0.011713473
245	0x3dc52462	0.0962608
246	0x3d48274e	0.04886561
247	0xbdd5de64	-0.10442808
248	0xbdbb0539	-0.091318555
249	0x3db1d5b8	0.08683342
250	0xbef92c29	-0.48666504
251	0xbe930086	-0.28711337
252	0xbd90fddf	-0.07079672
253	0xbf020345	-0.5078624
254	0xbf140075	-0.578132
255	0xbe508d2e	-0.20366356

encoder.9.bias f4 [128]
0	0xbd65a952	-0.05606968
1	0xbbdbe204	-0.006710293
2	0xbbc21ee3	-0.005924092
3	0x3d7097a6	0.058738373
4	0x3e1b270c	0.15151614
5	0xbdf6f947	-0.12059265
6	0xbe2efcbe	-0.17088601
7	0x3d042376	0.03226038
8	0xbd38f2d6	-0.04515346
9	0x3e0860f9	0.13318242
10	0xbe02244f	-0.12709163
11	0x3d6d087c	0.05786942
12	0x3d2147d4	0.03937514
13	0xbd2be8dc	-0.04197012
14	0x3deb1be0	0.11479926
15	0x3ced8e32	0.028998468
16	0xba8e976b	-0.0010878866
17	0xbead0943	-0.3379613
18	0x3c917852	0.017757569
19	0xbdc49c48	-0.09600121
20	0x3c812125	0.015762875
21	0x3e055075	0.13018973
22	0xbe06c6e8	-0.13161814
23	0x3da46792	0.08027567
24	0xbdff67ff	-0.124710076
25	0x3d980d8e	0.0742446
26	0xbe8992a1	-0.2686968
27	0xbd5a2e70	-0.053266943
28	0x3e332ce8	0.17497599
29	0xbcde885b	-0.027164629
30	0xbd55eab4	-0.052225783
31	0x3c967a49	0.018368857
32	0x3caf012e	0.021362867
33	0x3d2210eb	0.039566915
34	0x3e57200b	0.21008317
35	0x3e79b85c	0.24386734
36	0xbcba48ea	-0.022739846
37	0x3e24b399	0.16084136
38	0x3b10b755	0.002208193
39	0x3d1d3885	0.03838398
40	0xbe97e3ee	-0.29666084
41	0xb9068ca0	-0.00012831623
42	0x3c1a2e87	0.009410507
43	0x3d82de36	0.063900396
44	0xbc08f90b	-0.008360158
45	0xbd201411	-0.039081637
46	0xbd6d8627	-0.057989266
47	0xbc974605	-0.018466005
48	0xbdb22401	-0.086982735
49	0x3e7786fc	0.24172586
50	0x3ca2ce27	0.019873692
51	0xbec62a0c	-0.38703954
52	0x3d6a3188	0.057176143
53	0x3d314b6b	0.043284815
54	0xbd71db9c	-0.059047326
55	0xbc0dfd06	-0.0086662825
56	0x3d2b15d6	0.04176887
57	0xbc1342aa	-0.008988062
58	0x3e247b87	0.16062747
59	0x3ea77596	0.32706898
60	0x3e883308	0.26601434
61	0xbcb6be75	-0.022307614
62	0x3c10583f	0.008810102
63	0xbea2e3f4	-0.3181454
64	0x3d889787	0.066695265
65	0x3d91c71f	0.071180575
66	0xbe3e00d6	-0.18555006
67	0xbd02b91c	-0.031914815
68	0x3b8a9d48	0.004230175
69	0x3ca70c63	0.020391649
70	0x3c639107	0.013889558
71	0x3c9b2d70	0.018942565
72	0xbf10caa9	-0.56559235
73	0x3a80ad03	0.0009817187
74	0x3e072372	0.13197115
75	0xbe07b893	-0.13254003
76	0x3e33b48d	0.17549343
77	0xbc193b38	-0.009352498
78	0x3c33bbed	0.010970098
79	0xbdd6e656	-0.10493152
80	0xbd7736b4	-0.060354903
81	0x3c2008b5	0.009767701
82	0x3e60405f	0.21899556
83	0xbe1e50e2	-0.15460542
84	0x3cb97828	0.022640303
85	0xbe05f277	-0.13080774
86	0x3e3afd62	0.1826072
87	0x3e4c0b15	0.19926102
88	0x3db607f7	0.08888238
89	0x3cf92a82	0.030415777
90	0xbed3686e	-0.4129061
91	0x3d3611f2	0.044450708
92	0x3ef685d4	0.48148978
93	0xbd5500b7	-0.052002635
94	0xbb66175c	-0.0035109138
95	0xbdbd2569	-0.09235651
96	0xbd186a25	-0.037210602
97	0x3e271196	0.16315302
98	0xbc169ad2	-0.0091921855
99	0xbe18bff8	-0.1491698
100	0xbcb57d48	-0.022154465
101	0xbe6043cd	-0.21900864
102	0xbcbdc871	-0.023166867
103	0x3e2ce186	0.16882905
104	0xbe8a42cd	-0.2700409
105	0x3dc5dc37	0.09661143
106	0xbdda64b8	-0.10663742
107	0xbdff5cf0	-0.12468898
108	0xbe0e25c0	-0.13881588
109	0x3dc87866	0.09788589
110	0xbed83afc	-0.42232502
111	0x3dd86152	0.105654374
112	0x3cfc2d6a	0.030783374
113	0x3bc5e781	0.0060395603
114	0xbe510df3	-0.20415477
115	0x3c0aab4b	0.008463691
116	0x3d2c26e7	0.042029288
117	0xbe9f3676	-0.31096238
118	0xbe02fd8d	-0.12792034
119	0xbd021a30	-0.031763256
120	0x3e9a8dc7	0.30186293
121	0x3dc99469	0.0984276
122	0xbeb1d9aa	-0.34736377
123	0xbd86f605	-0.06589893
124	0xbbbb5614	-0.0057170484
125	0x3c98183c	0.018566243
126	0xbc0227b3	-0.007944035
127	0xbe62b603	-0.22139744
