src/anomaly_detection/model_checkpoints/cookie/ae_model.pt (torch, 291555 bytes, 32 tensors)

encoder.0.weight f4 [1, 1, 5, 5]
0	0x3d3ba2c3	0.04580952
1	0x3cf7b69a	0.030238438
2	0xbda1e94c	-0.07905826
3	0xbd626ccc	-0.055279538
4	0x3c807949	0.015682833
5	0x3bd53c0e	0.006507403
6	0xbd9c3978	-0.07628149
7	0xbe94a0f4	-0.29029047
8	0xbe875501	-0.2643204
9	0xbd45b8cd	-0.048271943
10	0xbd642bfd	-0.055706013
11	0xbde95291	-0.113927014
12	0xbeaf4656	-0.3423335
13	0xbed35850	-0.41278315
14	0xbde63264	-0.1124008
15	0x3d05a1aa	0.032624878
16	0x3d66c056	0.05633577
17	0xbe2e372c	-0.17013234
18	0xbe3b4171	-0.18286683
19	0x3ccbe7db	0.02489083
20	0x3d2ec312	0.042666502
21	0x3d32a31e	0.043612592
22	0xbda8c5a2	-0.082408205
23	0xbd5daf66	-0.05412235
24	0x3d3132b0	0.04326123

encoder.1.weight f4 [32, 1, 1, 1]
0	0x3eb3c90d	0.35114327
1	0x3ef9d46d	0.4879488
2	0xbf271147	-0.6526074
3	0xbf8585dd	-1.0431477
4	0x3eabcb29	0.33553436
5	0xbf7a083a	-0.976688
6	0xbf7f18f7	-0.9964747
7	0x3e948a1d	0.29011622
8	0x3f384df1	0.7199393
9	0xbf0e75fe	-0.5564879
10	0x3f6997ff	0.9124755
11	0x3f30f602	0.6912538
12	0xbf5c8e38	-0.8615451
13	0xbe905548	-0.28190064
14	0x3f4116dd	0.7542551
15	0x3f39f1b1	0.72634417
16	0xbf6f5b3e	-0.934986
17	0x3ea449ff	0.32087705
18	0x3ef1f386	0.47256106
19	0x3f37ab6e	0.71745956
20	0x3f35eaf3	0.7106163
21	0xbf228dfc	-0.634979
22	0x3d7bfea0	0.061522126
23	0x3f562272	0.8364631
24	0xbf3b6068	-0.7319398
25	0xbdbae892	-0.091263905
26	0x3e596fa0	0.21233988
27	0xbef6a70d	-0.48174325
28	0xbf67184f	-0.90271467
29	0x3fb97b0a	1.4490674
30	0x3ea3ff60	0.32030773
31	0x3f798b9f	0.9747867

encoder.1.bias f4 [32]
0	0x3e481b43	0.1954165
1	0x3f4db096	0.80347574
2	0xbededdac	-0.43528497
3	0xbf3cfbe5	-0.7382186
4	0x3e318aca	0.173381
5	0xbeece922	-0.46271616
6	0xbf1a20ec	-0.60206485
7	0x3ddfe5a4	0.10932472
8	0xbc2f0365	-0.010681962
9	0xbefa214c	-0.48853528
10	0x3ed86366	0.42263335
11	0x3f12d1b2	0.5735122
12	0xbf018baf	-0.50603765
13	0xbeee1cfd	-0.4650649
14	0xbe1d2e07	-0.1534959
15	0x3eaacf6e	0.3336138
16	0x3eb4eeaf	0.3533835
17	0x3f22df03	0.6362154
18	0x3e650dee	0.22368595
19	0x3f653eb2	0.8954879
20	0x3ec11f0c	0.37719
21	0x3f0d5328	0.5520501
22	0xbf7a16f6	-0.97691286
23	0x3f2a0c77	0.6642527
24	0xbecc2789	-0.39873913
25	0xbec2fbd1	-0.38082746
26	0xbf73cbba	-0.9523274
27	0x3f5cc357	0.86235565
28	0xbf87672e	-1.0578363
29	0x3f2c7275	0.6736215
30	0x3f214c2e	0.63006866
31	0x3ef53a83	0.47896203

encoder.3.weight f4 [32, 1, 5, 5]
0	0xbbe03f67	-0.0068434956
1	0x3e91835b	0.2842053
2	0xbe9a1881	-0.3009682
3	0x3e8b1fa5	0.2717258
4	0x3eaaf1d1	0.33387616
5	0x3eb6865b	0.3564938
6	0x3eff48d3	0.49860248
7	0xbe2b3525	-0.16719492
8	0x3e9002d3	0.28127155
9	0x3e8f387d	0.27972785
10	0xbe6311f2	-0.22174814
11	0xbb4709ca	-0.0030370825
12	0xbf134c90	-0.575387
13	0x3d5804d9	0.052738998
14	0x3e6d2cdf	0.23161648
15	0x3e709feb	0.23498504
16	0x3e35fcf7	0.1777228
17	0xbcf3e583	-0.029772526
18	0x3e8e642b	0.27810797
19	0x3e77da71	0.24204423
20	0x3e3cc56f	0.1843469
21	0x3e9c1bd4	0.3048998
22	0xbc15a959	-0.009134614
23	0x3e8a41ef	0.27003428
24	0x3ea03178	0.31287742
25	0xbe4d5dde	-0.20055339
26	0xbd32b054	-0.04362519
27	0x3d14cb61	0.03632677
28	0xbe42d7c7	-0.19027625
29	0xbde49ba2	-0.11162497
30	0xbe662e17	-0.2247852
31	0xbd4e8be3	-0.050426375
32	0x3d7b6220	0.061372876
33	0xbecb67d5	-0.39727655
34	0xbe80d029	-0.25158814
35	0xbe692898	-0.22769392
36	0xbd3bbd0e	-0.045834593
37	0x3c4483a1	0.011994273
38	0xbf0c2c5a	-0.54755175
39	0xbeda05ad	-0.42582455
40	0x3e6faff9	0.23406972
41	0x3f1ddf02	0.6166841
42	0x3f09e30b	0.53862065
43	0x3e87c649	0.26518467
44	0x3e4d6202	0.20056918
45	0x3e34039a	0.17579499
46	0x3ef4ffd1	0.47851422
47	0x3f0579d5	0.52139026
48	0x3e1194ab	0.14216869
49	0x3d98fa5a	0.07469626
50	0x3d5aee2e	0.053449802
51	0xbcc61c19	-0.02418332
52	0x3d3e34cb	0.046437066
53	0x3c9917be	0.018688079
54	0xbd997fab	-0.07495054
55	0x3bbf3ec1	0.0058363383
56	0x3c7684c1	0.015046299
57	0x3d9c85c0	0.07642698
58	0x3e2815de	0.16414592
59	0x3ddb0a01	0.106952675
60	0x3e2a876d	0.16653223
61	0x3dc9fd0b	0.09862717
62	0x3eb5f905	0.3554155
63	0x3e95161f	0.2911844
64	0x3e71902c	0.23590153
65	0x3d719a00	0.058984756
66	0x3eb535b8	0.35392547
67	0x3ec9faff	0.39449307
68	0x3e80fe2e	0.25193924
69	0x3dadd871	0.084885485
70	0xbdc90131	-0.0981468
71	0xbdd66cc6	-0.10469966
72	0x3e3b14c8	0.18269646
73	0x3dddfa32	0.108387366
74	0xbe341d82	-0.17589381
75	0x3ee257d4	0.44207633
76	0x3ec8f26d	0.39247456
77	0xbd0bdc82	-0.03414584
78	0xbdd0d122	-0.10196139
79	0x3e3f4fad	0.18682738
80	0x3f2b1f9a	0.66845095
81	0x3f179f79	0.5922771
82	0xbbf9cb44	-0.007623108
83	0x3db73922	0.08946444
84	0x3edf9cd8	0.4367435
85	0x3dd8345c	0.10556862
86	0xbdbae136	-0.09124987
87	0xbe88e7de	-0.267394
88	0xbebaf860	-0.3651762
89	0xbe255389	-0.16145147
90	0xbd53d209	-0.051713977
91	0xbeab7da7	-0.33494303
92	0xbefeac56	-0.49740857
93	0xbeeffbbd	-0.4687175
94	0xbdb338be	-0.08751057
95	0x3e539dfd	0.20665736
96	0x3cde0c55	0.02710549
97	0xbe1284d4	-0.14308482
98	0x3db99b83	0.09062865
99	0x3ebc0294	0.36720717
100	0x3d7df6cc	0.062002942
101	0xbcd18140	-0.025574327
102	0xbc9080b0	-0.017639488
103	0x3d81d777	0.06339925
104	0x3d8c2517	0.06843012
105	0xbd0550c9	-0.032547746
106	0x3e0121f5	0.1261061
107	0x3d5981e5	0.053102393
108	0x3cc63163	0.024193471
109	0xbd68ccec	-0.056836054
110	0xbeb114e7	-0.3458626
111	0x3d2004d4	0.039067104
112	0x3dcaea63	0.09907987
113	0x3e09295d	0.13394685
114	0x3dafbfe4	0.08581522
115	0xbe0b0346	-0.13575467
116	0x3e6b49f7	0.22977434
117	0x3f136ee3	0.57591075
118	0x3eeb1bd5	0.45919672
119	0x3c554254	0.013016302
120	0xbdc3df59	-0.095640846
121	0x3e43c10e	0.19116613
122	0x3e9885cc	0.2978958
123	0x3c5af1e9	0.01336334
124	0x3d960a06	0.073261306
125	0x3d89ebce	0.06734429
126	0xbde412dc	-0.1113641
127	0x3e2984de	0.16554591
128	0x3caf0e11	0.021369012
129	0xbc0ffa86	-0.008787757
130	0xbda58592	-0.08082117
131	0xbddcf2f5	-0.10788528
132	0x3e4291ea	0.19000974
133	0x3e0a3a92	0.13498905
134	0xbddaad8d	-0.106776334
135	0xbd3e8e51	-0.046522442
136	0x3e3345d2	0.17507103
137	0x3e9ce191	0.30640844
138	0x3e8f1ff4	0.27954066
139	0x3e5990da	0.21246663
140	0x3e523cf8	0.2053107
141	0x3dc5d812	0.09660353
142	0x3ed3b9a2	0.41352564
143	0x3e921275	0.28529707
144	0x3e098e0a	0.1343309
145	0x3d9f34e4	0.0777376
146	0x3e271da0	0.16319895
147	0x3e002cb9	0.1251706
148	0xbd4d28c2	-0.050087698
149	0xbd7c2ebc	-0.061568007
150	0xbe852e34	-0.26011813
151	0xbe589598	-0.21150815
152	0xbf0e7545	-0.5564769
153	0x3d26cda6	0.040723465
154	0xbd6c93f6	-0.057758294
155	0xbae8a16e	-0.0017748305
156	0xbe26012c	-0.16211385
157	0xbe1d3d9d	-0.15355535
158	0x3edad407	0.4273989
159	0x3e37d41b	0.17952006
160	0xbcde0fcc	-0.027107142
161	0xbd38f877	-0.04515883
162	0xbbe75a16	-0.0070602996
163	0x3f0960b0	0.5366316
164	0x3e163e06	0.14672098
165	0xbe8f5a49	-0.2799857
166	0xbc1dd20f	-0.009632601
167	0xbe0c797e	-0.1371822
168	0x3e37b893	0.17941503
169	0xbe0fff07	-0.14062129
170	0x3da2cab1	0.079488166
171	0x3dc7d05e	0.0975654
172	0xbb9f8032	-0.004867577
173	0x3ee05d90	0.43821383
174	0x3e4a733e	0.19770524
175	0x3e688db1	0.22710301
176	0xbe0cab2b	-0.1373717
177	0x3e7032a8	0.23456824
178	0xbda71520	-0.08158326
179	0x3dbcfe19	0.09228153
180	0x3e47bd9d	0.19505925
181	0xbe7b5401	-0.24543764
182	0x3dd89bd6	0.10576598
183	0x3db67253	0.08908524
184	0xbc59784a	-0.013273308
185	0x3c8997e2	0.016796056
186	0x3e3aef63	0.18255381
187	0xbcd5e8c0	-0.02611196
188	0xbcf1c10e	-0.029511001
189	0x3d913558	0.07090253
190	0x3e8dca90	0.27693605
191	0x3c239c30	0.0099859685
192	0xbd67ba1d	-0.056573976
193	0xbeb9f4dc	-0.36319625
194	0xbdf04555	-0.11731974
195	0x3f0fde12	0.5619823
196	0xbea35411	-0.31900075
197	0xbe062369	-0.13099445
198	0xbec707ea	-0.38873225
199	0xbdb4d80e	-0.08830272
200	0x3e71960e	0.23592398
201	0x3cf98bba	0.030462135
202	0x3de15ee8	0.1100443
203	0x3da2ae9d	0.07943461
204	0x3d86f6b0	0.06590021
205	0x3e30c4e6	0.17262611
206	0xbd9745d9	-0.07386369
207	0xbd990e5e	-0.074734434
208	0xbe78554c	-0.24251288
209	0xbded6c37	-0.11592906
210	0x3efbf48d	0.49210015
211	0x3e681630	0.22664714
212	0x3e8ea742	0.27861983
213	0x3e00b467	0.12568818
214	0x3de9a626	0.114086434
215	0x3e2e0bd9	0.16996707
216	0xbe8c87c3	-0.27447328
217	0x3ed08f57	0.4073436
218	0x3e409617	0.18807255
219	0xbe0128de	-0.12613246
220	0x3e0b5424	0.13606316
221	0xbe55409d	-0.2082543
222	0xbb463fb4	-0.0030250372
223	0x3db26cac	0.08712134
224	0x3e001759	0.12508906
225	0x3ec4c46b	0.38431105
226	0x3c540494	0.012940545
227	0xbd48cbd0	-0.049022496
228	0xbc31dc97	-0.010855815
229	0x3eae8cf2	0.34091908
230	0x3dffee93	0.12496676
231	0xbe9ad55f	-0.30240914
232	0xbe97c8cf	-0.29645392
233	0xbdc1a19f	-0.09454655
234	0xbe09eec0	-0.13469982
235	0xbd5ac5a1	-0.05341113
236	0xbe1813c7	-0.14851294
237	0xbef8f3f8	-0.48623633
238	0xbee11e64	-0.439685
239	0xbeae0c06	-0.33993548
240	0xbd57ce65	-0.052687068
241	0xbe22a8d8	-0.15884721
242	0xbe9dbddc	-0.30808914
243	0xbf138704	-0.5762789
244	0xbe0bed49	-0.13664736
245	0x3df851e9	0.12124998
246	0x3ce334bc	0.027735107
247	0xbec6c283	-0.38820276
248	0xbe281c6c	-0.16417092
249	0x3d1ebf9e	0.03875696
250	0xbd28d115	-0.04121502
251	0xbcc9f40a	-0.0246525
252	0x3cd70050	0.026245266
253	0xbda779b1	-0.08177508
254	0xbd071d55	-0.032986958
255	0x3e19f673	0.15035419

encoder.3.bias f4 [32]
0	0x3d4df8f8	0.050286263
1	0xbe5057fa	-0.2034606
2	0xbe5a4736	-0.21316227
3	0xbd9681ac	-0.07348952
4	0xbd08794c	-0.033318803
5	0xbea86925	-0.3289272
6	0xbd2a4ecb	-0.04157905
7	0xbd418f80	-0.047255993
8	0xbe0f60e1	-0.140018
9	0x3d9af9a9	0.0756715
10	0x3d488a26	0.048959874
11	0xbe025b50	-0.12730145
12	0xbdded283	-0.10879996
13	0x3dc15569	0.09440119
14	0xbc96befb	-0.018401613
15	0xbe0a06bc	-0.13479131
16	0xbd9257f1	-0.0714568
17	0x3bf8ebe3	0.0075964793
18	0x3d7917ea	0.06081382
19	0x3e9e7dda	0.30955392
20	0x3cabfded	0.020995105
21	0xbd7fdcae	-0.062466316
22	0x3dd019e7	0.101611905
23	0xbe1899d9	-0.14902438
24	0xbd764f7f	-0.060134407
25	0xbb121e92	-0.0022296053
26	0xbd307db0	-0.043088615
27	0x3e37f31e	0.17963836
28	0x3dbbe32c	0.09174189
29	0x3e91efef	0.28503367
30	0xbe3f2636	-0.1866692
31	0xbca31d9d	-0.019911582

encoder.4.weight f4 [64, 32, 1, 1]
0	0xbeb237e7	-0.34808275
1	0xbe35fc6d	-0.17772074
2	0x3cbb8f55	0.022895494
3	0xbdbe5037	-0.092926435
4	0xbdf63e4c	-0.12023601
5	0xbda551a4	-0.08072212
6	0xbf0bc8e1	-0.5460339
7	0xbd1ad507	-0.037800815
8	0xbe790135	-0.24316867
9	0x3e9f9fdb	0.31176648
10	0xbe60e473	-0.21962146
11	0xbec8063c	-0.39067256
12	0x3cfce42d	0.030870521
13	0x3e782689	0.2423345
14	0xbdd26e64	-0.102749616
15	0xbeb9a2ab	-0.36256918
16	0x3ef729d4	0.482741
17	0x3d9d5b3d	0.07683418
18	0xbe2704df	-0.16310452
19	0xbde6785b	-0.11253425
20	0x3db0ae17	0.08626955
21	0x3d39964f	0.04530936
22	0xbcb0fc6d	-0.021604741
23	0xbeb11c1f	-0.34591767
24	0xbe7fb3f7	-0.24970995
25	0xbdf80e22	-0.121120706
26	0x3e18e533	0.14931183
27	0x3ce024c7	0.027361287
28	0x3d59c215	0.053163607
29	0x3ed1109e	0.4083299
30	0x3e8a68c2	0.2703305
31	0xbe208665	-0.15676267
32	0xbeb14fb5	-0.34631124
33	0x3f204b3e	0.6261481
34	0x3e198be6	0.14994773
35	0xbee5bfea	-0.4487298
36	0xbe164218	-0.1467365
37	0xbe0f003a	-0.1396493
38	0x3e90a249	0.28248814
39	0xbd6a52ff	-0.057208057
40	0x3e25488a	0.16140953
41	0x3d26316a	0.04057447
42	0xbdbbc528	-0.09168464
43	0x3d6aaf21	0.057295922
44	0x3ec437db	0.38323864
45	0xbf62c710	-0.88584995
46	0x3dd32358	0.10309476
47	0xbe24dced	-0.16099901
48	0xbc60e5a0	-0.013726622
49	0xbeb992c7	-0.36244795
50	0xbe079ef4	-0.1324423
51	0x3d96264e	0.07331525
52	0x3d661d36	0.0561802
53	0x3ee104c8	0.4394896
54	0xbe9a1385	-0.30093017
55	0xbe4889e9	-0.19583859
56	0x3e8ad375	0.27114454
57	0xba1be521	-0.00059469236
58	0x3e22d622	0.15901998
59	0x3eb819fc	0.35957325
60	0xbe054ae7	-0.13016854
61	0x3d0440bc	0.032288298
62	0x3d422922	0.04740251
63	0xbe19f986	-0.15036592
64	0x3daa341e	0.08310722
65	0x3d2f4978	0.042794675
66	0xbe924bdf	-0.2857351
67	0xbcecf907	-0.02892734
68	0xbd12c4cf	-0.035832223
69	0xbe801c25	-0.25021473
70	0xbe5396df	-0.20663022
71	0x3d912383	0.070868514
72	0xbe182f24	-0.14861733
73	0x3e920a52	0.285235
74	0xbdc1a6a7	-0.094556145
75	0xbe69a6ad	-0.22817488
76	0xbd62165a	-0.055197097
77	0x3e6994fe	0.22810742
78	0xbe588a33	-0.21146469
79	0xbe49e4ee	-0.19716236
80	0x3e4e4377	0.20142923
81	0xba13109e	-0.0005610081
82	0xbdb18410	-0.08667767
83	0xbe91a6b1	-0.28447488
84	0xbdccd662	-0.10001828
85	0x3d7f84f0	0.06238264
86	0x3e033c68	0.12816012
87	0xbdefa6c9	-0.117017336
88	0xbe27c9df	-0.16385601
89	0x3d889af4	0.0667018
90	0x3e31e2a7	0.17371617
91	0x3dcfed5d	0.10152695
92	0x3e0c46c2	0.13698867
93	0x3e8581d4	0.26075613
94	0x3d5678f6	0.05236145
95	0x3c4c2e73	0.012462246
96	0xbeaf4b43	-0.34237108
97	0x3eca62d4	0.39528525
98	0x3e6bf83b	0.23043911
99	0xbea796ef	-0.3273234
100	0xbe1bc188	-0.15210545
101	0x3d92e8f7	0.07173341
102	0x3ed60e42	0.41807753
103	0xbe653ff1	-0.22387673
104	0xbdbd3944	-0.09239438
105	0xbea6f481	-0.32608417
106	0xbd8a5c4b	-0.06755885
107	0x3e00816a	0.12549368
108	0x3f4448f1	0.766738
109	0x3f1ad82d	0.6048611
110	0x3e3ed061	0.18634178
111	0x3b0746e0	0.002064161
112	0x3ef60b9f	0.4805574
113	0xbeaa6902	-0.3328324
114	0xbde57403	-0.11203768
115	0xbddb9534	-0.107218176
116	0xbbbe62cf	-0.0058101187
117	0x3c08023a	0.008301312
118	0x3d512067	0.051056292
119	0xbe57b716	-0.21065935
120	0x3e25b50e	0.16182348
121	0xbd69af55	-0.057051975
122	0x3c7df98f	0.015501394
123	0x3ee5fc96	0.4491927
124	0xbec5fe49	-0.38670567
125	0x3b5d9684	0.0033811638
126	0x3e2c57a8	0.16830313
127	0xbe74adbb	-0.23894398
128	0xbd444ef6	-0.047926866
129	0xbcbc67ed	-0.022998774
130	0xbf6dafa8	-0.92846155
131	0xbdb89103	-0.09012034
132	0xbda28fec	-0.07937607
133	0xbf031b57	-0.5121359
134	0xbe9d424e	-0.3071465
135	0xbcf3db97	-0.029767795
136	0xbe91eb80	-0.28499985
137	0xbcb511a6	-0.022103142
138	0xbdd83e5e	-0.105587706
139	0x3ded3c04	0.11583713
140	0x3d83f550	0.06443274
141	0x3e87a210	0.2649083
142	0x3ec467f8	0.38360572
143	0xbd35788f	-0.044304427
144	0x3e45851c	0.19289058
145	0xbbff83a1	-0.007797674
146	0x3e433852	0.19064453
147	0xbe54bf1a	-0.20776024
148	0x3df63c7c	0.12023255
149	0xbdb47e7c	-0.088131875
150	0x3e295743	0.16537194
151	0x3dd29b0b	0.10283478
152	0x3cb1da04	0.021710403
153	0xbb8ea102	-0.0043526897
154	0xbe94021d	-0.28907862
155	0x3d5e01aa	0.054200806
156	0xbf5074d2	-0.81428254
157	0x3eace625	0.33769336
158	0xbe03f86b	-0.12887733
159	0xbdaa97a0	-0.083297014
160	0xbdbd68ed	-0.09248529
161	0x3e4eae3f	0.20183657
162	0x3e455fab	0.19274776
163	0x3e3ca115	0.18420823
164	0xbcf745c1	-0.030184628
165	0x3df477d5	0.11936919
166	0xbc4dbffe	-0.012557982
167	0x3e120589	0.14259924
168	0xbe1d1805	-0.15341194
169	0xbe374571	-0.17897584
170	0xbde343ca	-0.11096914
171	0x3e07e345	0.1327029
172	0x3e33fe02	0.17577365
173	0x3a8845e9	0.0010396811
174	0xbe1f8682	-0.15578654
175	0x3d075567	0.03304043
176	0x3bcfd2dd	0.0063422755
177	0xbc56a934	-0.013101865
178	0xbd254429	-0.040348206
179	0xbdf40e94	-0.11916843
180	0x3d5d8407	0.05408099
181	0x3daba0b1	0.08380259
182	0x3d944bcb	0.07241019
183	0x3e05b920	0.13058901
184	0xbe3f9502	-0.18709186
185	0x3cff083a	0.031131852
186	0xbdbd5191	-0.09244073
187	0x3c18ba83	0.009321812
188	0xbf1c66d5	-0.6109441
189	0xbd96adf3	-0.07357397
190	0x3d2d2a2c	0.042276546
191	0x3e354774	0.17703038
192	0xbd2e7ff6	-0.0426025
193	0xbc021d43	-0.007941547
194	0xbc91ab72	-0.017781947
195	0xbca1896f	-0.019718854
196	0xbdfbf2b7	-0.123021536
197	0xbe153923	-0.14572577
198	0xbd96cb06	-0.073629424
199	0xbd442e9d	-0.047896016
200	0x3dd2af6c	0.10287365
201	0xbd9bf58c	-0.07615194
202	0x3de67c8f	0.112542264
203	0x3ba27857	0.0049581933
204	0xbde1610a	-0.11004837
205	0x3e27d1d9	0.16388644
206	0x3dc9ba88	0.09850031
207	0xbe0718ea	-0.13193098
208	0xbda5bfe0	-0.08093238
209	0xbe5c76f2	-0.21529749
210	0x3d686d09	0.05674461
211	0xbc9b3ad4	-0.01894895
212	0x3e400eb1	0.18755604
213	0x3e4026c4	0.18764788
214	0x3b9bfe17	0.0047605145
215	0xbdd1254a	-0.102121904
216	0xbe0abcfd	-0.13548656
217	0x3dedebd3	0.116172455
218	0x3d05661a	0.032568075
219	0xbdb1d0a4	-0.08682373
220	0x3d9ef836	0.07762186
221	0x3db80bd2	0.089866295
222	0x3d413a33	0.047174644
223	0xbe39eb6f	-0.18156217
224	0x3d665652	0.056234665
225	0xbdb1a932	-0.086748496
226	0x3d9ac38b	0.07556828
227	0x3e87fb13	0.26558742
228	0xbdf1a908	-0.11799818
229	0x3db67074	0.089081675
230	0x3dbb6ca8	0.09151584
231	0x3c495512	0.012288349
232	0x3d1c4fc6	0.038162015
233	0xbeb17110	-0.34656572
234	0x3d292e06	0.041303657
235	0x3df6f352	0.120581284
236	0xb9917238	-0.00027741655
237	0x3e95600c	0.2917484
238	0x3ebffc84	0.37497342
239	0xbeaed9e6	-0.34150618
240	0x3d84ef8e	0.06491004
241	0xbe112037	-0.14172445
242	0xbe125636	-0.142907
243	0x3e4144a3	0.18873839
244	0x3b68f7fd	0.0035548203
245	0xbe084644	-0.13308054
246	0x3df4ba89	0.11949641
247	0xbdd4fee4	-0.10400179
248	0xbe038c51	-0.12846495
249	0x3c643096	0.013927599
250	0xbe17b23b	-0.14814083
251	0xbdb31212	-0.08743681
252	0xbec95727	-0.39324304
253	0xbd5b2ac5	-0.053507585
254	0x3e241e3b	0.16027157
255	0xbddd7f55	-0.10815302

encoder.4.bias f4 [64]
0	0x3bd43ec1	0.0064772074
1	0xbe8869c3	-0.2664319
2	0x3bfa6f43	0.007642658
3	0xbdd6c1ed	-0.10486207
4	0x3ea43327	0.32070276
5	0x3e225c3e	0.158555
6	0xbd683e6c	-0.056700155
7	0xbd96d19e	-0.073642
8	0xbe2d1753	-0.16903429
9	0x3e212b90	0.15739274
10	0xbd98b0b9	-0.07455582
11	0x3e33b487	0.17549334
12	0xbe81f94b	-0.25385508
13	0xbe42c05a	-0.19018689
14	0xbe0a03ea	-0.13478056
15	0xbd9c3a31	-0.07628287
16	0xbd0328de	-0.032021396
17	0xbea9ddae	-0.3317694
18	0xbe5a10f4	-0.2129553
19	0xbc397d84	-0.011321429
20	0x3dae34de	0.08506177
21	0xbe69b3dd	-0.22822519
22	0xbe0b57cc	-0.1360771
23	0x3d41dedb	0.047331672
24	0xbe3d5c4b	-0.18492238
25	0x3e1b51c4	0.1516791
26	0xbeab28b7	-0.334295
27	0xbe4dad9a	-0.20085755
28	0xbe68f4e2	-0.22749665
29	0xbe4c3517	-0.19942127
30	0xbcc900a5	-0.02453644
31	0xbc70e89d	-0.014703897
32	0x3c9a94e4	0.018869825
33	0xbe3c4f03	-0.18389516
34	0xbe050b5a	-0.12992612
35	0x3df67b13	0.12035193
36	0xbf013805	-0.50476104
37	0xbe11ab12	-0.14225414
38	0xbe3a2a5d	-0.18180223
39	0xbe61ce19	-0.22051276
40	0xbe17148e	-0.14753935
41	0xbdccf5b7	-0.10007804
42	0x3b48a509	0.0030615947
43	0xbe8ec2fd	-0.2788314
44	0xbe504884	-0.20340163
45	0xbe443bbb	-0.1916341
46	0xbe4700fe	-0.19433972
47	0x3e697c9f	0.22801445
48	0xbd77d303	-0.06050397
49	0xbe34ea10	-0.17667413
50	0x3da11ae3	0.07866456
51	0xbe27dd1b	-0.16392939
52	0x3e08c8d9	0.13357867
53	0x3c61aaf3	0.013773668
54	0xbe6a8cfd	-0.22905345
55	0xbe0f123d	-0.13971801
56	0xbe10d28f	-0.14142822
57	0xbc3cb4bc	-0.0115177
58	0xbda5bda2	-0.0809281
59	0xbe9d883c	-0.30768
60	0xbcf2e179	-0.02964853
61	0xbe5576a3	-0.20846038
62	0xbe37b463	-0.17939906
63	0xbeea7cf5	-0.4579846

encoder.6.weight f4 [64, 1, 5, 5]
0	0x3db61df8	0.08892435
1	0x3e6fe045	0.23425396
2	0xbe1a72b4	-0.15082818
3	0xbe5b3129	-0.21405472
4	0x3e80d916	0.25165623
5	0x3dcf82ff	0.101324074
6	0x3e223ea6	0.15844211
7	0x3cc6b713	0.024257218
8	0xbe5591a2	-0.20856336
9	0x3e153dc5	0.14574344
10	0x3de7dab0	0.11321008
11	0x3e496e1e	0.19670913
12	0x3e81c162	0.25342852
13	0xbe458b07	-0.19291316
14	0x3d1d0ba5	0.038341183
15	0x3e679e3f	0.2261896
16	0x3dc39ad5	0.09551016
17	0x3dc9c1bd	0.09851406
18	0xbf39fad2	-0.72648346
19	0xbda5ab78	-0.08089346
20	0x3e133522	0.14375737
21	0x3e0d4133	0.13794403
22	0x3e7523b4	0.23939401
23	0xbd41ec1d	-0.047344316
24	0x3c82a2c7	0.015946759
25	0x3d23b976	0.03997179
26	0x3e4176fa	0.18893042
27	0x3e3949c8	0.18094552
28	0xbe3ad2be	-0.18244454
29	0xbf087c7d	-0.53314954
30	0x3dfbe434	0.12299386
31	0xbdaead33	-0.08529129
32	0xbe85a84f	-0.26104972
33	0xbf2e0572	-0.6797706
34	0xbeaa46eb	-0.3325723
35	0xbe264c04	-0.16239935
36	0xbf0bb9b1	-0.5458022
37	0xbf5dabc0	-0.86590195
38	0xbf7d1190	-0.98854923
39	0xbef9526f	-0.48695704
40	0x3e61ff2e	0.2207
41	0x3ca5c866	0.020237159
42	0xbf231280	-0.63700104
43	0xbf74e2a7	-0.95658344
44	0xbee6eca6	-0.45102423
45	0x3ee353b3	0.44399795
46	0x3f3d770e	0.7400979
47	0x3ec0dd35	0.37668768
48	0xbec996e4	-0.39372933
49	0xbec88d13	-0.3917013
50	0x3d6e8a7d	0.05823754
51	0x3e01a96c	0.12662286
52	0x3e3d80a0	0.18506098
53	0xbec43fd9	-0.38329962
54	0xbe181366	-0.1485115
55	0x3df47c59	0.1193778
56	0xbe062a3f	-0.13102053
57	0xbc23d563	-0.009999606
58	0xbdb854ff	-0.09000587
59	0xbdcd8ba2	-0.100363985
60	0x3e1f17aa	0.15536371
61	0x3c41cde9	0.011828878
62	0x3e60e689	0.21962942
63	0xbe351c08	-0.17686474
64	0xbe6fe7af	-0.23428224
65	0xbce278d8	-0.027645513
66	0x3d8b1644	0.06791356
67	0x3e889132	0.26673275
68	0x3cde5920	0.027142107
69	0x3d3edc1f	0.046596643
70	0x3cc4dd7d	0.024031395
71	0x3debc38f	0.11511909
72	0x3e92bc5b	0.2865933
73	0xbea2b70a	-0.31780273
74	0x3ddd0bd0	0.10793269
75	0xbdcaecbe	-0.09908436
76	0xbe31f264	-0.17377621
77	0xbce2e850	-0.027698666
78	0x3ed3813b	0.41309533
79	0x3e87c20a	0.26515228
80	0xbe285862	-0.16439965
81	0xbe62470c	-0.22097415
82	0xbe07d479	-0.13264646
83	0x3ef83638	0.48478866
84	0x3ee17f4f	0.4404244
85	0xbe15e12e	-0.1463668
86	0xbd9bc3f7	-0.07605737
87	0x3dfa2c1f	0.12215447
88	0x3e63c42d	0.22242804
89	0x3e66657c	0.2249965
90	0xbd528273	-0.051393937
91	0x3c20390d	0.009779227
92	0x3e23b8bd	0.15988441
93	0x3e17ea93	0.14835577
94	0xbe150264	-0.14551693
95	0x3e54d9a2	0.20786145
96	0xbd290c97	-0.041271772
97	0xbe0fd9ac	-0.14047879
98	0xbdd8e3b5	-0.10590307
99	0xbe9b8530	-0.30375051
100	0xbc760397	-0.015015504
101	0x3c9182c6	0.017762553
102	0x3d7f9338	0.062396258
103	0x3db251fa	0.08707042
104	0x3e72f236	0.23725209
105	0x3d4cb133	0.049973678
106	0x3d9a9b87	0.07549196
107	0x3ea4a238	0.32155013
108	0x3ed4d002	0.41564947
109	0x3e6a3abd	0.2287397
110	0x3bdd238c	0.0067486223
111	0xbb813aa4	-0.003943758
112	0x3eaf44ca	0.3423217
113	0x3f07deda	0.5307442
114	0xbd15fbce	-0.036617093
115	0x3ec03338	0.37539077
116	0x3e9c601a	0.3054207
117	0x3f0972c2	0.5369073
118	0x3f075b21	0.52873427
119	0x3e9f37c5	0.31097236
120	0x3e67ce3a	0.22637263
121	0x3dc420d5	0.09576575
122	0x3e7fb784	0.2497235
123	0x3e9e9991	0.30976537
124	0x3e78d7e1	0.24301101
125	0x3e320ae2	0.17386964
126	0x3dcdf286	0.10056023
127	0x3d3267e6	0.043556117
128	0x3e8923be	0.26785082
129	0xbe114082	-0.14184764
130	0x3df6675f	0.12031435
131	0x3d5ffef6	0.05468651
132	0x3db25731	0.08708037
133	0x3bfc86dd	0.0077065066
134	0xbe0c34c7	-0.13692008
135	0x3e5aeae9	0.21378674
136	0xbdfb12b0	-0.12259424
137	0x3cfcacf0	0.030844182
138	0x3ddeaf0c	0.10873231
139	0xbe388484	-0.180193
140	0x3e3a7f15	0.1821254
141	0xbdfd4cad	-0.1236814
142	0xba5e606b	-0.00084829953
143	0x3d05c9f4	0.0326633
144	0xbe1d8148	-0.15381348
145	0xbe6f8bdf	-0.233932
146	0xbe14fa4d	-0.14548607
147	0x3cccf78a	0.02502038
148	0xbde7283c	-0.11286971
149	0xbe07649c	-0.13221973
150	0x3d68a138	0.056794375
151	0xbdf6a566	-0.12043266
152	0xbe0116b0	-0.12606311
153	0xbe0375c2	-0.1283789
154	0x3de90544	0.113779575
155	0xbe31ad46	-0.17351255
156	0x3a3c9fd9	0.000719545
157	0x3e0f94d1	0.14021613
158	0x3db3ee6b	0.08785709
159	0x3e0df0c4	0.13861376
160	0xbda5aca1	-0.08089567
161	0x3df01622	0.117229715
162	0xbd9db5f3	-0.0770072
163	0xbd66fa84	-0.056391254
164	0x3e29b8e3	0.16574435
165	0xbe0b2766	-0.13589248
166	0x3d9f47c0	0.07777357
167	0xbe0a1c48	-0.13487351
168	0xbe370dcd	-0.17876358
169	0x3e0360c7	0.12829886
170	0xbdf98b10	-0.12184727
171	0x3c05ff96	0.008178612
172	0x3e355002	0.17706302
173	0xbe05d452	-0.13069275
174	0x3e24bea3	0.16088347
175	0x3e2604aa	0.16212717
176	0x3d1cd2ad	0.038286854
177	0x3de78049	0.11303765
178	0x3defbddf	0.11706137
179	0xbcfa2225	-0.03053386
180	0x3e9c84b0	0.30569983
181	0x3e84d0df	0.25940606
182	0x3dc2bda3	0.095088266
183	0x3e9e697b	0.3093985
184	0xbcd93b76	-0.026517611
185	0x3e6f6270	0.23377395
186	0x3e55a370	0.20863128
187	0x3d91dfc8	0.07122761
188	0x3e97241a	0.2951973
189	0x3e26c828	0.16287291
190	0x3e8721f9	0.26393107
191	0x3e4ca7fd	0.19985957
192	0x3dfcc5be	0.12342404
193	0x3e5db63f	0.21651553
194	0x3e8f486f	0.2798495
195	0x3cd37b73	0.025815701
196	0x3db2a5ae	0.08723007
197	0x3d048290	0.032351077
198	0x3e97ec50	0.2967248
199	0xbd780153	-0.060548138
200	0xbe7459cd	-0.23862381
201	0xbe6e0bce	-0.2324669
202	0xbee99e86	-0.45628756
203	0xbf13dd47	-0.5775952
204	0xbeb8d1bb	-0.36097512
205	0xbf0ee73b	-0.5582158
206	0xbebb6b2f	-0.36605212
207	0xbd90d83c	-0.070724934
208	0xbd3a9e6c	-0.04556124
209	0xbeffa18d	-0.4992794
210	0xbf4290ff	-0.76002496
211	0x3e0affea	0.13574186
212	0x3f3c6527	0.73591846
213	0x3ecf7e84	0.4052621
214	0xbf192c67	-0.5983338
215	0xbe8f8f4c	-0.28039014
216	0x3f0f958d	0.5608757
217	0x3f637071	0.88843447
218	0x3ed6d3e5	0.41958538
219	0xbeac9ed8	-0.33714938
220	0x3e9845c7	0.29740736
221	0x3eb5c22c	0.35499704
222	0x3e215d22	0.15758184
223	0xbd84dfe9	-0.0648802
224	0xbe0fba99	-0.14036025
225	0x3e7d59c9	0.24741282
226	0x3e951449	0.2911704
227	0x3cbbcf66	0.022926044
228	0xbe2f6792	-0.17129353
229	0xbed82521	-0.42215827
230	0x3f0a508e	0.54029167
231	0x3ef1a76b	0.47198042
232	0x3eb185e9	0.34672478
233	0x3e0898e6	0.13339576
234	0xbeadb506	-0.33927172
235	0x3e87dbe7	0.2653496
236	0x3df86fd8	0.121307075
237	0x3ebea6ac	0.37236536
238	0x3e60b8cf	0.21945499
239	0xbd550d43	-0.0520146
240	0xbed2bd36	-0.4115998
241	0xbd44c8d4	-0.048043087
242	0x3d861ecc	0.06548843
243	0x3df700b9	0.12060685
244	0x3e3a7114	0.18207198
245	0xbf33d041	-0.70239645
246	0xbed9c8e4	-0.4253608
247	0x3ce65c73	0.028120255
248	0x3e4a4bb0	0.19755435
249	0xbd52a89e	-0.051430337
250	0x3d73b98b	0.05950312
251	0x3d8393f0	0.06424701
252	0x3e01b93f	0.12668322
253	0x3e288c3b	0.16459744
254	0x3cc5a4fe	0.024126526
255	0x3e3e0de3	0.18559985

encoder.6.bias f4 [64]
0	0x3c90a906	0.017658722
1	0x3c6a3923	0.014295849
2	0x3be910e1	0.007112608
3	0x3d4bb1fe	0.049730293
4	0xbde4aea6	-0.11166124
5	0xbd8a9b87	-0.06767946
6	0x3b7f1206	0.0038920655
7	0x3c8121b4	0.015763141
8	0xbb41f010	-0.0029592551
9	0x3d0a8cbf	0.033825632
10	0x3b26d164	0.0025454396
11	0x3d473bc7	0.048640992
12	0x3c3ce675	0.011529555
13	0xbd02dc4d	-0.031948376
14	0xbb84cdfe	-0.0040528765
15	0xbd876b75	-0.06612293
16	0x3d24dc54	0.040249184
17	0x3d01ec5d	0.031719554
18	0x3c95d7de	0.01829141
19	0xbd8d96c7	-0.06913524
20	0x3cc0ff1a	0.023559142
21	0x3ccb6920	0.024830401
22	0x3d9414a9	0.07230503
23	0x3d708d57	0.058728542
24	0xbdfc8fae	-0.12332092
25	0xbcc222e5	-0.02369828
26	0x3ca43e43	0.02004922
27	0x3d4bfb0f	0.049799975
28	0x3dcb47e3	0.09925821
29	0xbc88d445	-0.01670278
30	0x3d916f43	0.071012996
31	0x3dfb37aa	0.122664765
32	0x3d59a237	0.053133216
33	0xbbf8d78d	-0.007594055
34	0x3bf90302	0.0075992355
35	0x3c9eb07c	0.019371264
36	0xbd75b4ab	-0.05998675
37	0xbc4ed2e2	-0.012623521
38	0x3d936800	0.07197571
39	0x3a7af134	0.0009572685
40	0xbbb26d46	-0.0054451553
41	0x3d07cd16	0.03315457
42	0x3b825cc6	0.0039783446
43	0xbd9df65d	-0.07713006
44	0xbc05d5dc	-0.008168664
45	0x3cf60d06	0.030035507
46	0x3ae07131	0.0017123577
47	0x3d17e067	0.03707924
48	0xbdadf207	-0.08493429
49	0x3d76d89a	0.06026516
50	0xbcbf51dd	-0.023354465
51	0x3bfaaf37	0.007650282
52	0x3be11015	0.006868372
53	0x3c5ceb26	0.013483798
54	0xbc9d7ab8	-0.019223556
55	0xbd4199a0	-0.04726565
56	0xbdbf35cb	-0.09336432
57	0x3bcc1b11	0.0062288125
58	0x3d392c9a	0.04520855
59	0xbc5a1339	-0.013310247
60	0xbd15711e	-0.03648483
61	0x3c4b8d5f	0.012423842
62	0xbe813f19	-0.25243452
63	0xbd448f05	-0.047987957

encoder.7.weight f4 [128, 64, 1, 1]
0	0x3d9c8675	0.07642833
1	0xbd50bab0	-0.05095929
2	0x3e01838e	0.1264784
3	0xbd7c7077	-0.061630692
4	0x3dfe7542	0.12424709
5	0xbcf9f323	-0.030511444
6	0xbc749fbf	-0.014930665
7	0x3cc204a2	0.02368385
8	0x3d4f577d	0.050620545
9	0xbe6774bf	-0.22603129
10	0x3dc937de	0.09825109
11	0xbd4b5dab	-0.049649876
12	0xbafc4afb	-0.001924842
13	0xbd25d781	-0.040488724
14	0x3d22e917	0.039773073
15	0x3d898918	0.06715602
16	0x3db3f1c0	0.087863445
17	0xbd86951e	-0.065714106
18	0x3ddc34fa	0.10752292
19	0xbd90dd5b	-0.0707347
20	0x3e20c009	0.15698256
21	0xbdaee04d	-0.08538876
22	0xbdcaf132	-0.099092856
23	0x3d468a5f	0.048471805
24	0x3eadd2c9	0.3394988
25	0x3dc4e61b	0.09614202
26	0x3dea0726	0.11427145
27	0xbe55a3c8	-0.20863259
28	0xbd8617d4	-0.065475136
29	0x3df727be	0.12068127
30	0xbdc92cd3	-0.09823003
31	0xbc1529b2	-0.009104179
32	0x3e971499	0.29507902
33	0xbce00d8a	-0.027350206
34	0xbd99a0a1	-0.07501341
35	0xbeae2c09	-0.3401797
36	0xbd3acb66	-0.045604132
37	0xbdd9a23d	-0.106266476
38	0x3e829f3c	0.2551211
39	0xbcbf48cb	-0.02335014
40	0xbd990535	-0.07471696
41	0xbe570865	-0.20999296
42	0xbc55138a	-0.013005147
43	0x3e31a286	0.17347154
44	0xbd3b968c	-0.04579787
45	0xbd27d230	-0.040971935
46	0x3d9cb695	0.07652012
47	0xbd46becb	-0.048521798
48	0x3dfede19	0.124447055
49	0xbd59f69c	-0.0532137
50	0x3ded68e8	0.11592275
51	0xbd43437f	-0.04767179
52	0xbd8bca48	-0.068256915
53	0x3d5519c9	0.052026544
54	0x3e2ee41d	0.17079206
55	0x3da15cf7	0.0787906
56	0xbe3bee37	-0.1835259
57	0xbd85e755	-0.06538264
58	0x3c0803d5	0.008301695
59	0xbe805e81	-0.250721
60	0xbd207640	-0.039175272
61	0xbe3692ee	-0.17829487
62	0xbd25557d	-0.04036473
63	0xbdc7e0b5	-0.09759656
64	0xbe3b1a6d	-0.182718
65	0x3bed12f4	0.0072349254
66	0x3df937f3	0.121688746
67	0xbe062f35	-0.13103946
68	0x3bbb0411	0.005707272
69	0x3ed62bc9	0.4183028
70	0x3d3c8a90	0.04603058
71	0xbcc06367	-0.023484899
72	0xbee1b2a1	-0.44081596
73	0xbea546bd	-0.32280532
74	0x3d42f436	0.04759618
75	0xbd68b258	-0.056810707
76	0x3e4e138d	0.20124646
77	0xbf2e5e8c	-0.6811302
78	0x3d9ee5d3	0.07758679
79	0x3c80b697	0.015712066
80	0x3e94ed10	0.29087114
81	0xbe71217c	-0.2354793
82	0xbe8dce16	-0.27696294
83	0x3ecfbaef	0.40572307
84	0x3e368ad8	0.17826402
85	0x3d591139	0.05299494
86	0x3df04bc3	0.117332004
87	0x3e4c9f5f	0.1998267
88	0x3f8f8b47	1.1214379
89	0xbea38e20	-0.3194437
90	0xbf29d19a	-0.6633545
91	0xbe2a2aef	-0.1661794
92	0xbf1c3113	-0.6101238
93	0x3e2c6a8f	0.16837524
94	0xbe3ee25c	-0.18641037
95	0xbe91c84c	-0.28473127
96	0x3ea63fa8	0.3247044
97	0xbde254f6	-0.11051361
98	0x3d615c0f	0.055019435
99	0xbecfd1d0	-0.40589762
100	0x3ef45c98	0.47726893
101	0xbf911537	-1.1334599
102	0x3e4ec67e	0.20192906
103	0x3dba679c	0.09101793
104	0x3ed5c767	0.41753694
105	0xbecdecfc	-0.40219867
106	0x3e8d2a19	0.2757118
107	0x3e5dbe3d	0.21654601
108	0x3c0557cb	0.008138607
109	0x3e081ca0	0.1329217
110	0x3df3ae2b	0.11898454
111	0xbcf2af45	-0.02962459
112	0xbe1b9fdf	-0.15197705
113	0xbd1c9ac3	-0.03823353
114	0xbde66338	-0.11249393
115	0x3e3eaf36	0.18621525
116	0x3dc19ff4	0.09454337
117	0x3cd37feb	0.025817832
118	0x3f8a431e	1.0801733
119	0xbe0cd9d7	-0.13754974
120	0xbecad315	-0.39614168
121	0x3dce3aad	0.10069785
122	0xbdcbb7d8	-0.09947175
123	0x3e20919b	0.15680544
124	0xbf435f23	-0.7631704
125	0xbe4d07f9	-0.20022573
126	0x3e825ebc	0.25462902
127	0x3f0f8b87	0.56072277
128	0x3ea9b26e	0.33143944
129	0xbf6010bb	-0.8752553
130	0xbdf2ffd2	-0.118652
131	0x3e880290	0.26564455
132	0xbec5c69d	-0.38628092
133	0xbd3b6175	-0.04574724
134	0xbe8141d2	-0.2524553
135	0x3eb74f7e	0.35802835
136	0x3f35986c	0.709357
137	0x3daf49b5	0.085589804
138	0xbdc2c0a6	-0.09509401
139	0xbe389387	-0.18025027
140	0xbdda3612	-0.10654844
141	0x3f2823ca	0.6567961
142	0xbeaa9710	-0.33318377
143	0x3d96262a	0.07331498
144	0xbf9ee97e	-1.2415006
145	0x3f49f25a	0.78885424
146	0x3d9c758c	0.07639608
147	0xbe652f77	-0.22381388
148	0xbc61a4a9	-0.013772168
149	0xbe8de23f	-0.27711675
150	0x3c978a3e	0.018498536
151	0xbe5e81c2	-0.21729186
152	0x3eafd8a5	0.34344974
153	0x3eddb608	0.4330294
154	0x3e002c06	0.12516794
155	0xbd2dd582	-0.042439945
156	0x3e3e6ba4	0.18595749
157	0xbee5ad5d	-0.44858828
158	0xbf50894a	-0.81459486
159	0x3e0ec041	0.13940527
160	0xbf04b1cb	-0.5183379
161	0x3ee6fe6a	0.45115978
162	0xbf0e13c4	-0.5549891
163	0x3ef935fa	0.48673993
164	0x3dffe390	0.12494576
165	0x3f20cde5	0.6281417
166	0xbf16a722	-0.58848774
167	0x3e83aa63	0.25715932
168	0x3e2346d3	0.15944986
169	0x3f1ef1b3	0.62087554
170	0xbe4f2610	-0.20229363
171	0xbf353b7d	-0.70793897
172	0xbec3c07c	-0.3823279
173	0xbf1f0076	-0.6211008
174	0x3c874780	0.016513586
175	0x3cb7c788	0.022434011
176	0xbe4b6c7e	-0.19865605
177	0x3e5adc85	0.21373184
178	0x3e13ab85	0.14420898
179	0xbf20708f	-0.6267175
180	0xbdab6b35	-0.083700575
181	0xbc0d056f	-0.0086072525
182	0xbf93821b	-1.152408
183	0x3e1154b3	0.14192466
184	0x3d3ca0fb	0.04605196
185	0x3e7f6404	0.24940497
186	0xbd9d6ee8	-0.07687169
187	0xbe609bcb	-0.2193443
188	0x3e61729f	0.2201638
189	0xbea3c2e8	-0.3198464
190	0x3f0c115b	0.5471398
191	0x3e2e1fc6	0.17004308
192	0xbbeed87c	-0.0072889905
193	0x3ea33bfc	0.31881702
194	0xbd5f0de5	-0.05445661
195	0xbe12c2cc	-0.14332122
196	0xbde3e2ab	-0.11127218
197	0x3ec783e7	0.3896782
198	0xbd230d23	-0.03980745
199	0xbeb2b74e	-0.34905475
200	0xbea03b2e	-0.3129515
201	0xbe8353fe	-0.25650018
202	0x3ce1409a	0.027496625
203	0xbe920272	-0.2851749
204	0x3deca39b	0.11554643
205	0xbebc9b92	-0.3683744
206	0x3d9d29be	0.07673977
207	0xbe9132aa	-0.28358966
208	0xbdfd6a80	-0.12373829
209	0xbdb959eb	-0.090503536
210	0xbe52a972	-0.20572451
211	0xbe0e666e	-0.13906261
212	0xbcde5a54	-0.027142681
213	0x3ea71f20	0.32640934
214	0x3d16de48	0.036833078
215	0xbdf7ec3d	-0.12105606
216	0x3d8285ba	0.063731626
217	0x3cca20ad	0.024673784
218	0xbe2d71eb	-0.16937988
219	0x3e1254c7	0.14290152
220	0xbe4f364e	-0.2023556
221	0x3e29cf22	0.16582921
222	0x3e988643	0.29789934
223	0xbf1541f4	-0.5830376
224	0xbecf001e	-0.40429777
225	0x3d37e6f0	0.044897974
226	0x3d0aeb78	0.033915967
227	0x3e19df96	0.15026698
228	0x3d5d2b23	0.053996217
229	0xbeccab59	-0.39974478
230	0xbe8c05e5	-0.27348247
231	0x3d249c5b	0.040188175
232	0x3ddba628	0.10725051
233	0x3e5b1699	0.21395339
234	0x3d0ce8d1	0.03440172
235	0x3e04f1ea	0.12982908
236	0x3e4f24d4	0.20228893
237	0xbdd6ba16	-0.10484712
238	0xbe6d62f1	-0.23182274
239	0x3df01cc9	0.1172424
240	0x3ed4643a	0.41482717
241	0xbebc00c5	-0.36719337
242	0xbeb0c018	-0.34521556
243	0xbdb92019	-0.09039325
244	0x3e65f0f0	0.22455192
245	0xbe1c3fdb	-0.15258734
246	0x3dcc4eaf	0.09975945
247	0xbe2fb4b5	-0.17158778
248	0xbcf8095d	-0.030277902
249	0xbcd7e09e	-0.026352223
250	0xbead5e42	-0.33860976
251	0xbcdcf892	-0.026973996
252	0xbe27c20d	-0.16382618
253	0xbdfce3e7	-0.123481564
254	0x3c3e672c	0.011621278
255	0xbee000ff	-0.4375076

encoder.7.bias f4 [128]
0	0xbcc48782	-0.023990396
1	0xbc83c7dc	-0.016086511
2	0x3f365d19	0.71235806
3	0x3d86f5c0	0.06589842
4	0xbd7bfbdd	-0.061519492
5	0xbec62297	-0.38698265
6	0x3e0b29c9	0.13590159
7	0xbda749ff	-0.081684105
8	0xbe8f6c0c	-0.2801212
9	0xbdc0d86e	-0.09416281
10	0xbdaf6503	-0.08564188
11	0xbe160702	-0.14651111
12	0xbdce1c1c	-0.10063955
13	0x3ec81c19	0.39083937
14	0x3e48aba6	0.19596729
15	0xbd9603c4	-0.07324937
16	0xbe224239	-0.15845574
17	0xbd2acd62	-0.041699775
18	0xbdb672da	-0.08908625
19	0xbd97d430	-0.074135184
20	0x3e0d11c9	0.13776316
21	0x3dc6296d	0.0967587
22	0x3e093416	0.13398775
23	0xbe9e93bd	-0.3097209
24	0x3daa960f	0.08329403
25	0xbe9ea0eb	-0.30982146
26	0xbf081be7	-0.53167576
27	0xbdad4f8a	-0.084624365
28	0x3d07b23c	0.033128962
29	0xbed80e97	-0.4219863
30	0x3eca8c27	0.39560053
31	0x3eacf827	0.33783075
32	0x3dbf560f	0.09342586
33	0x3d274082	0.040833004
34	0xbe3366c6	-0.17519674
35	0x3ccfc6dc	0.025363378
36	0xbe5e777d	-0.21725269
37	0xbe03839f	-0.12843178
38	0x3f060b33	0.5236084
39	0xbdf2ff0a	-0.11865051
40	0xbc289932	-0.010290431
41	0xbea6818b	-0.32520708
42	0xbf227af7	-0.6346888
43	0xbda83823	-0.08213832
44	0x3e49dc81	0.19713022
45	0xbe8c0f0d	-0.27355233
46	0xbe2242d3	-0.15845804
47	0x3d6fbff6	0.058532678
48	0xbdace683	-0.08442404
49	0xbdc03ad2	-0.09386219
50	0xbd8526ee	-0.06501566
51	0x3cea2dc8	0.028586283
52	0xbc892631	-0.016741844
53	0xbe8ef3c8	-0.27920365
54	0x3f4a2cff	0.7897491
55	0xbd2474a6	-0.040150307
56	0x3e08998c	0.13339823
57	0xbe4bad3c	-0.19890302
58	0xbec9f564	-0.3944503
59	0x3d7232e4	0.059130564
60	0xbcf04279	-0.029328572
61	0xbed20d33	-0.41025695
62	0x3db7a4a7	0.08966952
63	0x3dbc8272	0.09204568
64	0xbe27f265	-0.1640106
65	0xbde6acf5	-0.11263458
66	0xbe92b66a	-0.28654796
67	0xbe2b9588	-0.1675626
68	0xbe620e13	-0.22075681
69	0xbe1102fe	-0.14161298
70	0xbedc593f	-0.4303684
71	0xbe4da5c3	-0.20082764
72	0xbe2fee2a	-0.17180696
73	0x3d1b64d6	0.03793796
74	0xbbbeeda5	-0.0058266693
75	0xbdcbcb63	-0.09950902
76	0x3d49b779	0.04924724
77	0x3cb5d9f9	0.022198664
78	0xbe6ebb7a	-0.23313704
79	0xbb8837d3	-0.0041570454
80	0xbf17285b	-0.5904595
81	0xbef4f364	-0.47841942
82	0xbe22848e	-0.15870878
83	0xbe518f4e	-0.20464823
84	0xbd8b95be	-0.068156704
85	0x3c7f9c8f	0.015601291
86	0xbc993f74	-0.018707015
87	0xbde2db79	-0.11077017
88	0x3cb79432	0.022409532
89	0x3e69cbfd	0.22831722
90	0xbc9a57ef	-0.018840758
91	0x3d0edade	0.034876697
92	0xbe1afebe	-0.15136239
93	0xbda8580d	-0.08219919
94	0xbe44ede7	-0.19231378
95	0xbda122c6	-0.07867961
96	0xbdf5be8a	-0.11999233
97	0xbb851480	-0.0040612817
98	0x3c447afe	0.011992214
99	0x3d0beb13	0.03415973
100	0xbd9b4b9a	-0.07582779
101	0xbe56f296	-0.20990977
102	0xbda5f960	-0.08104205
103	0xbda3effc	-0.08004758
104	0xbc391a0d	-0.011297715
105	0xbe208f99	-0.15679778
106	0xbe1fc5a9	-0.15602745
107	0xbccfe23b	-0.02537643
108	0xbe7ee290	-0.24891114
109	0x3e434fae	0.19073364
110	0xbea76ed7	-0.32701752
111	0xbd9bd5f9	-0.076091714
112	0x3d4b0a8c	0.049570605
113	0xbcdf25ee	-0.027239766
114	0xbc808c00	-0.015691757
115	0x3e24b51d	0.16084714
116	0xbee4dea2	-0.44701105
117	0xbb683b25	-0.0035435644
118	0xbd0646a0	-0.032782197
119	0xbe56bb22	-0.20969823
120	0xbd40fa62	-0.047113784
121	0x3c355318	0.011067174
122	0x3d8708ea	0.06593497
123	0xbe1f465c	-0.15554184
124	0xbe179b81	-0.14805414
125	0x3d6654b0	0.056233108
126	0xbeab5095	-0.33459917
127	0x3c89f1ca	0.016838927

encoder.9.weight f4 [128, 1, 5, 5]
0	0xbe3e087f	-0.18557929
1	0xbda80119	-0.08203334
2	0xbe72d98d	-0.23715802
3	0xbe5d67fb	-0.21621697
4	0xbdbfacab	-0.09359106
5	0xbe42880e	-0.18997213
6	0xbd71bbd1	-0.059017006
7	0x3df985a4	0.12183693
8	0x3e081d4b	0.13292424
9	0x3e2a01bc	0.16602224
10	0x3e88e962	0.26740557
11	0x3d228d4a	0.039685525
12	0xbc25599b	-0.010092164
13	0xbe09cb82	-0.13456538
14	0xbe5b4db0	-0.21416354
15	0x3b7b9c88	0.003839286
16	0xbe07d533	-0.13264923
17	0x3e8dcfe6	0.27697676
18	0xbda3bc30	-0.07994878
19	0x3e334763	0.175077
20	0x3e4a5488	0.19758809
21	0xbda27102	-0.07931711
22	0xbeaadff4	-0.33373988
23	0xbe719dd7	-0.23595367
24	0xbeab510c	-0.3346027
25	0xbec20c89	-0.3790019
26	0xbc941cb2	-0.01808009
27	0x3e91b50d	0.28458443
28	0x3e05b65e	0.13057849
29	0xbb43beb1	-0.00298683
30	0xbc7ea52a	-0.015542308
31	0x3e5dba42	0.21653083
32	0x3ea571c1	0.3231335
33	0x3e1b0ff3	0.15142803
34	0xbdcb1261	-0.09915615
35	0x3e50de52	0.20397308
36	0x3e412e38	0.18865287
37	0x3ef67c07	0.481415
38	0x3e2a093a	0.16605082
39	0xbe3c47bf	-0.18386744
40	0x3e4e3cb8	0.2014035
41	0x3cf3a288	0.029740587
42	0xbdda8721	-0.10670305
43	0xbf3d940f	-0.74054044
44	0xbf1d3897	-0.61414474
45	0x3ce298bc	0.02766072
46	0xbd93a877	-0.072098665
47	0xbd7cc2be	-0.061709158
48	0xbeda4213	-0.42628536
49	0xbd5e2136	-0.05423089
50	0x3d16998f	0.03676754
51	0x3daf0c44	0.08547261
52	0x3cfe776a	0.0310628
53	0x3cea4e17	0.02860169
54	0x3daad9bf	0.08342313
55	0x3d99aa09	0.07503135
56	0xbe822938	-0.25422072
57	0xbeb0e3cc	-0.34548795
58	0x3da5d844	0.0809789
59	0x3e4cad9e	0.19988105
60	0x3e2b6873	0.16739063
61	0xbe920b17	-0.28524086
62	0xbf47782c	-0.7791774
63	0xbcc049ce	-0.023472693
64	0x3e9bbcf1	0.30417588
65	0x3c1456c6	0.0090538915
66	0xbd6bbc2a	-0.057552494
67	0x3e9c3125	0.30506244
68	0x3d5ed9fd	0.05440711
69	0xbdf24509	-0.11829574
70	0x3e428edc	0.18999809
71	0x3e01c689	0.12673391
72	0x3e974528	0.2954495
73	0xbdd89e89	-0.10577113
74	0xbeb7eade	-0.35921377
75	0x3e834f89	0.25646618
76	0x3ecee77c	0.40410984
77	0x3e1d6ff4	0.15374738
78	0x3dacfaf9	0.08446307
79	0xbdc73b9d	-0.09728167
80	0x3e85561b	0.26042256
81	0x3e977740	0.29583168
82	0x3c334234	0.010941077
83	0xbd6e6dbe	-0.058210127
84	0x3e901d7c	0.28147495
85	0x3d244d75	0.04011293
86	0xbbcd4aa3	-0.006265001
87	0xbe11922b	-0.14215915
88	0xbe588094	-0.21142799
89	0x3e356641	0.17714788
90	0x3e3f9618	0.187096
91	0x3cf3ccf6	0.029760819
92	0xbe2f8701	-0.17141344
93	0x3e6f82f3	0.23389797
94	0x3f132fb7	0.5749468
95	0x3dfeb86c	0.124375194
96	0x3c267af7	0.010161153
97	0x3dcd9b8a	0.10039432
98	0x3f0c7953	0.54872626
99	0x3ed1d69f	0.40984055
100	0xbe858849	-0.2608054
101	0xbe2371da	-0.159614
102	0xbe3adc49	-0.18248095
103	0xbe6a00d3	-0.22851877
104	0xbdc22b45	-0.09480909
105	0xbd6beec4	-0.05760075
106	0xbe1520db	-0.14563315
107	0xbed26911	-0.41095784
108	0xbeadf1b5	-0.3397347
109	0xbe9005f0	-0.2812953
110	0xbed413e9	-0.4142144
111	0xbebdc895	-0.37067094
112	0xbe839abc	-0.2570399
113	0x3db23430	0.0870136
114	0x3dd820ef	0.105531566
115	0xbeaf9095	-0.34289995
116	0xbeb9a9aa	-0.36262256
117	0xbd11e729	-0.035620842
118	0x3e1dd015	0.15411408
119	0x3e9ced37	0.3064973
120	0xbeb7a1a4	-0.3586551
121	0xbc2a4de4	-0.010394547
122	0x3e96bc60	0.29440594
123	0x3e496d05	0.19670494
124	0x3c775328	0.01509551
125	0xbd619646	-0.055074953
126	0xbd609b60	-0.054835677
127	0x3e99b384	0.30019772
128	0x3e736642	0.23769477
129	0x3df3f4de	0.11911939
130	0xbbaeb118	-0.00533117
131	0x3d95c0e9	0.07312185
132	0x3ed9c2e5	0.42531505
133	0x3ed48f69	0.41515663
134	0x3eb7d36f	0.359035
135	0x3eb7c45b	0.35891995
136	0x3f07e8b3	0.53089446
137	0x3f2d4169	0.6767793
138	0x3f4b588b	0.7943198
139	0x3edc5743	0.43035325
140	0x3ec24795	0.37945238
141	0x3f187495	0.5955289
142	0x3f4b85e5	0.7950118
143	0x3f8d9fa5	1.1064345
144	0x3f0984b4	0.53718114
145	0x3df33d93	0.11876979
146	0x3ec28561	0.37992385
147	0x3f1235bc	0.5711324
148	0x3f30a579	0.6900249
149	0x3ebaad50	0.36460352
150	0xbcb19e26	-0.021681856
151	0xbe9f5287	-0.3111765
152	0xbeab6c5a	-0.33481103
153	0xbe59fc9f	-0.21287774
154	0x3e052d6b	0.13005607
155	0x3e2bba47	0.16770278
156	0x3ec726a2	0.38896662
157	0x3e20147c	0.15632814
158	0xbe9be8d0	-0.3045106
159	0xbe81f814	-0.2538458
160	0x3eba684f	0.36407706
161	0x3f50b304	0.81523156
162	0x3f36e915	0.71449405
163	0xbeac2ea4	-0.33629334
164	0xbf1c296d	-0.6100071
165	0x3e17af5e	0.14812991
166	0x3ef8a1cf	0.4856095
167	0x3e4077fa	0.18795767
168	0x3bfb27da	0.007664663
169	0xbe072479	-0.13197507
170	0x3cdcb920	0.026943743
171	0xbd9ac0f7	-0.075563364
172	0x3e51884b	0.20462148
173	0x3e833e7d	0.25633612
174	0x3dbcaa7e	0.09212206
175	0x3dbcdb84	0.09221557
176	0xbd97c7cf	-0.07411157
177	0xbd4cc437	-0.049991813
178	0xbe81b857	-0.25335953
179	0xbe724565	-0.23659284
180	0xbe6d76bc	-0.23189825
181	0xbeea473a	-0.45757467
182	0xbf03f76f	-0.5154943
183	0xbeb7c811	-0.35894826
184	0x3cfb2502	0.030657295
185	0xbe97747f	-0.29581067
186	0xbf06c17c	-0.52638984
187	0xbec4bd6f	-0.38425776
188	0xbe95e53f	-0.29276463
189	0xbea369ff	-0.31916806
190	0xbe655ac0	-0.223979
191	0xbe911b01	-0.28340915
192	0x3da0f080	0.07858372
193	0x3d2a52da	0.04158292
194	0xbec31f37	-0.38109753
195	0xbb8b4891	-0.004250594
196	0xbc013510	-0.007886186
197	0x3d6e1ae7	0.058131125
198	0xbd2d38e0	-0.04229057
199	0xbe67b019	-0.2262577
200	0xbc1b4602	-0.00947714
201	0x3ded17b2	0.11576785
202	0xbe8086c7	-0.25102827
203	0xbd0c144d	-0.034199048
204	0xbdca41cc	-0.09875831
205	0x3cb9656f	0.022631375
206	0x3d1310ab	0.035904568
207	0x3e8cd2bf	0.27504537
208	0xbe819c20	-0.25314426
209	0x3e0eeec0	0.13958263
210	0x3c98e0ed	0.01866194
211	0xbeb55f24	-0.3542415
212	0x3f175d37	0.5912661
213	0x3e1d09b5	0.15335734
214	0xbdee581e	-0.11637901
215	0x3ddb2943	0.107012294
216	0x3e86c2b9	0.26320437
217	0xbf1a2122	-0.60206807
218	0x3eb3daf1	0.35127977
219	0xbe132ae2	-0.14371827
220	0xbf1c812b	-0.61134595
221	0x3e3ff504	0.1874581
222	0x3e7b65d2	0.2455056
223	0xbd849425	-0.06473569
224	0xbe4b92bb	-0.19880192
225	0x3e8f159d	0.27946177
226	0xbd708968	-0.05872479
227	0x3e76d3d7	0.24104248
228	0x3f085c50	0.5326586
229	0x3eb81ed7	0.3596103
230	0x3e816a18	0.25276256
231	0xbc9fe73d	-0.019519443
232	0x3ea1bd50	0.31589746
233	0x3eda9167	0.42689058
234	0x3ea106ab	0.314504
235	0x3e72c2c1	0.23707105
236	0x3ee20a52	0.441485
237	0x3f3b1c5f	0.73090166
238	0x3f1b6d93	0.6071407
239	0x3e2208c4	0.15823656
240	0x3eb83b6f	0.35982844
241	0x3f15ec3b	0.58563584
242	0x3f4c4a78	0.7980113
243	0x3f5a6f97	0.8532652
244	0x3e0af932	0.13571623
245	0x3edbd4f6	0.42935914
246	0x3e3f9a6f	0.18711255
247	0x3eef4a6e	0.46736473
248	0x3ed99b2c	0.425012
249	0xbe64294a	-0.22281376
250	0x3dff7fdc	0.12475559
251	0x3eae823f	0.34083745
252	0x3e8ff1df	0.2811422
253	0x3d79166e	0.060812406
254	0xbdad1cfa	-0.084527925
255	0x3eec4c24	0.4615184

encoder.9.bias f4 [128]
0	0xbc2e304a	-0.01063163
1	0xbceb8689	-0.028750675
2	0x3d98aa75	0.07454387
3	0x3d55c095	0.052185614
4	0x3d3b3e89	0.045713935
5	0xbd6f55c1	-0.05843139
6	0x3c57c659	0.013169848
7	0x3ce35d75	0.027754525
8	0x3e4607e9	0.19338955
9	0xbcd800d9	-0.026367592
10	0xbcdda6dc	-0.027057104
11	0x3c712840	0.014719069
12	0xbd6987ea	-0.057014383
13	0x3e00ac32	0.12565687
14	0xbd181ecd	-0.03713875
15	0x3c152661	0.0091033885
16	0xbd4606f2	-0.048346467
17	0xbd90e3c4	-0.07074693
18	0xbd18558f	-0.03719097
19	0xbd14591d	-0.036217798
20	0xbc37ad97	-0.011210821
21	0xbc1f7457	-0.009732327
22	0x3cd3e509	0.025866048
23	0x3d991235	0.07474176
24	0x3d26e43e	0.040745012
25	0xbc0dd39f	-0.008656411
26	0x3d0a1dfa	0.033719994
27	0x3d157ff9	0.036498997
28	0x3cc8c784	0.024509199
29	0xbca48990	-0.020085126
30	0x3cc8faab	0.02453359
31	0x3dc0f107	0.09420972
32	0x3e11610e	0.1419718
33	0x3cc2a3d6	0.023759764
34	0x3d727f8b	0.059203666
35	0xbce0eb97	-0.027456088
36	0x3ce10ca0	0.02747184
37	0xbc2ba6a7	-0.010476745
38	0x3d2820ae	0.04104679
39	0x3cc8a0d1	0.024490746
40	0x3cd5f952	0.026119862
41	0x3d9db91b	0.07701322
42	0x3d692e2e	0.056928806
43	0xbd2f3711	-0.042777125
44	0x3ccac704	0.024753101
45	0xbb869fbb	-0.004108397
46	0x3deb70c1	0.114961155
47	0x3e011fab	0.12609737
48	0x3bce3311	0.0062927087
49	0xbd0ebfb5	-0.034850795
50	0xbd8c1812	-0.068405285
51	0xbc731550	-0.014836624
52	0xbb241837	-0.0025038847
53	0xbcbfc196	-0.023407739
54	0x3c9b284d	0.018940115
55	0xbcd4cc6f	-0.025976388
56	0xbbce8ac7	-0.0063031646
57	0x3d137f88	0.036010295
58	0x3d05fdb2	0.032712646
59	0xbd1dfb6b	-0.03856985
60	0xbd890819	-0.06690998
61	0xbdfc4ac1	-0.12318946
62	0xbcfbadba	-0.030722488
63	0x3d41542a	0.047199406
64	0xbd00e842	-0.0314715
65	0x3c656466	0.014000988
66	0xbca2eec5	-0.019889245
67	0xbd278f1c	-0.040907964
68	0x3b916f15	0.004438291
69	0xbc5672d1	-0.013088898
70	0x3d2e7ff6	0.0426025
71	0xbbaac6db	-0.0052116937
72	0xbd23c767	-0.039985087
73	0xbaf0ed8d	-0.0018381343
74	0x3cbcafc1	0.023033025
75	0x3c1a4a02	0.009417059
76	0x3dbccda5	0.09218911
77	0xbc8b3e2f	-0.016997425
78	0x3dcae41b	0.09906789
79	0x3c6d5919	0.014486575
80	0xbd9e13ce	-0.07718621
81	0xbcf794d2	-0.03022233
82	0x3c4fed90	0.012690917
83	0x3ca808b5	0.020511964
84	0x3d0793ca	0.033099927
85	0xbba7c1a8	-0.005119521
86	0xbb2e15a9	-0.0026563203
87	0x3b96ca97	0.0046017873
88	0x3dc78d22	0.09743716
89	0xbdc180cc	-0.09448394
90	0xbc677734	-0.014127541
91	0x3ba3408a	0.004982059
92	0xbd11c257	-0.035585728
93	0xbdef040d	-0.116706945
94	0x3d239259	0.03993449
95	0xbc0cbe45	-0.008590286
96	0xbdf6e6ac	-0.12055716
97	0xbd9dd237	-0.07706111
98	0xbcddbb30	-0.027066797
99	0xbae7b804	-0.0017678742
100	0xbcf961cd	-0.030442143
101	0xbd4c1aaa	-0.049830116
102	0x3dd327d7	0.10310333
103	0x3c13409a	0.00898757
104	0x3c3f7635	0.011685898
105	0xbd5ff735	-0.054679114
106	0x3bb5778c	0.0055379327
107	0x3d8ce6a0	0.06879926
108	0x3c9c532f	0.019082634
109	0x3de53ddb	0.111934386
110	0x3cacc70c	0.021091007
111	0x3e04beda	0.12963429
112	0xbd852d57	-0.065027885
113	0xbc993b7e	-0.018705126
114	0xbc714b8d	-0.014727485
115	0x3e321ed1	0.17394568
116	0x3d284c71	0.041088525
117	0x3dbca39c	0.092108935
118	0xbdfa9652	-0.122357026
119	0xbb6e158b	-0.0036328759
120	0xbdb8c868	-0.090225995
121	0xbd239098	-0.039932817
122	0xbca77f22	-0.020446364
123	0x3a49c671	0.00076971116
124	0x3b4422c3	0.0029927946
125	0x3c81e35f	0.01585549
126	0xbba25b71	-0.0049547483
127	0xbc925ef4	-0.017867543
