src/anomaly_detection/model_checkpoints/cookie/ae_model.pt (torch, 291749 bytes, 32 tensors)

encoder.0.weight f4 [1, 1, 5, 5]
00000000: fd11 1fbe 78e0 36be 1455 bd3d ac0c d73d
00000010: d396 743d aaab 98be 25a0 81be 74aa 02bb
00000020: 506f 253d ca1b 9e3d 442c b1be 577f 7dbd
00000030: 9c6a 34be 71b2 e3bd 2ee0 f0bd c33d 95be
00000040: be3e f1bd af7d 57bc 0340 6fbc 3c80 adbd
00000050: b3d2 6cbd ada0 e1bd 5d07 d7bd 5259 e63c
00000060: 4ce8 da3d
-0.15534206 -0.17859066 0.09244743 0.10500464 0.05971415 -0.2981847 -0.25317493 -0.0019938024
0.04038936 0.07720144 -0.34604084 -0.06188902 -0.17618793 -0.11118019 -0.11761509 -0.29148683
-0.11779545 -0.013152524 -0.014602664 -0.084717244 -0.057818126 -0.110169746 -0.10499451 0.028118763
0.10688838

encoder.1.weight f4 [32, 1, 1, 1]
00000000: 1038 6ebf 2b9f 2fbe f1b5 28bf 5d42 63bf
00000010: 6bf5 eb3e 4ed4 45be 6372 4e3f e5da ca3e
00000020: 935a 46bf 7935 ccbe b23d 22bf c28a 10bf
00000030: 5440 463f 601a 583f e071 2e3f 29a5 393f
00000040: 3137 5e3f 2aa1 a0bf 6243 f7be 1d7d 69bf
00000050: 6d72 78bf f008 823f d7f5 e83d 674a debe
00000060: e188 b1be 41f6 34be 8781 593f 781c 923e
00000070: 58b1 6c3e 1b0f 843f 80ca b9bc af1c 573f
-0.93054295 -0.17150562 -0.6590262 -0.8877314 0.46085677 -0.19319269 0.8064329 0.39620128
-0.77481955 -0.39884546 -0.6337539 -0.5646173 0.77441907 0.84415245 0.6814251 0.7251764
0.86802965 -1.2549183 -0.48293597 -0.9120653 -0.970496 1.0158978 0.11375015 -0.4341614
-0.34674743 -0.17672063 0.8496327 0.28537345 0.23114526 1.031711 -0.022679567 0.8402814

encoder.1.bias f4 [32]
00000000: 7063 ddbe 095b 413f 762c b6be fd73 e8be
00000010: 383b 5f3e 8216 043f e1e5 993e 8f41 003f
00000020: de0d 1dbf 723d 45bf 5ea9 efbd e380 87be
00000030: 8447 aebe 6415 37bd 5dc5 0d3f 1989 c13e
00000040: af65 ddbe fd0a 19bf 9f33 1cbf bdd0 a4be
00000050: 45b4 5fbf 3738 3abe a6f8 f7be f719 133e
00000060: 2bcc 263e 9f1d ee3e 4064 9c3e 82e5 093f
00000070: a3cb 083f cd11 cb3e 4ee4 69bf 7eef 21bf
-0.43239927 0.75529534 -0.35580796 -0.45400992 0.21799934 0.51596844 0.30058196 0.50100034
-0.61349285 -0.77046883 -0.11702226 -0.2646552 -0.34038937 -0.044698134 0.5537928 0.3779991
-0.4324164 -0.5978239 -0.6101627 -0.32190505 -0.87384444 -0.18185507 -0.4843189 0.14365374
0.16288821 0.46506974 0.30545235 0.53865826 0.53435725 0.39662018 -0.9136399 -0.6325606

encoder.3.weight f4 [32, 1, 5, 5]
00000000: add9 97be 81ce 87be 8083 2c3e 2e1b 973e
00000010: e5e6 883b ffea 6ebe f331 0dbe fd94 623e
00000020: 546e ff3e 16c7 b43d db76 f2bc 3b1a b13d
00000030: 973a a53e be74 6f3e bae5 813c a4e5 db3d
00000040: 7d8e c0bd 3d83 4f3d 785b a8bd fd3f 73be
00000050: 8d68 06be 876b 86bd 2dde ca3c cae4 97be
00000060: e564 c5be def3 d73d 7446 19be 30a3 ebbd
00000070: d35e b5bd 3e6d 32be 6156 84bd 049c aaba
00000080: 04cd e6bb 3a59 983d 71bc 093c 530e 41bc
00000090: 57b6 98bd 09ed 13be d21b 1bbe a936 263d
000000a0: 8c85 d13d e0e0 57bd e4c9 91bd 5653 a8bd
000000b0: 4f9a 52be acea 9f3d 7fa4 2a3d 4ffe 69be
000000c0: 12b2 3dbe 8d0c 4f3d 717e 10be 14dd 2dbd
000000d0: 9332 433a 386c f73d 6aaf 6e3e 43c0 4bbd
000000e0: ec08 41be 1a15 f93d 964a 103e 2fd8 b23e
000000f0: 50e8 e03d 1feb 24be 41f1 bf3d a08f 383e
00000100: fcc8 243d 6b60 2abe faa4 cdbb febc e8bd
00000110: 3c69 00be 1e53 aabd 6798 bebd 9d84 873b
00000120: 2ee3 84bd 8107 613c 7659 4e3d 0817 91be
00000130: 41e5 b3be 1352 6cbe a95a 7cbe 39f9 36be
00000140: 9292 8bbd c0b2 0fbe e12f a73d 6daf b93d
00000150: e1e0 e0bc b154 86bd 6e57 223e 8ad0 bb3e
00000160: a296 bb3e 4366 2e3e f602 febd ca7a 393e
00000170: 5623 9d3e a9a4 a93e 129f 6f3d 94c0 05be
00000180: c24a 23be 8e08 123e 69ec c83d 95a0 8db9
00000190: 2707 17be 1749 77be 5407 62be d3e9 7dbe
000001a0: 3cc0 5cbe dcdd 00bd 7bc4 0e3b a7bb d1be
000001b0: ee3f a1be 583e 97bb a322 a13c 875e 69bd
000001c0: dd5c 07bf 24ef d0be f59f 5bbe 5536 603e
000001d0: bddb e93d a1de febd 7686 adbe 36ea 22be
000001e0: 1628 9f3e 6cd7 7c3e f4f0 523e fc91 9d3d
000001f0: 7d38 253d 84e2 613e d383 0f3e b111 b9bd
00000200: 75ec a93d 63a1 723d b578 153e 0669 203d
00000210: 1d26 523e 36d7 3f3d 4943 11bd 8e6f 81be
00000220: 95a9 c8bd a1b4 a63d 278a a4be f216 0abd
00000230: f67f cb3d 3c11 483d 4b63 10be d224 373d
00000240: decc 8fbd b8f5 983d 634e c3bd 2aca 223c
00000250: 808c 2c3c a526 6e3e 4f26 a8be f51b d0be
00000260: 1b3f 92be ee44 8fbe 75a9 92be 01ed 6bbe
00000270: f425 eabe 9f1d b2be da13 4abe 50f7 67be
00000280: 5ba4 3ebe 779b cabe 257c debe 2bde b3be
00000290: 84be b83d 0a5f f2be 0ebb 16bf dca1 b9be
000002a0: a479 8bbe ca81 623a 207c 8fbe f077 66be
000002b0: af16 f93b a0a1 2b3e cf6b 6abd 9fd5 13be
000002c0: 56fc 5fbe 8737 28be b2b1 59be ca5f a9be
000002d0: 12ff 533d f71d 8abe 0cb4 45be 2cb7 49be
000002e0: b94d 6dbe 519d 46be bc9a 1fbd 169d 03bb
000002f0: 7057 47be 72f3 90be aff4 7c3d 1130 9e3d
00000300: ef58 433d c0db 6cbe 5f1d 43bd 5ea9 c9bc
00000310: c790 98bd bd4f 5cbd 17f2 28be f5bf cdbd
00000320: 440f 24bd 25e1 c1bb 0f14 b0bd 5441 183e
00000330: 5cdc 843e 18c0 e23c e8af 6abe 31fa 96be
00000340: d514 49bd f320 e53d 1c15 23be fdae 95be
00000350: eada 44be a1aa 03be 034a 803d 2d4b b23d
00000360: 033e 38be df3e cfbe 3545 f1be 6f5b dabd
00000370: 348c b23e 5c85 8f3e dc67 023e 612c 1cbe
00000380: 4b6f f23b 715f b6be 2b3d 1ebf 23f9 aabe
00000390: 0e8e 13bf 0800 18bf bce1 5abe aa71 32be
000003a0: 6a1e bfbe 83fd 2abf ed71 58bf 060e f83d
000003b0: 2c5e 24bf c2f2 cbbe 553f 5bbf 0c62 26bf
000003c0: e2dc 4c3c 2089 8dbe 865c 01bf 61c9 43bf
000003d0: 62df 5abf 8c8f be3e 9515 3bbe bc98 8bbe
000003e0: e932 07bf c139 22bf ba7a bc3e 0e5d 8d3e
000003f0: 2c2c 893c b4e5 2a3e fd59 0f3e 2f3d a43e
-0.2965826 -0.26524737 0.16847038 0.29512924 0.0041779154 -0.23331831 -0.13788585 0.22127147
0.4988886 0.08827035 -0.02959769 0.08647581 0.32271263 0.23384377 0.015856612 0.1073716
-0.094021775 0.050662268 -0.08220571 -0.23754878 -0.1312582 -0.06563478 0.024764145 -0.2966674
-0.3855354 0.10544561 -0.14968282 -0.11505735 -0.08855977 -0.17424485 -0.06461788 -0.0013016467
-0.0070434827 0.074388936 0.008406744 -0.0117832 -0.074566536 -0.1444589 -0.15147331 0.04057947
0.1023055 -0.052704692 -0.07118586 -0.0821902 -0.20566677 0.07808432 0.041660782 -0.22850917
-0.1852496 0.05054908 -0.14110734 -0.042447165 0.0007446196 0.12081188 0.23309103 -0.049743902
-0.1885106 0.12162228 0.14090952 0.3493056 0.1098181 -0.16105317 0.093721874 0.18023539
0.040230736 -0.16638343 -0.0062757703 -0.113641724 -0.12540144 -0.083166346 -0.09306412 0.004135682
-0.064886436 0.013734699 0.050378285 -0.28337884 -0.35135844 -0.23078184 -0.24643959 -0.17868508
-0.068150654 -0.14033031 0.08163429 0.09066663 -0.02745098 -0.06559122 0.15853664 0.3668254
0.3663836 0.17031197 -0.124029085 0.18113247 0.30691022 0.33133438 0.05850131 -0.13061744
-0.15946487 0.14261076 0.09810717 -0.0002701326 -0.14748822 -0.24148975 -0.22073108 -0.24796228
-0.21557707 -0.03146158 0.0021784592 -0.4096348 -0.31494087 -0.0046155863 0.019669836 -0.056974914
-0.52876073 -0.4080745 -0.21447738 0.21895726 0.11418865 -0.12444807 -0.33891648 -0.15909657
0.3108527 0.24691552 0.20599729 0.0769386 0.040337075 0.22059065 0.1401513 -0.090365775
0.08297054 0.05923594 0.14596827 0.03916266 0.20522352 0.0468361 -0.03546456 -0.25280422
-0.0979797 0.08139921 -0.32136652 -0.03371329 0.09936516 0.04884456 -0.14100377 0.04471285
-0.07021497 0.07468742 -0.095364355 0.009935895 0.010531545 0.23256929 -0.32841727 -0.4064633
-0.2856377 -0.27982277 -0.2864491 -0.23039629 -0.4573208 -0.34788224 -0.19734135 -0.22652936
-0.18617384 -0.39571735 -0.4345409 -0.35130438 0.09020713 -0.47338134 -0.5887917 -0.362563
-0.27241242 0.0008640556 -0.28024387 -0.2250669 0.007601581 0.16760874 -0.05723172 -0.14436959
-0.21873602 -0.16427432 -0.21259192 -0.33080894 0.051756926 -0.26975986 -0.19306964 -0.19698781
-0.2317418 -0.19395949 -0.038965926 -0.0020082644 -0.19466949 -0.28310734 0.061756786 0.07724012
0.047692236 -0.23130703 -0.047635432 -0.024616893 -0.07449489 -0.05378698 -0.164986 -0.100463785
-0.04005362 -0.005916732 -0.08597576 0.1486867 0.2594937 0.027679488 -0.22918665 -0.29487756
-0.049092133 0.11187925 -0.15926021 -0.29235068 -0.19224134 -0.12858059 0.062641166 0.08705745
-0.17992406 -0.40477654 -0.47123113 -0.10661971 0.34872591 0.28031433 0.12734932 -0.15251304
0.007398521 -0.3561969 -0.61812085 -0.333932 -0.57638633 -0.5937505 -0.21375173 -0.17426172
-0.37327892 -0.6679308 -0.84548837 0.1211205 -0.64206195 -0.39833647 -0.8564351 -0.6499336
0.012503834 -0.2764368 -0.50531805 -0.76479155 -0.85497105 0.37218893 -0.18269952 -0.27264965
-0.5281206 -0.63369375 0.36812383 0.27610058 0.016744696 0.16689187 0.13999172 0.3207793

encoder.3.bias f4 [32]
00000000: 17a7 cc3c 11d0 7b3c b8d8 1cbd 35a9 35be
00000010: 8bde 233e 0cbf 6dbe ccf4 f63b e624 91bc
00000020: 67a4 413d d665 d43a f0d7 0ebe 2a88 3a3e
00000030: a655 253e cf03 fabd 01bc 7b3e b856 423e
00000040: c4ee 2bbe f10d adbc 2ffa 9f3d 2260 ce3c
00000050: d105 69be ab4e 79bc ea32 ce3a 0d48 d1bd
00000060: 4b6d 333e 662c 00be 8d28 0dbd 1bb3 993b
00000070: e0f2 873d 3a79 86be 80a1 2cbe 7242 3cbe
0.024982018 0.015369431 -0.038292617 -0.17740329 0.16002862 -0.2321741 0.0075365063 -0.01771779
0.047275927 0.0016204666 -0.13949561 0.18216005 0.16145954 -0.12207758 0.24583437 0.18978393
-0.167903 -0.021124812 0.078113906 0.025192324 -0.22756125 -0.01521651 0.0015731726 -0.10218821
0.1752216 -0.12516937 -0.0344625 0.0046905405 0.066381216 -0.26264364 -0.16858482 -0.18384722

encoder.4.weight f4 [64, 32, 1, 1]
00000000: 06c8 96be 22e6 a3bc b203 a7bd 66f1 a83e
00000010: c422 aa3e 8333 9abd 3397 ba3d 7a33 f9bd
00000020: 43be f9bb 9c8a 3f3d 515e 7bbe 27d9 b2be
00000030: 8935 14bd 4cfb e1bd fcad c93e 2b5e 823e
00000040: 3b1e 30be 2bb3 633e 19f6 003f e430 c83d
00000050: 116f 61be 5d86 c73e 0109 433c d987 d63d
00000060: 08ea 1b3e 3a80 0ebe b7de fd3d 46a9 0c3e
00000070: 111c 033e 85b9 adbe c868 8c3d 8c71 d53d
00000080: eedd e13b ec85 883e f14f 82be 7c44 923d
00000090: 3456 18bd 7748 5cbe 661c 3c3b 29e6 a23d
000000a0: b48a c9bc 6386 f6bd fd8c c63b 2f45 513e
000000b0: 67e9 2a3e eb6f 0abe ba3b 8b3d 6ce8 4cbd
000000c0: d12b 04bd bda1 f33d 3ec6 a5bd bc15 4dbd
000000d0: 6360 b83d 1cee bd3d df62 b1bd 2a33 a23d
000000e0: 295d c0ba e134 3c3d cf71 39be 958f 19bd
000000f0: 2f7c cfbd 8b6b 79bd 0f00 963e d3d0 193e
00000100: 178c 953d d796 133e 9320 16be d225 003f
00000110: e32a a03a d8df 9bbd 1ae8 8d3e 9744 90bd
00000120: 36ca febd 99ea 07be 8ef5 efbd fc75 5bbc
00000130: d49c 243c 117c d33d 6f87 40be 4ec8 e3bd
00000140: e488 673e cc11 83be 99a0 b9be 7790 8abe
00000150: ad8e 8c3d 8687 923e 1818 a1bb 37cd a13e
00000160: 6969 453e 7e8a ddbb 27ce 593e 0de4 07bf
00000170: e42f 22be 105a 37be fb33 7a3e 9cee 1f3c
00000180: a2ec 20be 8f02 233e de99 64bd e9b1 e63d
00000190: b6ae c0bd a0db bfbd 305f b23d 2483 963d
000001a0: 0e51 97bd c653 153d cc72 393e 0987 403e
000001b0: e5d1 1a3e f7a8 613d 808c 81bb d9d7 2abd
000001c0: 9fb3 893d 5c17 143e 81c7 1c3e 2205 17be
000001d0: 9704 0cbe b732 02be 8afe 8d3b 97ae b63d
000001e0: 4065 a9bc 5955 eebd 639e edbd 68c1 ae3d
000001f0: 9da0 d3bd 6536 b9bd 703c 3d3d f95a 773e
00000200: aef3 be3d e414 07be 6db2 053e aac3 473e
00000210: d9de 163e 3296 27be fbf4 253e 42a4 b53c
00000220: 3b3c 463e 8f8e 0f3d cb30 45be 89b6 5abe
00000230: 6a88 a63e 42fa 4fbe 0f2f f33e c1ee 023f
00000240: 9e8a 60bd 710b 49bc f5f5 0a3f 85c8 80bc
00000250: f54f 413b 15a1 81bd 9860 32bc 857d 04be
00000260: 7345 dcbd b801 2fbd acd3 b5bd 8116 563c
00000270: 1aaf 743c 40e3 b2bd 063f 97be 8ba6 abbd
00000280: 9411 c2bd 109c e83d 172e 85bc 1666 bcbe
00000290: 4b11 253e 6842 bdbc a851 6e3d a974 a1bd
000002a0: 8a3b fb3d e641 613f 078b 0dbe 6316 833d
000002b0: 4ac1 123d 1923 323d 89a3 6dbe 7824 0c3e
000002c0: edaa 993d db53 67bd addb a0bf c90f e7bd
000002d0: 2c86 5d3e cf63 f6bd 322a 183c a5ed 043d
000002e0: fe5b bb3d 7e8d 3ebe deb7 d0bd 8278 8abd
000002f0: 713c 32bd c888 af3d 5713 1cbe b856 4b3d
00000300: c2ad 87be 6182 9bbd 70ba 27be 0df1 b8bf
00000310: d8e8 663e 77ba a33d 4f46 fb3f 284a ad3e
00000320: 0a6c 9ebe eba4 423e 56dd a83e 758d 9e3e
00000330: 5142 0cbc 1a11 a0bd 6e7f cd3d 9998 5bbd
00000340: c15b e6b9 4ac1 f43e 2ddc debd 2515 703a
00000350: 6551 2b3d 28bc e1be b2ec 0e3b 094c 85bd
00000360: 1910 6fbe bca3 873d ced6 b8bf e5bb afbd
00000370: bdf2 5abe 9728 97bf 43e4 5d3d d26b 0a3e
00000380: 1a4a 86be cf73 833e 43e6 adbd 2290 193d
00000390: f426 bcbd a945 36be d8bb f4bc 6ac0 553e
000003a0: d5ba 8d3c 8708 c13d fde7 3cbd b94c 8b3e
000003b0: fb6e 13bd 4395 dbba 8289 4f3e 00a9 693d
000003c0: fc94 963e ea10 b33d 1abc 0ebe d894 11be
000003d0: a536 3f3d a8ca 8d3d 9981 0e3e 128b 18bd
000003e0: 4835 953d 399d 0bbe ef24 82bc bcab 02bc
000003f0: 9b39 86bd ee16 1ebd ab6a 12b9 5445 c83d
-0.2944948 -0.020007197 -0.08155002 0.32996672 0.3322965 -0.07529356 0.0911087 -0.121680215
-0.007621558 0.046763048 -0.24547698 -0.349313 -0.036183868 -0.11034259 0.39390552 0.2546247
-0.17199032 0.22236316 0.50375515 0.0977495 -0.22015025 0.389697 0.011904002 0.1047513
0.15225995 -0.13916102 0.12395995 0.13736448 0.12803675 -0.33930603 0.06855923 0.10422048
0.006892911 0.26664674 -0.25451615 0.071419686 -0.037191585 -0.21512018 0.002870345 0.07954056
-0.024602272 -0.12037351 0.0060592876 0.20436548 0.16690598 -0.13519256 0.06798501 -0.050026342
-0.03226835 0.118960835 -0.08094452 -0.050069556 0.09002759 0.092739314 -0.08661436 0.07919915
-0.0014676201 0.045948867 -0.18109821 -0.037490446 -0.10131108 -0.060893577 0.2929692 0.15021066
0.07302111 0.1441301 -0.14660864 0.5005771 0.0012219812 -0.07611054 0.27716142 -0.070443325
-0.124409124 -0.13273086 -0.11716758 -0.013394829 0.010047156 0.10326398 -0.18801664 -0.111221895
0.22610813 -0.25599515 -0.3625534 -0.27063343 0.06863151 0.2861902 -0.0049162023 0.3160188
0.19278492 -0.0067608943 0.21270047 -0.5308235 -0.15838581 -0.1790545 0.24433891 0.009761479
-0.15715268 0.15918945 -0.0558108 0.112644024 -0.094083235 -0.09368062 0.08709562 0.07349232
-0.07388507 0.036456846 0.18110198 0.18801512 0.15119131 0.055092778 -0.0039535165 -0.041709755
0.06723713 0.14462036 0.1531048 -0.14748052 -0.13673626 -0.12714659 0.004333322 0.08920019
-0.020678163 -0.116373725 -0.116024755 0.08532983 -0.10333369 -0.09043578 0.046200216 0.24155797
0.09323822 -0.13191563 0.13056345 0.19508234 0.14733447 -0.16365889 0.16206734 0.02217305
0.19358914 0.035048064 -0.19256894 -0.21358694 0.3252595 -0.2031031 0.4749684 0.5114556
-0.054819696 -0.012270794 0.5428155 -0.015720615 0.002949712 -0.06329552 -0.010887288 -0.12938507
-0.10755434 -0.04272625 -0.08878264 0.013066889 0.014934326 -0.08734751 -0.2954027 -0.08381375
-0.09476009 0.113578916 -0.016257329 -0.36796635 0.16119878 -0.023102954 0.058183342 -0.07883579
0.122672155 0.8799118 -0.13822566 0.06400754 0.035828866 0.043490503 -0.23206915 0.13685787
0.07503305 -0.056476455 -1.256704 -0.11282308 0.21633214 -0.12030756 0.009287404 0.032453198
0.091484055 -0.18608662 -0.1019132 -0.06761266 -0.043514673 0.08571011 -0.15241753 0.04964325
-0.26499754 -0.07593227 -0.16379714 -1.4448563 0.2254976 0.0799455 1.9630831 0.3384564
-0.30941802 0.19008224 0.32981366 0.30967298 -0.008560733 -0.07815762 0.10034071 -0.053612325
-0.0004393738 0.47803718 -0.10881839 0.0009158424 0.04182567 -0.44088864 0.0021808562 -0.06508643
-0.23345985 0.06623027 -1.4440553 -0.0858076 -0.2138166 -1.1809262 0.054172765 0.13517693
-0.2622841 0.25674292 -0.084911846 0.03749097 -0.09187117 -0.1780001 -0.029874727 0.20874181
0.017301003 0.094254546 -0.04611968 0.27206972 -0.03599451 -0.0016752857 0.20267299 0.057045937
0.2941054 0.087434605 -0.13938943 -0.14216936 0.046682972 0.06923419 0.13916625 -0.037242003
0.07285553 -0.13634194 -0.015886752 -0.007975515 -0.06553956 -0.038596086 -0.00013963382 0.09778848

encoder.4.bias f4 [64]
00000000: 6ace 7d3c 20ba 73be e659 cebd 78aa cb3c
00000010: 3acc 073e 15d5 243d 5f39 9fbd 03eb 133d
00000020: 6f45 54bc f979 3cbe cc02 70be ebf6 c1bd
00000030: eb4c 03be 8c43 9f3d b31e 6e3e 71a0 09be
00000040: 6f9f 70bd d4cb c4be e2cc 11be 57c3 43be
00000050: 08fb 0bbd 38ab e9bd 8744 babd c213 4e3e
00000060: 2a8b 8cbd 256f bd3d aac8 43be cbbb 0ebe
00000070: 33dd 98bd 9d91 c9bd 5cdf 0c3e 1c1a 0e3d
00000080: b1de 8dbe 565f 36be b760 a5bd a4a4 46be
00000090: 03c9 4fbd f3e1 cabd 0bed 94bc bbfd 5bbe
000000a0: 9f2c 813d fd13 0bbe 7ee4 e4bd 21cc 253e
000000b0: aec6 2cbe acde 243d d318 67be dcf1 4dbe
000000c0: c606 f9bc ad2e dc3c 6de6 573e 82c9 9cbd
000000d0: 76fa 0d3d c2ba c9bd e1fd e3bb d3c2 c73a
000000e0: c78d 31be 9565 05bd 39d2 ffbd 8ec7 a43d
000000f0: e7ba 933d 65ba 103d daa5 cdbd d799 e23d
0.0154911075 -0.2380147 -0.100757405 0.02486156 0.132615 0.040242273 -0.077746145 0.036112797
-0.012956007 -0.18405904 -0.23438567 -0.09470924 -0.1282231 0.077765554 0.23253898 -0.1344011
-0.058745798 -0.3843676 -0.14238313 -0.19117485 -0.03417495 -0.114096105 -0.09095102 0.20124725
-0.06862481 0.09249715 -0.19119516 -0.13938825 -0.074640654 -0.09842227 0.1375708 0.03469287
-0.27708963 -0.17809805 -0.080750875 -0.19398743 -0.05072881 -0.09906378 -0.018179437 -0.21483509
0.06307339 -0.13581844 -0.11176394 0.1619115 -0.16872665 0.04025142 -0.22568063 -0.20111793
-0.030398738 0.026877725 0.21083994 -0.07655622 0.034662686 -0.09850074 -0.006957755 0.0015240557
-0.1733924 -0.03256758 -0.12491269 0.080458745 0.07213383 0.03533401 -0.10041399 0.11064499

encoder.6.weight f4 [64, 1, 5, 5]
00000000: 1a4d e23d 8384 5b3e 0adf da3d fe00 883e
00000010: 9699 063e e02f c83d a18e c73d c977 c83d
00000020: 11c9 6d3e 641e 983e 59f7 03bd 11b1 30be
00000030: bf6d dcbb 1cac 9b3e 5ef3 bc3e 247a 5dbe
00000040: 5c76 3cbe 15a3 29be bcbc 273c 974e cb3e
00000050: 5026 22be 9eaa dfbd f875 bebc 0f4f bebd
00000060: 0cd7 b93d fa18 f3bc 025b 81bd af5c d63d
00000070: 594d 093c 952e 083c 365f 4ebd 4f3b 613e
00000080: 3e8b e0bd 6c52 d3bd 057b 8c3d 7d4f dd3d
00000090: 43a5 a6bc cc6f 36be bea1 bb3c 63c9 0cbe
000000a0: e782 dfbc ab46 6cbe 2d06 653e a0a9 4bbe
000000b0: c136 2c3d 42cc 01be 6af5 a13d cf9e 133d
000000c0: 05de 073e 88b1 e0bd 2959 f03d 2892 353e
000000d0: 1b62 3d3e 08ca b73d 044e dfbc 1c61 4c3e
000000e0: 43a1 83bd bb9a b33e 2508 a63e 16d6 37be
000000f0: 5b42 a93e 2f76 943e f14a 953e 123e 123f
00000100: 84ea 7b3e 9069 883e c80e f63e 8a38 583f
00000110: 64ce 733f b3d3 db3e 76ce 2c3d 71d3 993e
00000120: 69df d33e 1bd8 143f f0e6 893e f646 d73d
00000130: b347 12be 91db 043e c15f 2cbe 8f8c 12bd
00000140: b166 013e f746 353d ad71 09bd 3d4e 993d
00000150: 5c57 38be f472 d53d 7257 a1bd 15e7 223d
00000160: 0449 f3bc 1307 a83d 5ae9 41be 4b97 dbbd
00000170: fdc1 0f3c 97ae 303c 1328 db3d 553f 1ebe
00000180: 434c 26be db9c d33d a4a4 15be 28c7 8c3d
00000190: b0b5 043c facb b8bd c0ad a9bd b0bf 193e
000001a0: 4b0c 6c3e 2f66 0b3e 89a6 1fbd 0c87 e2bd
000001b0: fdbe abbd 3327 b03d 232c 52bd d69c 203c
000001c0: 533c 62be 2bc4 8dbe b485 67be 68c6 8cbe
000001d0: 1dae 0cbe 3c59 4cbe d667 bdbe 038b 98be
000001e0: 309f 453e 9f4a 6cbd 13a4 d7bd 6d3b 5f3c
000001f0: 24d5 71bd 62f9 913d 664d 463d dfbb c03d
00000200: 4c61 933e 9a4b ac3e 2289 393d f2ee 84bd
00000210: 0ccc 3fbe 4071 79bd fbde b13e ffff 413e
00000220: 4ec7 13be 373c b0be cdd6 c4be 7ed2 683d
00000230: 480c 6e3e f025 ff3c 29be 1fbe 6559 a2be
00000240: a138 e4bd 01d1 6c3e c85d 4c3e 395f 683d
00000250: c866 4ebd 9a1b 703e 97bb 7b3d 3eeb debd
00000260: 816f 76bd 674b 84be 37cf 2c3e 3704 ebbd
00000270: 78e7 d9bd 9b7e c0bd 40cf e43d 5a01 2c3e
00000280: 9ceb 1d3d f978 053e bfe0 1b3f dbab 703f
00000290: 91b0 533f 8370 eabd f391 5b3e 9f4c 853f
000002a0: e19a e13f 9e06 903f 3d85 4f3e ef2c 433e
000002b0: a61d 603f aa7f 923f 844d 423f e506 78bd
000002c0: 89dd 093e 4d27 2a3e 49eb 853b 9bc7 27be
000002d0: b66d 523e 0c52 293d 4864 b13d ce5d c6b9
000002e0: 63ba b13c 8607 053c 827d b8bd e44f d73d
000002f0: 6c1f 85bc 96de 87bd b11c 3b3e de38 c9bd
00000300: e631 613e edd5 0fbe ee6f d8bd 4b2a 63bd
00000310: d267 073e a4c9 cabd 7221 bebd 747f d1bb
00000320: c160 4f3e 6b1c f93e 2dec 243e 5e51 8bbd
00000330: 96bd 16bf 58e9 50bd b303 e83e 6e75 8a3e
00000340: 9123 873e 5c9a 54be c379 4ebe fc1a 9f3e
00000350: 2cc2 c23e e97a b53e d15f 233e e557 3abf
00000360: ff59 c7be 14d1 f0bd be4f 513e 11be bb3e
00000370: dac2 dfbe c110 09bf 24c2 dcbe 9274 70be
00000380: 41cc 5cbd 5615 523e a50f 0b3e f3a4 0e3e
00000390: 75d2 ae3e 3017 a73d 006f 553d af67 433d
000003a0: a6b2 523d a6f4 9cbc 61ce 493d 5114 54bd
000003b0: 6470 463e 7b34 9b3d fb6d 18be 2e86 a93c
000003c0: 20e4 e33d 84cd 603e 91ac 6d3d 9b24 f0bd
000003d0: 5ca3 e5bd af02 65be 2801 3cbe 6d96 a5be
000003e0: b957 e0be e999 c8bd 479d 3dbd 3a88 2dbe
000003f0: 3342 e43d 0482 aebb cb43 ae3c bc48 f5bd
0.11049862 0.21437268 0.106870726 0.26563257 0.13144526 0.097747564 0.09744001 0.09788472
0.23221232 0.29710686 -0.03221831 -0.17255045 -0.00672695 0.30404747 0.36904424 -0.21628624
-0.18404526 -0.16566117 0.010237869 0.39708397 -0.15834928 -0.109212145 -0.023249611 -0.09292423
0.0907422 -0.029674996 -0.063161865 0.10466897 0.0083802575 0.008311887 -0.05038377 0.2199528
-0.10964058 -0.10318455 0.068594016 0.10806177 -0.020342475 -0.17816085 0.022904273 -0.13748698
-0.027284099 -0.23073833 0.22365637 -0.19888926 0.042044405 -0.12675574 0.07908137 0.036040124
0.13268287 -0.109713614 0.11735756 0.17731535 0.18494456 0.08974081 -0.02725888 0.1995892
-0.064272426 0.35078987 0.3242809 -0.17952761 0.33058438 0.28996417 0.29158738 0.5712596
0.2460118 0.26643038 0.48058152 0.8446127 0.952368 0.4293495 0.042189084 0.3004413
0.41381386 0.5814225 0.26934004 0.105115816 -0.14285164 0.12974383 -0.16833402 -0.03577858
0.1263683 0.04425713 -0.033555675 0.07485626 -0.18002075 0.10422316 -0.07878007 0.03977116
-0.029697903 0.08204474 -0.18936673 -0.10722216 0.008774278 0.010783813 0.10701003 -0.15453847
-0.16240029 0.10332652 -0.14613587 0.068739235 0.008099958 -0.090232804 -0.08285093 0.15014529
0.23051564 0.13613199 -0.03897718 -0.110609144 -0.083860375 0.08601227 -0.051311623 0.009803018
-0.22093324 -0.27688727 -0.22609597 -0.27495122 -0.13738294 -0.19955915 -0.36993283 -0.29793558
0.19299006 -0.05768835 -0.105293415 0.013625008 -0.059041157 0.07127644 0.048413657 0.094108336
0.2878517 0.3365143 0.045296796 -0.06490888 -0.18730181 -0.06089902 0.34740433 0.18945311
-0.14431497 -0.3442094 -0.3844513 0.056841366 0.23246872 0.03114602 -0.15599884 -0.31708828
-0.111436136 0.23126604 0.1995765 0.056731436 -0.05039099 0.23448029 0.061458196 -0.10884713
-0.060164932 -0.25838777 0.16875921 -0.11475413 -0.10639852 -0.09399148 0.11172342 0.1679739
0.038554773 0.13034429 0.6088981 0.9401223 0.82691294 -0.11447241 0.21442394 1.0414008
1.762539 1.125202 0.2026567 0.1906011 0.8754524 1.144521 0.7589953 -0.06055345
0.13463415 0.16616555 0.004086886 -0.16384737 0.20549664 0.04133801 0.08661705 -0.00037835393
0.021695321 0.0081194695 -0.09008314 0.10513285 -0.016250335 -0.06634252 0.18272664 -0.098253
0.21991691 -0.1404645 -0.10568224 -0.055460256 0.13223198 -0.09901741 -0.09283723 -0.0063933674
0.20251752 0.48654494 0.16105719 -0.06802629 -0.58883035 -0.051003784 0.45315322 0.27042717
0.26394323 -0.20762008 -0.20163636 0.31075275 0.38038766 0.35445336 0.1595452 -0.72790366
-0.3893585 -0.117586285 0.20440575 0.36668447 -0.43703347 -0.5354119 -0.43116868 -0.23481968
-0.05390573 0.20515952 0.13580187 0.1393011 0.3414494 0.081587195 0.05210781 0.047706302
0.051439904 -0.019159626 0.049269084 -0.051777188 0.19378811 0.07578369 -0.14885704 0.020693865
0.11127496 0.21953398 0.0580259 -0.11725732 -0.11212799 -0.22364305 -0.18359816 -0.32341328
-0.43816927 -0.09794981 -0.04629257 -0.16946498 0.11145439 -0.0053255577 0.02127256 -0.119767636

encoder.6.bias f4 [64]
00000000: 2046 62bd 79b7 d23b 831a e7bc 2dce 283a
00000010: 5a04 2b3d eb04 f7bc 1f70 96bd 6df4 7cba
00000020: 2ec8 043c dbca 9b3a d732 4e3b 3b9d 5e3d
00000030: 3a72 973c c728 4cbd b5c4 383b 7541 b4b8
00000040: 4372 17ba 92e2 9f3c 3245 daba 6364 9aba
00000050: cf08 b63c 85cd 063e de49 5b3d e0a7 afbc
00000060: f0ec 173d c4a4 f23c 2480 a2bb 0265 9139
00000070: a615 a6bd 7505 ca3b 9611 6b3d 069f cbbd
00000080: fc9a 473d 85c3 a939 6408 073e f683 b639
00000090: b53a ef3c 013d 3d3d 4213 dfbb 65fd e9ba
000000a0: f3c8 fb3d 7b72 1abb a960 e53a 5dc4 09be
000000b0: eede 893b 8ffd 2ebd 6344 d1bc 4a62 db3c
000000c0: 84df a3b9 9cfa 33bd ea4a 25be bfb2 78ba
000000d0: 052c 4f3c 8d88 023c 0771 623d 8902 76ba
000000e0: 0502 093c c550 afbc 1cfe d639 3317 77ba
000000f0: 4b85 973d dfa3 9639 6306 c7bd 887f 343c
-0.055242658 0.006430563 -0.028210884 0.0006439414 0.041752197 -0.030153712 -0.07345604 -0.00096494594
0.008104367 0.0011886017 0.0031463408 0.054349165 0.018487085 -0.049843576 0.0028193418 -8.595261e-05
-0.0005777219 0.019517217 -0.0016652702 -0.0011779185 0.022220997 0.13164337 0.053537242 -0.021442354
0.037091196 0.029619582 -0.004959123 0.00027731812 -0.08109598 0.0061652013 0.057389818 -0.09942441
0.04873179 0.00032379865 0.13186795 0.00034812064 0.029202798 0.046200756 -0.0068077156 -0.0017852007
0.122941874 -0.002356677 0.001750012 -0.13453813 0.0042074835 -0.04272228 -0.025545305 0.026780266
-0.00031256315 -0.04394017 -0.16141859 -0.00094870845 0.012644772 0.007967127 0.055283573 -0.0009384533
0.008362298 -0.021400819 0.00041006587 -0.0009425759 0.073984705 0.00028732323 -0.09718015 0.011016734

encoder.7.weight f4 [128, 64, 1, 1]
00000000: 4ff8 df3d f930 28bd 625f 97bd 14a2 7d3c
00000010: 5738 f93c ca27 d4be 0820 82bd 78b2 893d
00000020: f2be b1bc 6883 38bd 8ec5 ddba 818c 133f
00000030: 4dee 743e 72f0 0bbe d063 7e3b 9594 ecbb
00000040: 6a23 e63b 79d3 5cbe 22e7 01bd d5ee babc
00000050: 8551 36bd 7e6c d13d 1d1f b13d 3c11 babd
00000060: 1928 ccbd 29b3 b63d 28cd 083d 9c55 43bd
00000070: 7961 76bd 4d43 213e 54dd d13d 8d9c 8dbc
00000080: d0df 18be 80d5 b4bd d4c5 fdbe 864c c1bb
00000090: a78f 51be 3951 26be fa3e 6a3e fb7c 34bc
000000a0: 6500 96bd 82ec 42bc 7c0c 2bba 65d4 c7bd
000000b0: 29df 5ebd b47f edbd 217c b3bd b15f 4d3e
000000c0: 0a86 9b3d b822 6b3e 58ac 363e 3651 a23c
000000d0: 54d1 9abd 99a7 813e c125 cf3d b978 9abb
000000e0: 07ff 9bbe 5b2a 16be b197 ebbb e40e db3d
000000f0: f8d4 c23d 6a4b d33d 5ca3 69be 8362 ac3e
00000100: 0bd0 25bd 026f 0d3d 35e4 1bbf 393f 853c
00000110: ce96 733d 02cc 6f3d dc11 9bbe deec 7f3c
00000120: 1ce0 ee3d 82bf c8bd 9e19 a83c 2f3d 98be
00000130: 4615 153e ec85 b13c b58b 383e d185 123d
00000140: 29ce 0e3d c4d6 aebe caaf b6bd 444e 5d3d
00000150: 6a02 883e 6673 61bd 2135 88be 21ff d6bc
00000160: b84f d0bc c9a4 96bf c83c 86bd 360a af3c
00000170: 93de a63c 4b1f 1f3e 1100 5fbe 6c4d e4bd
00000180: 893a 6ebc ac3c 82bc 4c1d e23d d28d a73c
00000190: 8954 f1bd ad86 b6bd 2c12 883e 6ff8 953b
000001a0: b140 ad3c ad35 37bc 6811 973a b822 90be
000001b0: c6ee 853d 3116 593e 2d48 1bbd e3e2 f6bd
000001c0: a93d 373d 74bd 5f3e 7dc1 e13d 0855 1bbd
000001d0: 00a6 3bbe c5ce 9dbc d626 cfbd 6d4f 063d
000001e0: 5dfe c1be 4491 4f3e 3601 dc3d 88b0 57bd
000001f0: 90d8 66bc 6934 773e d0e0 613e 0870 38bd
00000200: 8fa2 843e 9fd4 683d b6f2 0c3e 96f0 883c
00000210: 01f7 76be 2b36 0abf 00b5 27bf 2480 bf3d
00000220: bf05 57be ef36 8fbe 6709 c8bc 392a 84bf
00000230: 11ef 0a3f c2c7 333e b10f a0bb c5bd 6fbd
00000240: 6225 d33d 3f05 4bbf bc57 4a3c 7726 05be
00000250: 0a31 5f3e 1db2 cfbd 7840 00bf 3e79 ab3e
00000260: 43a6 0d3f a528 6bbe a7be b13e e911 9ebe
00000270: 042b 343f 0b13 2cbf 2c7e 88bd 58fb 123d
00000280: eb30 463f c532 c53d 2ad0 993d e740 46bc
00000290: f79c edbd acd0 83be 7ae4 be3d 28d7 9dba
000002a0: bbf4 88be 13ff 9b3d 6fc2 4fbd 77ea 5b3d
000002b0: c14f ef3d 00a9 203e 6811 05be c49f 6abf
000002c0: 64fc 31be 7e70 453e 93bd 863d 3411 29bc
000002d0: c3ff ac3c 01b5 103f e8fc 45be 807d 9cbd
000002e0: 8707 77bf a118 e03e d9a0 ed3d 5787 03be
000002f0: a28c ed3d 9302 0bbb 49dc 063e 4b8f 3e3c
00000300: b270 073d 6b7f 243d 2bbf 973e e336 85bc
00000310: 5268 183e 9c0e 3bbf 64d1 523f 376c f5ba
00000320: 71a2 13bf 8d1f adbe 6620 883d be85 8ebe
00000330: 34c1 663d c476 9dbe 463a 5fbd a6d7 8cbd
00000340: c395 563c 90d7 aebe 4671 0a3d 8ba1 1abd
00000350: 4b59 5bbe 15e6 a4bd e98e 06be 95d4 58be
00000360: 92e2 b4bd a0e3 f0ba 33fd 373d b4c0 bd3d
00000370: c7f0 06be 3eaf af3e 518e b6bc 0ac4 37be
00000380: b362 e13d 05c5 04bd 1d7a a93d 7a11 8cbc
00000390: 7d62 0cbe bbf2 4b3d fcd8 9e3d 879a 5b3d
000003a0: 7346 1d3d 42f9 b7bd 55a5 d03b 5bcf c7bc
000003b0: 98f0 32bc 988d 1a3e ee44 33bc dccd dc3d
000003c0: e43f 0b3d 9eae 7f3d 5bdd e93e a830 00bd
000003d0: 0c26 6cbe d188 273d 7f9a 6abe aa31 893c
000003e0: e526 0fbf 6f67 4ebb 9aaf a7bd 2879 b23c
000003f0: 211f 783c 57aa 203e 3904 d33d 1d29 24be
0.10936033 -0.04106233 -0.0739124 0.015480537 0.030422373 -0.41436607 -0.06353766 0.06723493
-0.021697495 -0.045047194 -0.0016919838 0.57636267 0.2391903 -0.13665941 0.0038816817 -0.007219861
0.0070232647 -0.21565045 -0.031714566 -0.022818962 -0.044511337 0.10225771 0.086485125 -0.090853184
-0.099685855 0.08920891 0.033398777 -0.047689065 -0.06015155 0.1574833 0.10247293 -0.017286563
-0.14929128 -0.088297844 -0.49564993 -0.005899015 -0.20464955 -0.16241921 0.22875586 -0.011016126
-0.07324294 -0.011897208 -0.00065249926 -0.09757308 -0.05441204 -0.11596623 -0.0876391 0.20056035
0.07593925 0.22962463 0.17839181 0.019814115 -0.075594574 0.2532318 0.10114623 -0.0047140983
-0.30468008 -0.14664595 -0.007189714 0.106961995 0.09513277 0.103171185 -0.22816223 0.33668908
-0.04048161 0.034529693 -0.6089509 0.016265498 0.05946999 0.058544166 -0.30287063 0.015620438
0.11663839 -0.09802152 0.020520028 -0.2973418 0.14558896 0.021670304 0.18022044 0.03577215
0.03486458 -0.34148228 -0.08920248 0.054029718 0.26564342 -0.055041693 -0.26603034 -0.026244702
-0.025428638 -1.1769038 -0.06554562 0.021367174 0.020369804 0.15539281 -0.21777369 -0.111475796
-0.014540323 -0.015898071 0.11040744 0.020453367 -0.11783702 -0.08912406 0.26576364 0.0045767347
0.021149011 -0.011182231 0.0011525573 -0.28151488 0.06539683 0.21199872 -0.03791063 -0.12054994
0.044736538 0.21849614 0.11023233 -0.03792289 -0.18325043 -0.019263634 -0.10114829 0.03279059
-0.37889376 0.20270258 0.107424185 -0.052658588 -0.014089718 0.24141087 0.22058415 -0.045028716
0.25905272 0.056843396 0.13764462 0.016716283 -0.24117662 -0.53988904 -0.6551056 0.09350613
-0.20998286 -0.27971599 -0.024418546 -1.0325385 0.54271036 0.1755667 -0.004884683 -0.058530588
0.103098646 -0.7930488 0.012350019 -0.13002954 0.2179605 -0.10141394 -0.5009837 0.33490938
0.5533182 -0.22964723 0.3471577 -0.3087304 0.70378137 -0.6721656 -0.066646904 0.03588423
0.7741839 0.09628824 0.07510407 -0.012100435 -0.11602204 -0.25745142 0.09320922 -0.0012042271
-0.26749215 0.07617011 -0.050722536 0.0536904 0.11685134 0.15689468 -0.12994921 -0.91650033
-0.17381436 0.19281194 0.06579127 -0.010319043 0.02111805 0.5652619 -0.19334757 -0.07641125
-0.9649586 0.4376879 0.11602945 -0.12844597 0.11599089 -0.002121125 0.1316997 0.011630843
0.03306646 0.040160578 0.29638037 -0.016261524 0.14883545 -0.7306917 0.82350755 -0.0018724267
-0.5766974 -0.33813134 0.066468045 -0.27836412 0.056336597 -0.30754673 -0.054498933 -0.06877069
0.013097229 -0.34148836 0.033799432 -0.037751716 -0.21420781 -0.08051697 -0.13140453 -0.21174844
-0.08832277 -0.0018378384 0.044919204 0.09265271 -0.13177787 0.34313387 -0.022284659 -0.17945877
0.110051535 -0.032414455 0.082752444 -0.017098177 -0.13709445 0.049792033 0.0775623 0.053614166
0.038397264 -0.08983089 0.0063673654 -0.024390867 -0.01092162 0.15093076 -0.010941727 0.10781452
0.033996478 0.062422387 0.45676693 -0.031296402 -0.23061389 0.040901963 -0.22910498 0.016747314
-0.55918723 -0.0031494757 -0.0818779 0.021786287 0.01514414 0.1568998 0.1030354 -0.16031308

encoder.7.bias f4 [128]
00000000: 138b 503d b4ed 543e a650 dd3d 48f7 1dbe
00000010: 0b8d a7be c152 133d b6f0 56be 9f37 97be
00000020: 30b1 80be 7ada 7fbe 7a18 4f3c dc96 403e
00000030: e30f 6cbe 51f2 6c3c 1534 ebbd bd7b 06be
00000040: de19 633d 3c0c 8fbd 7fd7 cabd 2963 0ebf
00000050: 50c7 54bd 81cf a2be a4c5 e3bd 25f3 52bd
00000060: 45b6 42be 38e1 8d3e 8186 58be af41 9f3e
00000070: 8f9f 16be 80b1 c3bd c93d 24be 50c5 57be
00000080: b60b 1bbe 084c 9ebd 148c b53d d810 2c3d
00000090: 32a4 71be 4b83 98be 0410 9b3d 5b82 dfbd
000000a0: 5fc5 6ebe f99b debe fc35 dfbc f788 69be
000000b0: f93e 6abd 672b 11bd d1e6 3cbe e9e5 f6bd
000000c0: b4c9 0f3d 65e4 643d 317d 533d 3780 0d3f
000000d0: 898e 81be 6eab 23bf f6f4 183e 00cf d1bd
000000e0: 1f0b f73d 4ba1 54be e69d adbc 0b4b dabc
000000f0: 4757 84be 684a d4bd a4ba bebd 62db d03c
00000100: 4a29 c3be 24d7 06be 4f2c 6fbe 56dd 753b
00000110: 275d e13c f79d 4e3d f328 823d ec46 f53c
00000120: cc8f 27be 8a2b 283d f342 aebc 9bb3 53be
00000130: 280b e5bd 0cd0 57be 82b0 2b3e a6bf 153d
00000140: 0323 223e 9c6c 5e3e 2b79 8abd 9d8e 52be
00000150: 4f55 053e 0e48 84bb 0e07 2c3e 1b92 3b3e
00000160: aa4b 9bbe 3c8d 653d 4062 493e f1ed 34bd
00000170: 014b 87be d810 a83b 9878 493d f904 f4bd
00000180: ce74 b13d 60aa 8b3e 0d36 97be 84c6 63be
00000190: 09ad 35bd 5178 7fbe d563 e4bd b30e bdbd
000001a0: 1da3 21bc 14df 6abe 4a33 813d c044 533d
000001b0: c308 703d 33a4 bb3d 2568 73be b110 87bd
000001c0: bacc 0abd 7d6f 40bd 9cc2 77bd ac8f d6ba
000001d0: ef98 0fbe cfc7 233e f7c9 653e 6f50 b9bc
000001e0: 54f5 6d3e e8d6 b43d 65e3 8cbd 28a9 49be
000001f0: 41aa 57be f0db 71be 3fdb 0bbe aec5 9dbd
0.05091388 0.20793802 0.10806398 -0.15426362 -0.32724795 0.035967592 -0.20990261 -0.29534623
-0.25135183 -0.24985686 0.012640113 0.18807548 -0.23052935 0.01446207 -0.11484543 -0.1313314
0.05544459 -0.069847554 -0.09904384 -0.55620056 -0.05194789 -0.31798938 -0.11121681 -0.051501412
-0.19014843 0.2771089 -0.21145059 0.311048 -0.14709304 -0.0955534 -0.16039194 -0.21071362
-0.15141186 -0.077293456 0.088646084 0.04200825 -0.23597792 -0.2978767 0.07571414 -0.10913535
-0.23317479 -0.43478373 -0.027247421 -0.22806154 -0.05718896 -0.035441782 -0.18447424 -0.12055571
0.03510447 0.055881876 0.051633064 0.55273765 -0.25304058 -0.63933456 0.14937195 -0.1024456
0.12062668 -0.20764653 -0.021193456 -0.026647111 -0.25847837 -0.10365754 -0.093129426 0.025495235
-0.3811744 -0.13168007 -0.23356746 0.003751596 0.027510239 0.050443616 0.06355467 0.029941045
-0.16363448 0.041057147 -0.021272158 -0.20673983 -0.111837685 -0.21075457 0.16766551 0.036559723
0.15833668 0.21721119 -0.06761392 -0.20562215 0.13020824 -0.00403691 0.16799566 0.18317454
-0.30331165 0.056042895 0.19666386 -0.04417223 -0.2642441 0.005128961 0.049187273 -0.11915011
0.08664857 0.27278423 -0.29533425 -0.22243696 -0.044354472 -0.24948241 -0.11151854 -0.09231319
-0.009865549 -0.2293666 0.06308611 0.051579237 0.058602106 0.09162178 -0.23770197 -0.065949805
-0.03388665 -0.046981324 -0.06048833 -0.0016369722 -0.14023183 0.1599419 0.22440325 -0.022621362
0.23238117 0.088300526 -0.068793096 -0.19693434 -0.2106104 -0.23619056 -0.13657854 -0.0770372

encoder.9.weight f4 [128, 1, 5, 5]
00000000: f063 a73d 43d2 653e 78a6 bb3e c8b1 133d
00000010: b6c9 68be 28ef 3a3e 7d3a 633e 0e4c 023e
00000020: ef1d 1c3e 5067 78be 6608 ae3d 5081 c4bd
00000030: 4d41 183e f5f1 ac3d 6a32 113e 07c0 0a3e
00000040: 9fd9 53bd 0577 b03c 92fd 9c3e 6cc2 353e
00000050: 615b 9e3c 1971 8bbe cae5 38be b564 4d3e
00000060: ce39 8e3d 2999 d53d f0a5 d1bd ae53 c43d
00000070: 0fb1 0b3e e5ef 95bd fbfa 003e f4d4 663e
00000080: 93e8 1e3d 1fd2 f5bd 3ba4 d4bd 0431 9b3d
00000090: 2683 673d d186 9cbe c451 a4be 3a80 293d
000000a0: bea0 70bd d1b6 4fbe adb1 c7be 0bc8 8bbe
000000b0: 5acd 223e 4547 b8bc 635e 0abc da4c 99bd
000000c0: 4598 7b3d a4b8 903d 8431 30bd 374a b6bc
000000d0: 0a7a 5d3d b201 bfbd 736c 563d a72f e1bb
000000e0: b6d5 5bbd a077 da3d 7bc3 f7bc c057 9fbc
000000f0: 3e3b 793c 7c1b f53c 6ce3 f6be 6fa2 e43d
00000100: d25a a0bd 6bce 703d 503b bd3b 644c 2ebe
00000110: 460d 3e3f cab9 0dbe 93b9 243d 7edb 2b3d
00000120: 8a54 18bd ed36 97b9 0206 28be a38a 21be
00000130: 2929 eb3d 1e27 3f3e 80ce aabc 259f b4be
00000140: d20a ae3d 2dcf ea3c 319f 4e3b 87b3 b33d
00000150: ee3d 243e ae35 353e 730c d03d 916b d63d
00000160: 0602 a73e 1cc6 be3e 840b 8cbd 3d60 41bd
00000170: 61f4 bfbc 2ccd 7b3e 8098 7e3e 871f 58be
00000180: 06ea 90bc 637f 5abd 4a73 1d3e 5d09 a2be
00000190: f445 6fbe 4ec4 4dbf b99d 69be cf7f cd3e
000001a0: 2543 073f b8bb d8be 9d38 80bf 7ce9 ecbe
000001b0: 9c71 8e3e 34d9 c13e ab7a 81bd 96c2 e9be
000001c0: 2c76 e5bd c1ac 2f3e effb a63d 49d7 df3e
000001d0: 81d2 063f 0d24 ce3e 8d23 a03e e8b4 ea3c
000001e0: 07c4 ee3e 7f19 e43e 81c6 b33e 5a6d 063e
000001f0: 87a9 28bd 997f 003e 9aa9 a03d 57c0 ea3d
00000200: 7c95 743d f60f 283d be49 f13d 03ad 203e
00000210: 5c83 333e 541d 0a3e 6b5c eb3d 07a0 0c3e
00000220: abbe d8bd 8531 033e b015 3abc 6dbe 333e
00000230: 99ca 683e 8666 253e adb8 e9bc 9dfd 12bc
00000240: 30af f43d c855 6c3e ad9a 043e 3612 8a3d
00000250: 0a37 0abc 6ec3 383e 8625 eb3e 0f3c 13be
00000260: 9364 e4bc 9626 403c 645b 123e 9c23 1dbf
00000270: 3bd2 36bf 351c adbe 409a 793d 26dd 643e
00000280: ef07 12bf e9a8 dfbe cc73 d7bb 2737 c73e
00000290: 436f eb3e 1527 9abe 9908 84bd 21c4 053e
000002a0: d1dd af3e 1cf6 5a3e de03 423e a609 5d3e
000002b0: f496 f93d 0b0d 2e3d 3d1b d83b 714f 1cbf
000002c0: 997a f2be 1c23 06bf a1e5 20be a0ff 793e
000002d0: 5eca b6be 56d8 21be c929 e5be 2230 edbe
000002e0: edf7 083e 65c1 dabe 1ac1 27bf 9fc3 5fbf
000002f0: f936 3ebf 27da febd 01aa 13be 5ef9 c3be
00000300: e749 37bf 5ae2 29bf 9adb 3abe 749b 853e
00000310: 8eea 603e 34bd 10be 5a1e c2be a3e3 2cbd
00000320: be54 27be 40fc 203e a90e 523d 813c 1f3e
00000330: 339a d73c 738a f73b eb9c f3bd 485b e23d
00000340: f43c 533d 8468 e2bd 906e 973b 2ffc c83c
00000350: 98f0 5e3d 303c 1cbd 80b8 17be 882f e13d
00000360: 067c b33d 0a11 36bd 1016 1dbe 3000 f63d
00000370: 0edd 36bc 753d 18bd d85a 073e bb5c 403e
00000380: 5f5c 7dbd 8e2a 59bc 0c43 083e b2f1 c93e
00000390: 5cd2 0c3e f96e 04bf 4d46 5cbb 626f 083e
000003a0: 5ed3 633e 4536 033f 5802 503e 5506 a83d
000003b0: 8842 2d3e 9bc5 983d 516c 703e b602 f43e
000003c0: 939c ca3e 363f cc3e 761d b33e de6d 153e
000003d0: cf40 4e3e 6598 31bc 11a5 483e 6fed c63e
000003e0: 9888 983d 6a36 f73d 1ad2 903e 2989 4ebd
000003f0: e0f2 993d 725c 8cbe db57 de3d 225b 8d3e
0.081733584 0.2244349 0.36650443 0.036058217 -0.22733197 0.18255293 0.2219028 0.12724325
0.15245794 -0.2425816 0.084976956 -0.09594977 0.1486866 0.08444587 0.14179388 0.13549815
-0.05172121 0.021541128 0.3066221 0.17749947 0.019330682 -0.27234724 -0.18056408 0.20057948
0.06944619 0.104296036 -0.10236728 0.09586273 0.13641761 -0.07321147 0.12595741 0.22542173
0.03879602 -0.12002968 -0.10382887 0.07577708 0.056521557 -0.30571607 -0.32093632 0.041382052
-0.058747046 -0.20284583 -0.39002743 -0.27301058 0.15898648 -0.022494921 -0.008445355 -0.074853614
0.061424512 0.070664674 -0.04301597 -0.022252185 0.054071464 -0.09326495 0.05234952 -0.0068721357
-0.053670608 0.10667348 -0.03024458 -0.019451022 0.015211878 0.029920332 -0.48220384 0.11163794
-0.078298226 0.058790606 0.005774893 -0.17021328 0.74239004 -0.13840404 0.04021604 0.04195737
-0.037189998 -0.00028841887 -0.16408542 -0.15775542 0.1148246 0.18667266 -0.02085042 -0.35277668
0.084981576 0.028663242 0.003152799 0.087744765 0.1603925 0.17696258 0.101586245 0.104697354
0.3261873 0.3726052 -0.06838134 -0.04721092 -0.023431959 0.24589986 0.24862862 -0.21105777
-0.017689716 -0.05334414 0.1537601 -0.3164777 -0.23366529 -0.8037766 -0.22814073 0.40136573
0.5283683 -0.42330718 -1.0017277 -0.46271884 0.27821052 0.37861025 -0.06322225 -0.4565627
-0.1120418 0.17155744 0.08153521 0.43718937 0.52664953 0.4026188 0.31277123 0.028650716
0.46633932 0.44550702 0.35112384 0.13127652 -0.0411773 0.12548675 0.07844849 0.11462467
0.059712872 0.041030847 0.11781643 0.15690999 0.17530578 0.1348775 0.11492237 0.1373292
-0.10583242 0.12811859 -0.01135771 0.1755311 0.22733535 0.16152391 -0.028530443 -0.008971599
0.11947477 0.23079598 0.12949629 0.06741755 -0.008435974 0.180433 0.45927066 -0.1437838
-0.027879989 0.01172795 0.14292675 -0.6138246 -0.71414536 -0.33810583 0.06093812 0.22349986
-0.57043356 -0.43683556 -0.0065750834 0.38909265 0.45983323 -0.30107942 -0.064469524 0.13063098
0.3434892 0.21382946 0.18946788 0.21585712 0.12186995 0.042492907 0.006595044 -0.6105872
-0.4735916 -0.5239732 -0.15712596 0.2441392 -0.3570127 -0.15805182 -0.44758442 -0.46325785
0.13375826 -0.42725673 -0.65529025 -0.8740787 -0.7430263 -0.12443953 -0.1442032 -0.3827619
-0.7159714 -0.6636101 -0.18247834 0.26095164 0.21964476 -0.14134675 -0.3791378 -0.04220928
-0.1634092 0.15721226 0.051283512 0.15550424 0.026318645 0.007554346 -0.11895164 0.11052567
0.0515718 -0.11055091 0.0046213344 0.024534313 0.054428667 -0.038143337 -0.14816475 0.10995394
0.0876389 -0.044449843 -0.15340447 0.120117545 -0.011161102 -0.037167985 0.13218248 0.18785374
-0.06185567 -0.013254775 0.13306826 0.3944221 0.1375212 -0.5173183 -0.0033611238 0.13323739
0.22248599 0.51254684 0.20313394 0.08204333 0.16919911 0.07459565 0.2347882 0.47658318
0.39572582 0.39891976 0.34983414 0.14592692 0.2014191 -0.010839556 0.19594218 0.38853022
0.07447928 0.120709255 0.28285295 -0.050423775 0.07517028 -0.2741428 0.10856601 0.2760859

encoder.9.bias f4 [128]
00000000: 447a 72bd cb4c 70bd cf70 5d3c b6c9 78bd
00000010: 08ca 163c 2d7c 43be 8d36 e5bb 7b2e 103d
00000020: 713b 11bb aabc dabc 569c 013b 6bfa 1f3d
00000030: bac5 433c 2085 c5bb 7b03 edbc dd95 f93c
00000040: b129 e0bd f53a a4ba 9e83 d13c 1c29 09bd
00000050: 5e33 ffb7 a879 1a3e 6dae f83b fb25 c739
00000060: c615 af3c eca4 673e 6734 433b b746 e6bb
00000070: 28fb 9b38 cb1b adbc d8c5 2aba 881a 86bc
00000080: a14f e9ba 82f6 c8bc 7cb7 83bd c5b4 a03d
00000090: f5f9 8e39 b990 05be b8f3 15be 0060 0abd
000000a0: 2cd8 f9ba 04c1 9fbc 2110 793d e45a 643b
000000b0: 5bc1 69bd acf9 fc3b 7e9b efba d1c5 4ebd
000000c0: 5422 bdbd df9a 2a3e ec84 563d 225a 483b
000000d0: 7218 943a bc2a 9abb 5424 9a3d e4b8 78ba
000000e0: 1dfa c83d 5b96 1b3d dce0 f5bd 117b 833b
000000f0: 0170 c13c e3db bbbc 55e7 413d 0490 933c
00000100: 3a7e 12be a2c5 d5bc 81dc f23d 73c3 0b3c
00000110: 114e 203d 1d04 85bb a52b 3bbe 5c90 d93c
00000120: 7588 563a 8a63 0fbd 1292 c8bd 6c91 f73b
00000130: 59c7 4dbb db15 7a3d eb03 673c f909 7abc
00000140: a56b 923b 22b1 aa3d 7be6 ad3c 9407 943d
00000150: 6e48 6cbd 8e33 0d3e 3cc2 913d 03a1 ccbc
00000160: 6fc0 343c 6f24 7abd 7b71 723d 853d b83c
00000170: 1043 9abd 0bac a83c bc8a 82bb b117 9c3d
00000180: 2399 733d 9e3f 813e 08f8 ef3c 3e8e c23c
00000190: d081 513d 825b c7bb b512 99bd 9f6c 1b39
000001a0: 5b8d 1e3a b2eb b33c 6108 3abe 95bb 88bd
000001b0: 0edc 903d 8a49 dc3b b8b1 e5bc 7c09 50bd
000001c0: 2326 0cbc 5807 09bd c078 af38 53b8 003c
000001d0: 826f 683d b604 d23d 0baf bcbc b91d 413b
000001e0: 433e e4bb 2a5c 3cbd a5ec 0c3e 6b2d 8b3b
000001f0: 39d6 643c 3ecb a73a b3d3 783d 1f7c c1bd
-0.059198633 -0.058666985 0.013515665 -0.06073924 0.009203441 -0.19090338 -0.0069950284 0.035200577
-0.0022160674 -0.02670129 0.0019777021 0.039057177 0.011948997 -0.0060278326 -0.028932324 0.030466968
-0.10945452 -0.0012529778 0.025575455 -0.03348647 -3.0422289e-05 0.1508547 0.0075891525 0.00037984535
0.021372687 0.22621506 0.0029785873 -0.007027473 7.4377574e-05 -0.021131417 -0.00065144664 -0.016370073
-0.001780022 -0.024531607 -0.06431481 0.07846979 0.00027270583 -0.13043489 -0.14643753 -0.03378296
-0.0019061617 -0.019501217 0.060806397 0.0034844214 -0.057069164 0.007720193 -0.0018280593 -0.05048162
-0.09235063 0.16660641 0.052372858 0.0030571301 0.0011298789 -0.0047048014 0.0752646 -0.0009488
0.0981333 0.037985187 -0.12005779 0.0040124734 0.023612978 -0.022931999 0.047339756 0.018013008
-0.14305964 -0.026095215 0.11858464 0.008530485 0.03913695 -0.004059328 -0.18278368 0.026558094
0.0008183786 -0.035007037 -0.09793486 0.0075551774 -0.0031399338 0.061056 0.014100055 -0.015261167
0.0044683986 0.08334567 0.021228066 0.07228008 -0.05768626 0.13789198 0.071171254 -0.02497912
0.011032208 -0.061069902 0.059190255 0.022490272 -0.075323224 0.020589849 -0.0039838236 0.07621706
0.059472214 0.2524385 0.029293075 0.023749467 0.05114919 -0.0060839066 -0.07474271 0.00014822416
0.0006048285 0.021962974 -0.18167259 -0.066764034 0.07073222 0.0067226337 -0.028038844 -0.050790295
-0.008554014 -0.03345427 8.367142e-05 0.007856446 0.056746967 0.10254805 -0.023032686 0.002946718
-0.00696543 -0.045986332 0.13762148 0.0042473576 0.01396709 0.001280166 0.060748767 -0.09447502

encoder.10.weight f4 [128, 128, 1, 1]
00000000: 6b09 72be 3334 7cbd 1f39 903d 0868 6a3d
00000010: ea71 713e f181 223e 72e9 6bbd 72f8 5d3e
00000020: 1b0b 23be 467b 273e 0d41 27be 0740 013e
00000030: 8d04 73bf 465d 07be b774 02be cecd 83be
00000040: db47 6f3e 9f88 8e3e 53be 263f bdfe 97be
00000050: 6c88 dbbd 39aa 64be 9b9d 863e 2aa4 62be
00000060: f90b d6bd 7ef1 de3e ee2f 093d cc6a 4a3d
00000070: bea5 5bbd 71b3 7f3e 59f7 71bd c12b 4dbc
00000080: aded 9a3d 280a 78bd 7e4f 583d 658c dcbe
00000090: 82e6 0b3e e232 f63d f8e7 45be 64ca a4bf
000000a0: 8220 323d e7db d5be 9bf2 333e 59ed 88be
000000b0: 7038 12bc affb 0b3e 6516 433e 5a8a 0dbe
000000c0: 5b85 053c ebe7 63bc 14ad 99be 1ac0 65be
000000d0: 1b10 babc 7456 4cbf adf4 243e eb93 e4bc
000000e0: a699 f83e 9483 723e 919c 82be a2de ca3d
000000f0: 6a01 793e c454 afbd 708e 643f 607d 03bf
00000100: 97c7 82be 6131 cc3e 7cc2 273f 4d3d 623c
00000110: 0e1c 45bd 0842 053f 57bf 023e bc41 3fbd
00000120: b713 5f3d a00e 87bd c422 11bf 2fe7 07bf
00000130: bb8d 4abf db4e 1bbe 1f09 a1be aa6d 32bc
00000140: 9c03 9cbe e47b c23e 650b 1ebe 00a4 ae3e
00000150: 71bb d93e 5104 a03c 27c8 e93d ee0f 22be
00000160: 98b3 a6bd 1c6e 373c 6bf0 cd3e 0510 c4bd
00000170: 5c9c 28be f265 343e 29de 5b3d 491f 153e
00000180: a058 e63e 8d3c d4be 39d1 5c3e 23f2 05be
00000190: f7ee bdbe 02eb 00be 4a83 373e 4763 0e3e
000001a0: c921 a4be e566 e2be 1331 993c 2b77 76be
000001b0: b0e2 1bbd 381b 6b3e 029a 11bf df45 443e
000001c0: e87a b03a 3f91 083f ae04 a03e 72e2 5e3e
000001d0: 0704 cfbe b1ca cb3d 9cca 0d3d 1e55 06bc
000001e0: 9720 f73e 45e0 52be 79c9 8abd 2727 f63c
000001f0: d9d9 dd3e da3e 733b 449b 9d3d 42e3 ec3e
00000200: 7803 9bbd fe89 d23d 6e69 5bbc 3744 ddbc
00000210: 65f2 43bd 7f89 0dbe 0c3a c5bd 84db 353b
00000220: e2cf 53bd 653e 35bd 6747 3fbd 02d8 80bc
00000230: 8363 da3d 61e2 2fbd e60d 9b3c 990c 7bba
00000240: dab3 e7bc e8b8 8ebd c42f a43c 5a90 043d
00000250: 4e00 14bd cfc7 80bd 5e22 b83c 93c2 a6bb
00000260: 2f3d dcbc 9f5a a6bd e05c ba3d bad0 63bc
00000270: 7780 29bd 0471 483c 49de a8bd 026f 29bd
00000280: cf6e 183d ce46 9dbd 0523 163e ee1d 6f3d
00000290: f2e7 9ebc 67f7 043c e26c 8b3c 09d8 bd3c
000002a0: 5bac 23bd 219b 983d e50d 07be 1101 9d3c
000002b0: 43a0 efbd 8e55 a7bc 9b0a 853d f1ca de3c
000002c0: da1e ce3c 8bcd a83d add5 ba3d 071e 0cbb
000002d0: 3642 8bbd b872 49bc b334 5b3d d3cf 5e3d
000002e0: f019 893c eb5d 513c 8c04 3bbd 6ebc f53c
000002f0: 76ca 2a3c ebea aebb 61c5 33bd d2e0 e93b
00000300: a2d4 253d d096 bc3d b010 823b 3fc1 65bd
00000310: e149 03be 7278 ce3b 34d0 083d 9d33 d5bd
00000320: c2b9 563d 4659 413a 9664 79bd 40b3 1ebd
00000330: 4a17 4a3c 1f45 91bd f239 51bd 07ac 6bbd
00000340: 1a6f f63c 57e8 88bc 1d55 023e 7608 7bbc
00000350: fcce e1bc ca21 c1bd 99b5 b33d c3ce 923b
00000360: 5559 90bd 40a9 0d3c cc2b 2bbb 8ad5 9f3c
00000370: 5921 623c 38e9 8abd ff5b 65bd de81 85bd
00000380: 2572 ea3c 2468 3bbd c448 e53d 86f4 02bd
00000390: eec8 5fbd df98 b43c 4dc6 6ebc 3760 673d
000003a0: 2d1d f83d b50f 11bd a053 7cbd d40f 8d3d
000003b0: 2748 90bc 3271 f1bd 3f17 dd3a ea7d 9f3d
000003c0: 50e1 2c3d 5fff b63c 7e7a 623b de3c 80bd
000003d0: 6443 46bd 82df bc3d a157 a73c 60f7 803d
000003e0: f77d 803c 21f9 d8bd 6c51 b93b cdaf 683d
000003f0: 4436 44bd 1551 70bc e352 5ebd 41c5 5cbd
-0.23636405 -0.06157322 0.07042145 0.05722812 0.23578611 0.15869881 -0.057595678 0.21676806
-0.15922205 0.16355619 -0.16333409 0.1262208 -0.9492882 -0.13219175 -0.12739836 -0.25742954
0.23367254 0.2783861 0.6513416 -0.29686537 -0.1071938 -0.2233056 0.26292118 -0.22132936
-0.10451502 0.4354362 0.033492975 0.049418256 -0.05362486 0.24970795 -0.05907378 -0.012522639
0.07564864 -0.06055656 0.052810185 -0.43075863 0.1366215 0.12021424 -0.1932677 -1.2874265
0.043488033 -0.41769335 0.17573015 -0.26743582 -0.008924589 0.13670228 0.19051512 -0.13822308
0.00814947 -0.013910274 -0.3001486 -0.22436562 -0.022712758 -0.79819417 0.16108961 -0.027902564
0.48554724 0.23683006 -0.25510076 0.09905745 0.24316946 -0.0856109 0.8927984 -0.5136318
-0.255429 0.39881423 0.65531135 0.013808561 -0.04812246 0.5205388 0.12768303 -0.04669355
0.05446216 -0.06594586 -0.56693673 -0.53087133 -0.79122514 -0.151668 -0.3145227 -0.010890404
-0.30471504 0.37985146 -0.15434034 0.34109497 0.4252582 0.019533308 0.11415129 -0.15826389
-0.081397235 0.011195686 0.40222487 -0.09573368 -0.16465896 0.17617014 0.053678665 0.14562716
0.4498949 -0.41452447 0.21564187 -0.13080649 -0.37096378 -0.12589648 0.17921177 0.13905059
-0.32057026 -0.44219127 0.018700158 -0.24068896 -0.038057983 0.22959602 -0.5687562 0.19167279
0.0013464363 0.5334663 0.3125357 0.2176607 -0.4043276 0.0995077 0.03461705 -0.008199004
0.48267052 -0.20593365 -0.06776709 0.030047966 0.43330267 0.003711632 0.0769563 0.46267134
-0.07569021 0.10280226 -0.013391836 -0.027010066 -0.047838587 -0.13821982 -0.09630212 0.002774925
-0.051711924 -0.044248957 -0.046698954 -0.015728 0.106635116 -0.0429405 0.018927526 -0.00095767673
-0.028284002 -0.06968862 0.020042308 0.032364227 -0.036133103 -0.062881105 0.022477325 -0.005089113
-0.026884643 -0.08122753 0.09099746 -0.013904745 -0.04138228 0.012233976 -0.082455225 -0.04136563
0.03721505 -0.076795205 0.14661796 0.058378153 -0.01939771 0.008115626 0.017019693 0.023174303
-0.039959293 0.074514635 -0.13188894 0.019165548 -0.11700489 -0.020426538 0.064961635 0.02719638
0.025161196 0.08242329 0.09122787 -0.0021380202 -0.06799738 -0.0122954175 0.053517055 0.054397415
0.016736 0.012778739 -0.045658633 0.029997077 0.010424247 -0.005338063 -0.043889407 0.0071373964
0.040485986 0.09208453 0.0039692745 -0.056092497 -0.12821151 0.0063009793 0.033401683 -0.10410235
0.052423246 0.00073756685 -0.06088694 -0.038745165 0.012334654 -0.07093262 -0.05108065 -0.057537105
0.030082274 -0.01671235 0.1272778 -0.015321841 -0.027564518 -0.09430273 0.087748714 0.0044802143
-0.07048289 0.008646309 -0.0026118634 0.019511003 0.013801896 -0.06782764 -0.055995937 -0.06518911
0.028618881 -0.045753613 0.111955196 -0.031971477 -0.05463498 0.02204555 -0.014573646 0.056488242
0.1211494 -0.03541537 -0.06160319 0.068877846 -0.01761253 -0.117891684 0.001686789 0.07787688
0.042207062 0.022338567 0.0034557874 -0.062616095 -0.048404112 0.09222318 0.020427527 0.06297183
0.015685065 -0.105943926 0.005655458 0.05680828 -0.047903314 -0.014667769 -0.054278266 -0.053899053
