src/anomaly_detection/model_checkpoints/cookie/ae_model.pt (torch, 291555 bytes, 32 tensors)

encoder.0.weight f4 [1, 1, 5, 5]
000000 ef 10 57 bd 1b 51 2e be cf 3c bb be 31 b5 8f be
       -0.052506384 -0.17023127 -0.3656983 -0.28067926
000010 86 9b 62 3c 70 e8 8f bd 21 04 91 be 74 0d eb be
       0.013831025 -0.07026756 -0.28323463 -0.459087
000020 da fd af be bd e2 d6 bd 0c 13 b7 bc 1c 59 ee bd
       -0.3437336 -0.10492466 -0.02234795 -0.1163809
000030 41 d3 7f be 7f 03 4d be 9b 7c 05 be be cd 2a 3d
       -0.2498293 -0.20020865 -0.13035814 0.041700117
000040 0c f9 5f 3d 21 34 05 be ad 68 06 be 3e 79 a0 3c
       0.05468087 -0.13008167 -0.13125868 0.019589063
000050 d4 94 60 3d c0 ba 93 3d b0 11 91 bd 9d d4 1e bd
       0.054829434 0.07213354 -0.07083452 -0.038776983
000060 ef 16 41 3d
       0.04714101

encoder.1.weight f4 [32, 1, 1, 1]
000000 f7 ae 96 3a 9d 06 d8 be af 63 36 3f 9e 04 6e bf
       0.0011496235 -0.42192546 0.71245855 -0.92975795
000010 19 9e 11 bf 21 d8 2f 3f b1 02 cb 3e 29 38 9e 3e
       -0.5688186 0.6868916 0.3965049 0.30902222
000020 21 07 29 3f 40 e8 8a bc 45 db 5e 3f 2b 12 00 3e
       0.660265 -0.016956449 0.8705333 0.1250693
000030 b1 f8 ca 3d 42 dd 1f bf 8b 83 b1 bd 00 d2 98 3e
       0.09910715 -0.6244699 -0.08667668 0.29847717
000040 00 5d e4 bd 60 14 04 3c 08 4b 43 3e 1e 23 88 3e
       -0.11150551 0.008061498 0.19071591 0.26589292
000050 45 9c 0e bf b3 a1 3b 3f 75 c5 47 bf 8a 89 05 bf
       -0.557072 0.7329361 -0.7803567 -0.5216299
000060 03 0c 1e bf 3a a0 15 3f b6 d5 f4 3e 58 20 60 bf
       -0.6173708 0.5844761 0.47819299 -0.8754935
000070 77 a3 b1 3e 18 94 c9 be 95 66 f0 3e 2d 4f 9f be
       0.34695026 -0.393708 0.46953264 -0.31115094

encoder.1.bias f4 [32]
000000 1a fc b7 bd 16 d6 8a bf fe 63 0d 3f a4 c1 62 bf
       -0.089836314 -1.0846584 0.552307 -0.8857672
000010 86 ce 9b be 98 1b 8f be 33 10 a1 3d 2e 23 60 3f
       -0.30431002 -0.2795074 0.07864418 0.8755368
000020 c3 ef 22 be e0 29 e7 be 3a 1b 1c 3f e9 41 16 bf
       -0.15911774 -0.45149136 0.60979044 -0.5869432
000030 43 7f ed be f8 e1 26 bf 61 89 ad 3e 10 90 44 3f
       -0.46386155 -0.6518855 0.33893874 0.7678232
000040 db cf 12 bf c9 2e 42 bd ee 27 6c bf 83 53 44 3f
       -0.5734841 -0.0474079 -0.9224843 0.7668993
000050 24 96 79 bf d2 b3 83 3f 96 f7 2c bf 15 ee 3e bf
       -0.9749472 1.0289252 -0.67565286 -0.74582034
000060 ea ee 43 bf f1 8e 4a 3e 53 46 f6 3e 8d e2 27 bf
       -0.7653643 0.1978109 0.48100528 -0.65580064
000070 da 6c c7 3e bc 12 63 bf 72 6a ce 3e 9c 84 10 bf
       0.38950235 -0.8870046 0.40315586 -0.56452346

encoder.3.weight f4 [32, 1, 5, 5]
000000 06 d0 47 3e 7f 82 28 3e 0f f3 e3 bd 65 bb 07 be
       0.19512948 0.1645603 -0.11130344 -0.13255079
000010 74 7f 1b be 2d ce 32 3e 3a b1 67 3d 1a 95 a8 3d
       -0.15185338 0.17461462 0.0565655 0.08231564
000020 c9 0f f8 3d 88 8e 33 3d 54 71 f0 bd 2a b6 f1 3c
       0.12112386 0.0438371 -0.117403656 0.029505808
000030 c4 ba 9b bc 84 0e 20 3e 16 a5 21 bd 54 c6 80 3d
       -0.019009955 0.15630537 -0.03946408 0.06287828
000040 59 2a dc 3d ae 8d a4 3d 3d 30 55 3d 7d a2 30 3e
       0.10750265 0.08034836 0.052047957 0.17249484
000050 a9 2a 0f bd d6 76 4b 3e 61 b3 67 3d 2d ae 1f 3e
       -0.034952793 0.19869551 0.056567553 0.15593787
000060 5b 3e a6 3d de 05 f7 be ae 34 6b bf 5c b3 a3 bf
       0.08117362 -0.48246664 -0.9187726 -1.2789111
000070 8b d3 93 bf de 78 6e 3c b3 ea 55 bf 54 7f ba bf
       -1.1548933 0.014555184 -0.8356125 -1.4570107
000080 78 29 a7 bf 8e 27 91 bf 26 81 a4 be 98 f2 a5 bf
       -1.305953 -1.1340196 -0.32129782 -1.2964659
000090 da b5 ae bf b4 58 41 bf b9 42 05 bf 0f 4a a8 bd
       -1.3649247 -0.75525975 -0.52054936 -0.082172506
0000a0 5e 6b ae bf d7 9b be bf bb 4c 69 bf 31 b1 c2 be
       -1.3626516 -1.4891309 -0.91132706 -0.3802581
0000b0 62 87 98 bd b3 c7 65 bf 08 3e 51 bf 50 ee 15 bf
       -0.07447697 -0.8975784 -0.8173528 -0.5856676
0000c0 b8 88 0a be 5d 24 de 3e 6a 7c 65 3e 0e 39 e0 3e
       -0.13528717 0.43387118 0.22410741 0.4379353
0000d0 6e 27 6c 3e 0c 69 39 3d 3e 0b 7c 3d b3 a5 f7 3e
       0.23061916 0.045266196 0.06153416 0.48368606
0000e0 2b a2 3a 3f 03 73 28 3f 8c 92 3d 3e 07 27 c6 3d
       0.729037 0.65800494 0.18512934 0.096754126
0000f0 1d 66 a7 3e 0d d2 fc 3e f8 ba 5a 3f 9c 64 5e 3e
       0.32695094 0.49379006 0.8544154 0.21718067
000100 1c 71 13 3d 8a d9 9a 3d 34 a5 d1 3e cc d4 31 3f
       0.03599654 0.075610235 0.40946352 0.6946533
000110 ff a3 e6 3d c9 19 3c bd ef f4 6b bd e2 90 f7 3d
       0.112617485 -0.04592303 -0.057606634 0.12088181
000120 d3 a5 c3 3d f0 13 5b be 43 52 92 bd ed d8 96 3e
       0.09553113 -0.21394324 -0.071445964 0.29462376
000130 62 1d ee bd 86 16 4d be 79 18 a6 3e 39 ce a6 3e
       -0.11626698 -0.20028123 0.32440546 0.3257921
000140 53 46 dd 3b 78 34 05 bf 67 f3 f9 be 9e 74 2d 3e
       0.006752768 -0.52033186 -0.48818514 0.16939017
000150 9f da 9f 3e f3 ec 4a be 90 75 14 bf 4b 33 1d bf
       0.31221482 -0.19816951 -0.57991886 -0.6140639
000160 b2 bb ff bd b4 02 1f bd 63 20 3d 3e 0e bf ac bd
       -0.12486972 -0.038820937 0.18469386 -0.08434878
000170 6c df 43 be 99 5d d9 bb f7 36 ec 3d ab ad cc 3e
       -0.19128197 -0.006633472 0.11533921 0.39976248
000180 af bd 66 3e a1 29 0a 3d c8 99 99 3e 1b 14 5e 3e
       0.22533296 0.033731107 0.30000138 0.21687357
000190 ad 91 9e 3d 74 2e 35 3e e6 e3 04 be ad b9 7f bd
       0.07742629 0.17693502 -0.12977561 -0.062432934
0001a0 2e 32 45 3d 03 8b 3c 3e 98 1d 4f 3e 13 07 89 3d
       0.04814356 0.18412404 0.20226133 0.066908024
0001b0 01 38 94 be 73 90 a8 3e 55 26 0f be 4f 61 23 3e
       -0.28948978 0.32922706 -0.13979466 0.15955089
0001c0 d0 43 b6 bd e5 43 47 be 91 7c 21 3e 73 f6 c3 be
       -0.08899653 -0.19459493 0.15770175 -0.38273963
0001d0 49 e6 c3 3c 48 8f a8 ba 21 c2 4e be dd 70 7a 3e
       0.02391352 -0.0012860084 -0.20191242 0.24457116
0001e0 2c 73 2a be c2 d0 39 3e e1 92 9b 3d 0a 01 3c be
       -0.16645497 0.18146041 0.07596374 -0.18359771
0001f0 90 95 9a 3e 05 9c 16 bd 01 db ce bd 4d be e0 bc
       0.30192232 -0.036769886 -0.101003654 -0.027434492
000200 fa 70 98 bd 29 f2 25 bd d6 5d 82 be 31 71 a2 be
       -0.074434236 -0.040514145 -0.25462216 -0.31726983
000210 87 5f b6 be 5e aa d6 be 8a f1 d0 be 8e 8e c6 bd
       -0.35619757 -0.41926855 -0.4080928 -0.09695159
000220 bf 9c c5 bd 2a c4 89 3d 01 fd 6d bd 90 ec 01 be
       -0.096490376 0.067268685 -0.05810261 -0.12687898
000230 d7 a7 c9 be fe 9c aa be 8b d5 72 be 54 48 17 be
       -0.39385864 -0.333229 -0.23714273 -0.14773685
000240 36 9c 14 3d 39 2f 01 bf 3f 92 c7 be de 47 e6 3d
       0.036281787 -0.5046268 -0.38978764 0.11244176
000250 95 56 d3 3d 76 d4 b7 bd a9 53 00 be 8f ae e0 bd
       0.103192486 -0.089760706 -0.12531914 -0.109707944
000260 94 3d c0 bc 06 05 0d 3c 40 cb 89 bc 54 5e 26 be
       -0.023466863 0.008607155 -0.01682055 -0.16246921
000270 cf 6a 02 bf 4c 40 36 bd 2a 30 b3 3d aa 84 95 3d
       -0.50944227 -0.044494912 0.08749421 0.07300694
000280 1c 09 1c be ba 59 aa be 07 e9 0c be 28 f9 43 be
       -0.1523785 -0.3327158 -0.13760768 -0.19138014
000290 87 c6 4a be bf a7 98 3e 3a 14 bf bd 0a 6e a3 bd
       -0.19802295 0.2981548 -0.0933003 -0.07979973
0002a0 6c c0 92 be c2 2f 3f 3d 7d 97 73 3e fe 8a 11 3b
       -0.2866243 0.046676405 0.23788257 0.002220809
0002b0 51 ef 2a 3e b7 fa a0 bc 09 50 6c 3c f7 3a be be
       0.16692854 -0.0196508 0.014423379 -0.37154362
0002c0 03 f3 7a be ba f9 a5 be df 73 87 bd c5 3f 7f bd
       -0.24506764 -0.3241709 -0.066138975 -0.062316675
0002d0 9b 01 60 be 24 61 9f bd 46 3c 7a be 06 43 16 3d
       -0.21875612 -0.077822 -0.24437055 0.036685012
0002e0 72 ac 27 3e 99 72 5a be 56 a0 c7 3d c9 19 da 3c
       0.16374376 -0.21332778 0.097473785 0.026623623
0002f0 5d f3 0b 3e 4d 6e af 3c 44 8b 15 bd 8b bc 03 be
       0.13667054 0.0214149 -0.036509767 -0.12864892
000300 8b 77 00 be e5 76 49 3e 9d 22 64 3d 6a 33 3b bd
       -0.12545602 0.19674261 0.055697072 -0.04570333
000310 8e ea d6 3d b7 ba 83 3d ed 5f c3 3d 4f 6a 3f 3e
       0.104939565 0.064320974 0.09539781 0.18692897
000320 23 1f 03 3e 16 70 16 3d 9f f7 81 bd 40 99 65 be
       0.12804846 0.036727987 -0.06346058 -0.22421741
000330 db a1 4e be b9 ac aa 3d 30 8d 15 be 36 69 a4 bd
       -0.2017893 0.083337255 -0.1460464 -0.0802788
000340 9a 54 88 be 37 bb e0 3c 1e de 74 bd a5 e0 2f bc
       -0.26627046 0.027433021 -0.05978214 -0.010734712
000350 9b 42 8e be 54 7c 93 be 13 b9 7f 3d 79 da bc bd
       -0.2778519 -0.28805792 0.06243236 -0.09221358
000360 38 dd 3e be e0 c3 f6 be 2d 3c a8 be 4b 90 d5 ba
       -0.18639076 -0.48196316 -0.3285841 -0.0016293613
000370 a9 91 f1 bd bf de ac bc b6 7c 8e be 48 ce d9 bd
       -0.117953606 -0.021102307 -0.27829522 -0.10635048
000380 1f c5 c0 3d 55 b4 4a be 7a 82 69 3d ad 29 2b be
       0.09412598 -0.19795354 0.057009198 -0.16715117
000390 33 87 b5 3c ab 87 2f be c7 12 37 be a5 de 03 3e
       0.022159195 -0.17141597 -0.17878257 0.12877901
0003a0 aa e0 99 3d 05 56 11 be b3 8a 22 bd 40 36 c9 bc
       0.075135544 -0.1419297 -0.039683055 -0.024562001
0003b0 77 2b 43 3e 27 c4 f4 bd 15 00 37 be c7 e1 a0 bd
       0.1905955 -0.119514756 -0.17871125 -0.078555636
0003c0 f7 77 4c be 9a 52 e4 3c d0 34 20 be b3 fe fb 3c
       -0.19967638 0.027871419 -0.15645146 0.030761098
0003d0 33 1b 5c bc 4a 15 42 be 60 b2 b2 bd 93 b0 12 3d
       -0.013434219 -0.18953434 -0.087254286 0.035812926
0003e0 87 00 e3 3d 93 53 06 3d 28 92 5b bd 04 5d 84 3d
       0.11084085 0.032794546 -0.053606182 0.06463054
0003f0 56 e9 a0 bd 00 ee e2 bd fc 56 41 bd d7 98 3b 3d
       -0.07857005 -0.11080551 -0.047202095 0.045800056

encoder.3.bias f4 [32]
000000 41 27 a6 3a ec 3a 60 bc 84 f5 97 bd 0a 5b 91 3d
       0.0012676493 -0.013685923 -0.07419875 0.070974424
000010 97 19 a9 3d ff 02 fa 3c 9c 17 0c 3e 93 eb 33 3e
       0.08256834 0.030519007 0.13680881 0.17570333
000020 65 62 1d 3e 98 30 7a bb ee a5 83 3e 68 de d2 3a
       0.15369566 -0.0038175937 0.25712532 0.0016088011
000030 d7 b3 21 ba de e4 bb bc 69 52 de 3d cb 0e 1e 3e
       -0.0006168461 -0.02293628 0.10855562 0.1543533
000040 c6 72 8d 3a 5f 47 3c bc 98 5f b8 bb fb 84 e7 bd
       0.0010791651 -0.011491626 -0.00562663 -0.11304661
000050 6a 6d 6b be 06 28 e8 bd 74 c7 02 be cc da 07 3e
       -0.22990957 -0.11335759 -0.12771398 0.13267058
000060 9b 7f 03 be b2 36 d1 bc 49 ac e1 bc b7 2a 01 be
       -0.12841646 -0.025538776 -0.027547972 -0.1261395
000070 b6 3c 5d 3d 87 6c 23 3e 9a 4a 09 bd 82 36 54 be
       0.054012977 0.15959369 -0.03351841 -0.20723918

encoder.4.weight f4 [64, 32, 1, 1]
000000 0a ec e6 3c 90 0a 4b be 94 97 81 bc d7 a6 b0 be
       0.028188724 -0.19828248 -0.015819348 -0.3450229
000010 81 ab 51 3e 73 ab 25 bc 18 f2 66 be 9b 87 9e 3e
       0.2047558 -0.010111677 -0.22553289 0.30962834
000020 80 98 0a 3e db 74 0b 3b 97 b9 e6 3d 38 8f 51 be
       0.13534737 0.0021279368 0.11265867 -0.2046479
000030 7a 47 9a bd 78 bc ab 3e b3 11 c3 3d c1 2b 21 3f
       -0.07533164 0.33542228 0.0952486 0.6295739
000040 96 e3 79 bd a0 89 8f 3c fb 65 93 bb 99 8e 96 3e
       -0.06100806 0.01752168 -0.004498241 0.29405668
000050 97 ad 2e 3f 9e f7 0d 3e 98 90 81 3e 07 71 d3 be
       0.6823363 0.1386399 0.2530563 -0.4129717
000060 3c c8 40 3d fa c2 03 bd 0b be c2 3e e9 ff 05 be
       0.04706596 -0.032168366 0.38035616 -0.13085903
000070 69 32 94 bc 54 32 5f bf cb 01 b2 3d 46 1c 4c 3f
       -0.018090444 -0.8718617 0.08691748 0.7973064
000080 51 b2 92 bc 14 1e a4 3e 08 26 18 bf 88 04 1b 3f
       -0.017907294 0.32054198 -0.5943303 0.6055379
000090 c5 58 e5 3c 74 27 7a be 74 2f cf 3e c6 59 c1 be
       0.02799643 -0.24429113 0.4046589 -0.37763804
0000a0 6a 2a 86 3e bc fb b6 bd 5e 54 48 3f 3f 76 c1 be
       0.26204234 -0.08934733 0.78253734 -0.37785527
0000b0 ca b0 fc 3d e4 32 a3 bd 5f 2e 7e be 87 97 9d 3e
       0.12338407 -0.07968691 -0.24822377 0.3077967
0000c0 fe e4 db bc a0 32 3d bd 96 c2 9f 3c 93 40 e5 be
       -0.02684259 -0.046190858 0.019501965 -0.4477583
0000d0 31 53 f9 bb 59 1a 8b 3e 43 3c 62 be e1 8f d6 3d
       -0.007608794 0.2716854 -0.220933 0.104766615
0000e0 7b 3e e3 3d ef 0d 1f be bf 9b 52 bf 80 a3 be 3d
       0.110959016 -0.15532659 -0.822689 0.09308529
0000f0 2a 86 74 3d 17 56 79 3d 91 41 0b bd 34 0f aa 3d
       0.05969826 0.060873117 -0.033998076 0.08303681
000100 5e 8c dd 3b bc 3d 5c 3e 09 45 5f bf 80 11 bc 3e
       0.006761118 0.21507925 -0.87214714 0.367321
000110 da e5 a2 be 5b 6e e4 bd 70 b5 0f 3f ad 73 1a be
       -0.31815988 -0.11153861 0.56136227 -0.1508319
000120 65 99 0e 3e ba ea 67 bd cb 92 88 3e 51 9e e8 bc
       0.13925703 -0.056620337 0.26674494 -0.028395804
000130 b2 c6 58 3b 84 27 0d bf f7 ed 3b bd 3e f5 95 be
       0.0033077416 -0.5513842 -0.045881238 -0.29288667
000140 0d 4f 76 3d 19 e5 88 bd 28 4b c0 bd 25 8e cd bd
       0.060133982 -0.06684322 -0.09389335 -0.100368775
000150 b6 0a 82 3e 51 8b 22 be 0a 30 50 3f 88 74 8f 3e
       0.25398797 -0.15873457 0.813233 0.28018594
000160 07 8a 1a bd db a6 14 bf f8 ea 0d 3f fd df 33 3e
       -0.03772929 -0.580671 0.5543666 0.17565913
000170 f6 b5 17 be 40 08 23 be aa bc b2 be d3 6f 78 3d
       -0.14815506 -0.15921116 -0.34909564 0.06065352
000180 17 0d 04 3c dd 46 c1 bd fb fb 17 3c a4 ac fa 3e
       0.0080597615 -0.09437344 0.009276385 0.4895984
000190 9e 8a 82 be a8 91 ae bd 9c ef f7 3e 15 a2 0a 3e
       -0.25496382 -0.085238755 0.48424995 0.13538392
0001a0 b3 8d 80 3e 97 8a 88 3c 4a 14 0b 3f 9a 0f 92 bc
       0.25108108 0.016667647 0.54327834 -0.017829705
0001b0 b4 8a d0 bb 29 9a 1b be e0 c3 5d 3d ff 87 41 3e
       -0.006364191 -0.15195526 0.05414188 0.18899535
0001c0 4e c0 ef bb 77 2d b2 bc 98 a0 80 bc d9 96 ba bd
       -0.0073166257 -0.021750195 -0.015701577 -0.09110803
0001d0 8d 28 3c be 54 5f 1c bd 53 20 3d be 29 38 a3 3e
       -0.18374844 -0.03817685 -0.18469362 0.31878784
0001e0 a3 6a 28 bf eb 21 8d 3e 49 f4 80 be c3 75 12 bf
       -0.65787715 0.2756494 -0.25186375 -0.5721094
0001f0 d8 98 66 3e c4 46 d4 3d 6d 17 85 bd 68 7d 17 be
       0.22519243 0.1036506 -0.06498609 -0.14793932
000200 c1 6e 6b bd a2 ba dd 3d 03 e8 7a 3e 71 d9 38 3d
       -0.05747867 0.10826613 0.24502568 0.045129243
000210 87 f6 34 3e 97 c4 76 be a0 d4 a0 bd c8 7b 00 3f
       0.17672168 -0.2409843 -0.07853055 0.50188875
000220 77 c1 dc 3c 77 81 f6 3b aa 8b 0b bd 64 42 ff b9
       0.02694772 0.0075227576 -0.03406874 -0.00048686855
000230 1e e4 85 3d 12 d8 df bd 36 37 7f 3e ae e8 ec 3e
       0.065376505 -0.10929884 0.24923405 0.4627127
000240 55 69 a1 bd 12 ff 9d bd b4 b9 26 3c 5d 78 93 3e
       -0.078814186 -0.077146664 0.010176111 0.28802767
000250 63 1d 31 3f a1 c5 95 bd 40 47 ca be c2 6e 39 bf
       0.69185466 -0.07313085 -0.39507484 -0.7243463
000260 62 d6 72 3f 48 f2 ad 3d f2 53 fa 3d 5d 50 bf 3e
       0.9485837 0.08493477 0.122230425 0.37366
000270 2e 36 15 be 8c a5 50 bf b0 70 c9 be c5 b2 83 3f
       -0.14571449 -0.81502604 -0.39343786 1.0288931
000280 52 2b 26 3d 69 0c f1 be 4c 36 68 bf 53 c3 29 3f
       0.040568657 -0.4707978 -0.9070785 0.66313666
000290 00 e5 20 bd 33 0d 4d bf 17 c6 00 3f 68 de 7a bd
       -0.03928089 -0.80098265 0.5030226 -0.06124726
0002a0 12 80 1b bb 5a 58 f9 bb a4 3e 16 3f 48 a9 79 bd
       -0.002372746 -0.0076094093 0.5868933 -0.060952455
0002b0 e4 d0 14 bc aa a4 eb be 63 af d3 bd e2 c1 94 3e
       -0.0090830065 -0.46024066 -0.10336187 0.2905417
0002c0 8b 76 80 3c 99 03 d3 bd 5a db 82 bd b0 f3 67 be
       0.015681526 -0.103034206 -0.06389494 -0.22651553
0002d0 33 40 8b 3d 05 3e d6 be 7d cc aa be cd fb dd 3d
       0.067993544 -0.41844192 -0.33359137 0.10839043
0002e0 f9 35 ba bd 27 8e 96 3d ea 1f 33 bf 4d e6 75 3e
       -0.09092326 0.07351332 -0.6997057 0.24013634
0002f0 84 2a ea bd b3 90 ce 3d 7c f8 86 be e5 40 7e be
       -0.114338905 0.10086193 -0.26361454 -0.24829443
000300 1e 96 0d bc c7 bb e4 3d 1e 79 f0 3d b0 7e 49 3e
       -0.008641748 0.11168628 0.11741851 0.19677234
000310 6c f7 ab 3d c2 d7 28 3e 5c ee 3a 3d e4 82 95 bc
       0.08396801 0.16488555 0.045637473 -0.01825089
000320 49 09 6e 3e 00 78 41 3d f3 c4 e1 bd bb fc d9 3d
       0.2324573 0.04723358 -0.11023893 0.10643908
000330 6c 86 93 3d 7d 1b 70 3e dc cf 15 3d b0 1d f8 3d
       0.07203373 0.23447986 0.036575183 0.121150374
000340 7c b8 0f 3d 92 68 f4 bd 6b 1d 43 3d 7b 3e 0f be
       0.035088047 -0.11934008 0.047635477 -0.13988678
000350 2c 77 13 3f ed 69 b6 3d 10 1c 2c be 1a 35 bc be
       0.57603717 0.089069225 -0.1680758 -0.36759263
000360 bf 3e 3c 3f 44 80 cf 3d a0 2c 29 be e1 07 91 3e
       0.7353324 0.101318866 -0.1652093 0.28326324
000370 ab d3 48 3d 9d 82 18 bf 8a 6c a8 3d 9c 52 2e 3f
       0.049029987 -0.595743 0.08223827 0.680948
000380 f0 aa f9 3d a2 f0 f3 3d ba da 0b bd 6d d1 96 3c
       0.12190807 0.119111314 -0.03414414 0.018410409
000390 e9 5c 47 3d fc c4 c9 3b 26 78 63 bd 65 4c 39 be
       0.04867259 0.0061575156 -0.055534504 -0.18095548
0003a0 d2 42 d6 bd 60 44 2a be ba 36 24 3e 02 4a bb 3d
       -0.10461964 -0.16627645 0.16036502 0.09144975
0003b0 3f 3d b3 3d 05 0d c7 bd d2 44 13 3e 01 16 00 bb
       0.08751916 -0.0971928 0.14381722 -0.0019544365
0003c0 c5 88 08 3e 0d 25 12 3e d3 ac d9 3c ae 7c 0c 3e
       0.13333423 0.14271946 0.026571667 0.13719437
0003d0 d4 6b c1 3d 91 dd fc bd b9 fd 1b be 6a 2f b9 bd
       0.09444395 -0.12346948 -0.15233506 -0.09042247
0003e0 39 57 95 bd 7e 70 5f bd ca 64 10 3d 2d d9 c0 bd
       -0.07292027 -0.05455064 0.03525237 -0.09416423
0003f0 f8 08 83 3d 6e 6a c5 3d 2e c3 06 3e 41 15 56 3d
       0.06398195 0.096394405 0.13160393 0.052266363

encoder.4.bias f4 [64]
000000 96 19 3a 3e 28 33 50 3e 25 b1 3d 3e 3c 02 90 3e
       0.18173823 0.20332015 0.18524607 0.28126705
000010 3f f6 00 3c 0e d4 25 3e 96 00 21 3e 10 01 0a be
       0.00787121 0.16194174 0.1572288 -0.13476968
000020 ad 4b 8c 3d fc 9e 3b 3e 88 47 85 bd fd f5 4c be
       0.068503715 0.18322366 -0.06507784 -0.20015712
000030 a7 75 98 bd 66 52 64 3e 08 8b 4b be 72 47 8b bd
       -0.074443154 0.22297058 -0.19877255 -0.068007365
000040 ef 52 13 be e6 ff 20 bd 03 18 41 be 3b d1 ad be
       -0.14387105 -0.039306544 -0.18856816 -0.33948693
000050 d2 1e 92 bd 84 58 c3 be 54 a5 6f be da 6e 98 be
       -0.07134785 -0.3815347 -0.23402911 -0.29772073
000060 e9 d6 c3 3d 4f b5 13 be e8 1f c7 3a 42 32 9d 3e
       0.09562475 -0.14424632 0.0015192004 0.30702406
000070 3a 37 57 bd 5b ef 2b 3e 6f c8 5f 3d 8f 63 5d be
       -0.052542903 0.16790526 0.054634508 -0.2162001
000080 a0 a6 90 3d de 3a ae bd 94 f5 52 be ff 5f 12 be
       0.07063031 -0.08507322 -0.20601493 -0.14294432
000090 82 d1 18 3d 7a 1f 1f be da 98 c1 3c 66 df 15 3e
       0.037309177 -0.15539351 0.023632456 0.14636001
0000a0 da d0 ff bd af 4f e8 3d 33 f8 ee bd 96 a1 46 be
       -0.12491007 0.113433234 -0.11668434 -0.19397578
0000b0 42 07 8a be 0f 84 59 bd e6 b7 85 3b 8b 43 e8 be
       -0.26958662 -0.053104457 0.0040807603 -0.4536403
0000c0 c8 b5 14 3e af b0 b5 3c 2b 72 55 bc 3c 41 6f be
       0.14522469 0.022178976 -0.013027708 -0.23364729
0000d0 d5 3e f4 bb 30 14 64 3e ab 47 73 be 80 4e 02 be
       -0.007453779 0.22273326 -0.23757808 -0.12725258
0000e0 2a f1 ba bc 21 f4 72 3e 78 1e 7e bd 12 eb 7f 3d
       -0.022820074 0.2372594 -0.062040776 0.06248004
0000f0 25 e5 4d be ce ca 1c be 86 e6 f3 3c c4 f5 99 3e
       -0.20106943 -0.15311739 0.029773008 0.30070317

encoder.6.weight f4 [64, 1, 5, 5]
000000 83 cb fc bc fc 14 c9 be d4 09 d2 bd 10 86 1c be
       -0.03085876 -0.39273822 -0.10255781 -0.15285516
000010 38 68 30 3d 31 1d c3 be 96 95 01 3e 6a e3 79 3e
       0.04306814 -0.3810821 0.12654719 0.24403158
000020 1e ef 8b 3e 5c c5 e4 bd 94 08 fc 3d 11 63 bf 3e
       0.2733087 -0.11170456 0.12306324 0.3738027
000030 37 26 a9 3e 1b 0d 2d 3d 9e c0 84 be 1a fb 27 bc
       0.33036968 0.042248826 -0.25928205 -0.010252738
000040 95 39 63 3e 0b 11 86 3e bc 54 53 3e 57 49 26 be
       0.22189935 0.26184878 0.20637792 -0.16238914
000050 ab 1b 96 be fb 31 8d be c2 92 88 bd b5 4b 35 be
       -0.29317984 -0.27577195 -0.06668617 -0.17704661
000060 e0 f2 0c be 26 2c 4b be 8e 95 4c be 43 83 c5 bd
       -0.13764524 -0.1984106 -0.19978926 -0.09644177
000070 07 22 9b 3e e0 97 bc 3e 3e a9 95 be 1a d1 ea be
       0.30299398 0.3683462 -0.29230684 -0.45862657
000080 ff 00 fa bd cf e8 25 3e fd 83 e7 3e a8 fb 93 bc
       -0.12207221 0.1620209 0.45217887 -0.018064335
000090 e7 ff d1 bd 16 74 0e be d1 d6 34 be 3d 0a f0 3d
       -0.102538876 -0.13911471 -0.17660071 0.11720703
0000a0 88 d8 cf 3e 53 ce ba 3e d4 86 20 bd bc dc 9f be
       0.40594888 0.36485538 -0.039191082 -0.31223094
0000b0 a2 6d 69 be 78 6c a1 3e fe ba e9 3e ef 44 ac 3e
       -0.22795728 0.31528068 0.45650476 0.33646342
0000c0 d5 4b 7a be ef 9a bc be c1 83 20 3f 81 b6 22 3e
       -0.2444299 -0.36836955 0.6270104 0.15889932
0000d0 74 d1 b5 be c3 ff e5 be ab d8 a1 be e3 14 3f 3e
       -0.35511363 -0.44921693 -0.31610617 0.18660311
0000e0 24 ce b7 3e 35 f5 90 3d 29 2d 64 3d a6 a7 35 3c
       0.3589946 0.070780195 0.05570713 0.011087334
0000f0 d5 96 4b be 23 e4 ac 3d 95 8d a7 3e 3b bf 2f 3e
       -0.19881757 0.08441951 0.32725206 0.17162792
000100 4a d0 52 be 9a f8 e7 be 95 1a 8b 3b 10 d2 51 3e
       -0.20587268 -0.45306855 0.004245112 0.20490289
000110 23 f0 58 be 9f f2 cb be 22 fd 88 be 33 24 3f 3e
       -0.21185355 -0.39833543 -0.26755625 0.18666153
000120 61 9b da bd 1c 63 e3 be 08 9c df be cb 28 c8 3e
       -0.106741674 -0.44411552 -0.4367373 0.39093623
000130 95 34 0e 3e 53 b4 9d 3e 64 76 11 3e 6c 26 f3 bd
       0.13887246 0.3080164 0.14205319 -0.11872563
000140 f8 50 0f 3e 58 e8 8e 3d 08 43 cc 3e 94 49 97 3e
       0.13995731 0.0697791 0.3989489 0.29548323
000150 a0 e1 e8 bd 53 6e e5 3e 45 3d b5 3e 48 df f8 3e
       -0.113711596 0.44810733 0.35398307 0.4860785
000160 1f 23 1f 3f 61 a3 9a 3e 0f 6c 50 3e 9d 8b 89 3e
       0.62162966 0.30202773 0.20353721 0.2686433
000170 45 36 2d 3f c9 c4 6c 3f 55 55 1b 3f 91 98 69 3d
       0.67660934 0.9248777 0.6067708 0.057030264
000180 9c 4f 9d 3d 05 6d ea 3e 13 18 52 3f 38 3d ad 3e
       0.076812 0.457863 0.82067984 0.3383577
000190 b3 b2 14 3e ef cf d0 3e 6b 55 37 bb 61 69 dc be
       0.14521293 0.4078364 -0.0027974497 -0.43049148
0001a0 e5 9b 09 be f2 b5 3a 3d 15 a0 4a 3e 43 32 5b 3e
       -0.13438375 0.045583673 0.19787629 0.21405892
0001b0 3f d9 95 3d 20 4d 26 be d3 d3 e2 be bf ed a8 3d
       0.07316827 -0.16240358 -0.44302234 0.082484715
0001c0 b0 52 9e 3e 91 06 3a 3e 27 97 65 bc 6d 6f 04 bf
       0.3092246 0.18166567 -0.014013088 -0.5173252
0001d0 bd a6 ac be 9a 0f 72 3d 63 90 a0 3e b8 fd bf 3e
       -0.3372096 0.05909691 0.31360158 0.3749826
0001e0 c9 eb ec 3d bc 0b ae be fb f0 bf be b7 7c f7 bd
       0.1156841 -0.33993328 -0.3748854 -0.12084334
0001f0 35 32 8e 3e e7 aa 36 3e 89 d7 ba 3d f6 bd 00 3e
       0.2777268 0.17838632 0.09123141 0.12572464
000200 10 5b 31 3e 32 f5 59 3e a5 da e4 3d 89 18 34 b8
       0.17319894 0.21284941 0.11174516 -4.2938194e-05
000210 0b 23 b8 be 4b 1c 2b be 03 3b 8e 3e 30 fe 60 3e
       -0.35964236 -0.16710012 0.27779397 0.21971965
000220 4f d2 4c bd d0 90 ea be 98 ac e4 be 38 bd 09 be
       -0.050005253 -0.45813608 -0.4466293 -0.13451087
000230 61 00 a2 3e 46 2c 29 3d 03 0e 88 be 4e 5f 3d bf
       0.31640914 0.041301988 -0.2657319 -0.7397355
000240 d1 6b 33 be 00 96 94 3d d9 03 79 3e 3d c2 f5 3d
       -0.17521597 0.07255173 0.24317874 0.11999939
000250 40 89 5c bd 45 bd 76 bb 9c 0d f9 bc 8b aa 86 3d
       -0.05384183 -0.0037649435 -0.030401997 0.06575497
000260 ca 08 9a bd 91 42 64 bd 31 cc 6a 3e 54 59 a4 3c
       -0.07521208 -0.055727545 0.22929455 0.020062126
000270 cf 89 20 3d 14 12 86 bd f2 97 15 be 69 af 62 3e
       0.039193925 -0.06546417 -0.14608744 0.22137226
000280 3a cc 6b 3d 2a ae 39 be 34 f1 0a bd 86 35 36 be
       0.057567813 -0.18132845 -0.033921435 -0.17793855
000290 85 14 d4 3e 41 c3 9d bd ad 92 61 be 2c cf 97 be
       0.41421905 -0.07703257 -0.22028609 -0.29650247
0002a0 1b af da be ff 2b 97 3e e3 3e a2 3d 1f b6 7e 3e
       -0.4271172 0.29525754 0.07922151 0.24874161
0002b0 bc ab 4e 3e aa c8 88 bd be f3 d2 3e 13 d2 f9 bd
       0.20182699 -0.06678899 0.41201586 -0.121982716
0002c0 f6 47 46 3e 64 ee ff bd 66 5c 83 bd bd dd 49 3e
       0.19363388 -0.12496641 -0.06414108 0.19713493
0002d0 e7 55 74 3d 5e ad b5 bc 5f c1 81 bd 55 c5 b8 3d
       0.059652235 -0.022177394 -0.06335711 0.09022013
0002e0 7f 2b e4 3d 01 9c f1 bd 37 d3 56 3e b7 6d 8c bd
       0.11141109 -0.117973335 0.2097901 -0.06856864
0002f0 a4 62 1f 3d ee ad f6 bd 59 39 ca 3d 5a 53 bd bd
       0.03891243 -0.12044893 0.098742194 -0.09244414
000300 76 97 98 3d ef 2f cf 3d 25 62 a2 3c 61 8b 04 be
       0.07450764 0.101165645 0.01982219 -0.12943794
000310 ed c4 07 3e 17 7d 7c bd 90 3f cf bd 27 4f 46 bd
       0.13258715 -0.061642732 -0.101195455 -0.04841533
000320 02 b5 41 3e 3e 1f 59 3d b2 f0 a4 3e 93 b3 4d 3e
       0.18916705 0.05300831 0.32214886 0.20088033
000330 d7 7a 46 bc 3d 8d fb 3b a4 e4 b2 3d e8 a5 15 bd
       -0.012114248 0.007676749 0.08735016 -0.036535174
000340 e1 c4 ac 3d d9 e6 92 3d 6a ee 50 3e dc 80 00 3e
       0.08435989 0.07172937 0.20403448 0.12549156
000350 8a 14 cd 3c e2 0d 51 3e 4c d7 5a 3e c3 7a 9c 3e
       0.025034208 0.20415452 0.21371192 0.3056241
000360 66 4e e3 3c 63 4f 9d 3e b2 bd a2 3e 62 14 06 3e
       0.027747344 0.3072463 0.3178535 0.13093713
000370 07 6d 6f 3e 2e 33 0c 3d ab a1 57 3e 94 c5 1b 3e
       0.23381434 0.034228496 0.21057765 0.15212089
000380 e5 20 8d 3d c4 17 b6 3d 3e ca c8 bc ca 40 ee bd
       0.0689104 0.08891252 -0.0245105 -0.11633451
000390 63 a3 3b be 96 a1 9f be 48 22 ba bd 2d f0 2f be
       -0.18324046 -0.31177968 -0.0908857 -0.17181464
0003a0 5d ce 7a ba 78 a7 6d 3e 84 5b 3e 3d 25 c8 8d be
       -0.00095674937 0.23208416 0.046473995 -0.2769176
0003b0 1e 78 82 be 22 c1 6c 3d 58 a6 a5 3e f3 e2 87 3c
       -0.25482267 0.057801373 0.32353473 0.01658771
0003c0 62 44 ab be 33 76 45 3e 76 0a 9c 3e d8 60 89 3e
       -0.3345061 0.1928337 0.3047673 0.26831698
0003d0 ad e6 56 3d 53 52 67 bd 20 cb 63 3e 88 6e 51 3e
       0.052466083 -0.056474995 0.22245455 0.2045232
0003e0 62 54 26 3d 82 a9 db be 21 ae 15 be 02 e8 bd 3d
       0.040607817 -0.42902762 -0.14617206 0.092727676
0003f0 45 e5 43 bd 58 9d 3b 3e a9 6e 8e bd cd 11 27 be
       -0.04782607 0.1832174 -0.069547005 -0.16315384

encoder.6.bias f4 [64]
000000 93 37 af bd 42 00 e8 bd 2e 80 ee 3c fa 14 2a bd
       -0.08555522 -0.11328174 0.029113855 -0.04152391
000010 36 17 2d bd 9c cd 92 bc d0 ac 0d 3d b2 db 6f bb
       -0.042258464 -0.017920308 0.034588635 -0.0036599454
000020 1b b5 eb 3c 06 16 a2 bc 3f b6 89 bc 75 fd 07 3c
       0.028772881 -0.019785892 -0.016810535 0.008300175
000030 a1 4d 0d 3c e9 51 04 bd 75 2a ea 3d 3b a0 38 3c
       0.008624465 -0.032304678 0.11433879 0.011268671
000040 72 9b 50 bd c5 eb 17 3c 65 49 32 bc ab 0e 61 bd
       -0.050929494 0.00927252 -0.010881756 -0.05494563
000050 1c 34 ba 3d 92 00 ae bd 50 3a 8a b9 31 c7 0f 3c
       0.0909197 -0.084962025 -0.00026364857 0.008775518
000060 2c 77 15 3d 8b bf 09 3e 66 37 04 bd 7b a0 1a bd
       0.036490604 0.13451974 -0.032279395 -0.037750702
000070 cd 4b 75 3c cd 38 66 3d 9b d6 86 3d ec d8 98 39
       0.014971686 0.056206513 0.065839015 0.0002915332
000080 8f 98 24 bc fa db b8 bd 07 26 20 bd 23 dd 51 3d
       -0.010046138 -0.09026332 -0.039098766 0.051236283
000090 66 7f 0b be 7d 9f ea 3a 6a 09 38 bc cf 60 f0 bc
       -0.13622817 0.0017900314 -0.011232713 -0.029343037
0000a0 72 03 fc bd 0d f3 3f bc 15 bb 3c 3d 64 9b 9a 3d
       -0.12305345 -0.011715663 0.046076853 0.0754917
0000b0 85 f3 c8 bd 26 ed 8b bc 53 4b 95 bb df a7 be bc
       -0.09812073 -0.017080855 -0.0045560985 -0.023273407
0000c0 05 fd ef 3d 91 95 39 3d 67 d7 2c ba 8f 92 77 3d
       0.117181815 0.045308653 -0.0006593377 0.060442504
0000d0 77 54 bc bd 77 67 0a 3d e3 05 e3 bb 4a 0c 76 3c
       -0.09195798 0.033790078 -0.006928192 0.015017578
0000e0 2f 35 cf bb 7d 38 62 3d 99 41 0d bd 42 53 ad bc
       -0.0063234787 0.055229653 -0.034486387 -0.021157864
0000f0 62 13 f3 bc d3 01 31 be 10 28 4f 3c 0b 5a bb bd
       -0.029672328 -0.17285852 0.012643829 -0.09148034

encoder.7.weight f4 [128, 64, 1, 1]
000000 dc 18 8c 3e b5 6c 89 bd 09 b8 cc 3e 46 04 8d 3e
       0.27362716 -0.06710187 0.39984158 0.27542323
000010 9a 3d d3 be 7c 14 b6 3b 7a 4f 01 bf 9b ed 20 be
       -0.41257936 0.005556641 -0.50511897 -0.1571564
000020 8f 6b 80 bd f9 03 a2 3e 71 a6 b1 3d e7 69 6e 3e
       -0.06270515 0.31643656 0.08674324 0.23282586
000030 02 b6 1a 3e 37 0d 79 be 45 a0 cf be b6 59 7e 3e
       0.15108493 -0.24321447 -0.40551963 0.2483891
000040 67 b1 80 3c 97 29 46 bd 4e 99 2c 3e d4 35 f6 be
       0.015709592 -0.048379507 0.16855356 -0.48087943
000050 07 0b 8f 3e 6f c0 bb bd a7 db 67 bd 91 60 eb 3e
       0.279381 -0.09167563 -0.05660596 0.45972112
000060 5e 22 5a be c0 92 1e 3e 67 f0 34 be 14 cd 91 3c
       -0.21302173 0.15485668 -0.17669831 0.017797984
000070 b2 01 b1 bd f6 84 23 bf c4 8b 9c be 6d 0f fc 3c
       -0.086429015 -0.6387476 -0.30575383 0.030769074
000080 c3 87 ad be 65 a4 4c 3d 4f a4 4d 3d 53 b8 ff 3d
       -0.3389264 0.049961466 0.050205525 0.12486329
000090 29 d1 58 bd 96 34 06 be 65 29 21 be 60 10 c7 bd
       -0.052933846 -0.13105997 -0.15738447 -0.0971992
0000a0 cb 2c 62 be af 3a da 3e aa 6a 5e 3e ed 2d 57 3d
       -0.220874 0.42622897 0.21720377 0.052534033
0000b0 27 44 a1 3d c7 fb 76 3d 98 ba 3c bd e8 16 31 3e
       0.07874327 0.060298707 -0.046076387 0.17293894
0000c0 75 23 cd bb 97 77 0e 3d 10 13 02 bd 93 ba c3 3e
       -0.0062603303 0.03478202 -0.03175646 0.38228282
0000d0 57 e1 a6 bd e7 c8 f8 be c1 3d 07 be 6a ea 44 be
       -0.08148449 -0.48590776 -0.13207151 -0.19230047
0000e0 f8 9b 69 3e a3 54 11 bd e5 ca 05 3f c1 ed 9c be
       0.22813404 -0.035481106 0.5226272 -0.30650142
0000f0 73 fa fd 3d c1 5f 07 be b2 97 7a be 6c b0 98 be
       0.12401285 -0.13220121 -0.2447193 -0.298221
000100 6c 75 73 3e c0 04 b8 bd db 80 67 bd 94 41 c3 3d
       0.23775262 -0.08985281 -0.05651937 0.095339924
000110 1a df 7e 3e c8 46 87 bc 2c ec d6 bd 19 53 8c 3d
       0.24889794 -0.016513243 -0.10494265 0.06851787
000120 c4 ec 4b 3d f3 65 ab 3e 30 fa 46 3e 64 d0 bb be
       0.049786344 0.3347622 0.19431376 -0.36682427
000130 6a 0c 4e 3d 9d de 4e 3e c7 3a 6f bd 02 21 58 3d
       0.050304808 0.20202108 -0.058405664 0.052765854
000140 25 82 58 3e e6 42 1b 3d f5 e7 9b 3e 6b ca 6c bd
       0.21143396 0.037905596 0.30450407 -0.05781023
000150 0d 2e 1e bd a1 04 b9 bd cf 5e 88 3e 8e 2d 24 3e
       -0.038618136 -0.09034086 0.26634833 0.16033003
000160 90 35 cc bd 65 71 06 3e b3 e2 aa be 8b 2e 14 bd
       -0.09971154 0.13129194 -0.33376083 -0.0361772
000170 8f ec 7a 3e b7 31 a2 bd 26 60 dd 3e a3 0e c7 bd
       0.24504302 -0.079196386 0.43237418 -0.097195886
000180 e6 c9 1d be 9c 2d f9 3d 53 95 2c 3d b4 fb 92 3d
       -0.1540905 0.121669024 0.042134594 0.07176915
000190 52 84 4a 3e 20 62 9f bd b9 31 75 3e fc b7 b8 3d
       0.19777039 -0.07782388 0.23944749 0.09019467
0001a0 23 56 ce 3e d1 fe c1 3e 13 6b 8f bc 63 c2 19 be
       0.40300092 0.37889722 -0.017507112 -0.15015559
0001b0 83 d2 09 bd 51 c9 7f be 0f 84 56 bb 6f ba 33 3d
       -0.033648025 -0.2497914 -0.0032732522 0.04387897
0001c0 c0 27 24 bf d5 15 20 3e 98 5b da bc 9e b2 3e bc
       -0.64123154 0.15633328 -0.026655003 -0.011639265
0001d0 9f 75 42 3e 8f 27 45 3e 8a d6 4f bd b7 0e ca be
       0.18990181 0.19253372 -0.05074171 -0.39464352
0001e0 29 e0 89 be cc fe 99 3e d3 fd 8d be 76 4f d3 3d
       -0.26928833 0.30077207 -0.27732715 0.1031789
0001f0 a0 1c 42 3f a9 f3 c8 3e 18 cc c8 bd 08 c0 f5 3e
       0.7582493 0.39248398 -0.09804553 0.4799807
000200 22 d4 11 3f b3 55 59 3f b5 ba e4 3e a2 cb 80 be
       0.56964314 0.8489639 0.44673696 -0.2515536
000210 f0 10 ee 3e c2 86 c8 3e 13 07 5b bf e9 af d0 bc
       0.46497297 0.39165312 -0.8555767 -0.025474505
000220 d9 20 a3 3b 89 6e 5b 3d 48 cd 33 3d 7a 79 e7 be
       0.004978281 0.05357221 0.043896943 -0.45209867
000230 45 30 b7 3d 34 c0 1d 3f 4c f2 d0 be 44 a2 11 bf
       0.089447536 0.61621404 -0.40809858 -0.5688822
000240 27 5b e7 3e 1b c8 03 3d 73 ee f0 3e 4f 14 58 3f
       0.4518673 0.032173257 0.47056922 0.8440599
000250 a1 fe bc bd 58 e4 6a bd ce 61 cb bd 6a 39 cf 3e
       -0.09228254 -0.05734667 -0.09930764 0.4047349
000260 55 39 1b be e5 12 ab 3e a8 ee 27 3f 2a 4d f7 3d
       -0.15158589 0.33412853 0.65598536 0.12075265
000270 f3 2e b0 3c 83 c2 02 3f 5b 66 3c 3e e2 ce df 3c
       0.021506762 0.5107805 0.1839842 0.02732033
000280 a4 4c a8 3c 01 de 6a 3d c3 7e 2f 3e 46 41 06 bd
       0.020544358 0.057340626 0.171382 -0.032777093
000290 ab 63 9e bf 8a a4 92 3c 3a 86 58 3d 89 d3 a1 be
       -1.2374166 0.017900724 0.052862383 -0.316067
0002a0 83 47 90 3e b6 24 a0 bf 34 d1 29 3d 47 c6 d3 3e
       0.2817956 -1.2511203 0.041459277 0.4136221
0002b0 81 a3 9f be 83 0e 32 3f 10 cf 11 be c7 0d 03 3f
       -0.3117943 0.69553393 -0.14239144 0.511929
0002c0 4e e6 07 bf e7 0a 0c bb 50 7d 88 bd e1 0c 69 3e
       -0.5308579 -0.0021368803 -0.066645265 0.22758819
0002d0 04 0d cc be bf f5 43 3e 34 36 08 3f 76 37 ac 3f
       -0.3985368 0.19136713 0.5320771 1.3454425
0002e0 e4 36 44 bf 44 61 84 bf 33 b9 47 3f c5 d9 4d 3f
       -0.76646256 -1.0342183 0.78016967 0.80410415
0002f0 5d 13 b0 3f 8a cb ef 3e ee f1 ea bd 2d e0 81 3e
       1.3755909 0.46834975 -0.11471926 0.25366345
000300 ad 35 ea bd eb 67 f3 bc 53 89 39 bd e7 40 76 be
       -0.11436019 -0.029712638 -0.04529698 -0.24048196
000310 41 de 9d be cf 39 fb 3a 62 0e 41 3c a0 48 c5 3c
       -0.3083363 0.0019167009 0.011783214 0.024082482
000320 e7 49 00 3e 86 d2 dc 3e 2f 6e c8 bd 07 15 7b 3e
       0.12528192 0.43129367 -0.09786641 0.2451974
000330 45 65 ea 3d b9 5e 25 be 93 81 a2 bd 2f 43 ea 3d
       0.11445097 -0.16149415 -0.079348706 0.114385955
000340 c3 ea 50 bd a9 24 49 3e 61 96 cf 3e 32 76 53 bd
       -0.051005136 0.19642891 0.40544418 -0.05162639
000350 b8 c3 69 3e a4 90 15 bd b7 1b 13 3e 30 48 df 3d
       0.22828567 -0.036514893 0.14366041 0.109024405
000360 2c 76 49 3e 6b d6 67 3e 48 c8 13 bd dc 03 8f 3d
       0.19673985 0.22640388 -0.036079675 0.06983158
000370 fa b2 c8 be 5c 8f 5f bd 41 22 5a be a6 83 cd 3c
       -0.39199048 -0.054580078 -0.2130213 0.025087189
000380 fa 78 53 3e a4 89 1f 3c fd 29 9f 3e d5 df d2 3d
       0.20651618 0.009737406 0.31086722 0.10296599
000390 28 92 a1 bd 59 0a bf 3c 18 2f 42 3e fc 8d 98 be
       -0.07889205 0.023320364 0.18963277 -0.29795825
0003a0 f5 93 ad bc ee 30 12 3f f6 ac 30 3e 93 3b 06 3f
       -0.021188715 0.5710591 0.1725348 0.52434653
0003b0 2d 86 61 3c 4c 20 b9 3d 0c 55 d6 3c a7 f7 c1 bd
       0.0137649 0.09039363 0.0261636 -0.09471064
0003c0 3e 01 ed be 41 f6 78 bd f4 01 2b 39 bf 62 e0 3d
       -0.4629001 -0.06078172 0.00016308558 0.10956334
0003d0 35 ea c0 3d 6c 2b 26 3e 61 1d 40 bd 1f 62 a1 bd
       0.094196714 0.16227502 -0.046903018 -0.07880043
0003e0 c1 19 15 be bf 01 94 bd c5 66 ab 3d 6a f5 6f be
       -0.14560606 -0.072268955 0.08369211 -0.23433462
0003f0 be 3c c1 3d b6 96 cf bc c9 08 1c 3e 23 68 b8 bd
       0.09435414 -0.02534042 0.15237726 -0.090042375

encoder.7.bias f4 [128]
000000 fd f6 d2 3a 46 ae 89 be 9b dd 05 be 79 0a ae bd
       0.0016095337 -0.26890773 -0.13072817 -0.08498091
000010 b4 cd 63 bd 48 ef 29 3e a2 70 5f 3e 6c 89 e0 3d
       -0.055616096 0.16595185 0.2182031 0.10963711
000020 0c d8 4d bd ce 13 d9 bc be 92 a6 be e8 dd 64 be
       -0.050254866 -0.026498701 -0.3253383 -0.22350276
000030 85 19 01 bd 84 d3 04 be e3 9b 87 3d 10 c5 10 be
       -0.031518478 -0.12971312 0.0662153 -0.14137673
000040 0b 20 92 bc 6b 58 1b be ac 21 ce be 0a 72 4d 3c
       -0.017837545 -0.15170448 -0.40260065 0.012539396
000050 dd 2f 12 be f2 b8 e9 3d 5b 5b 21 be 9b 41 89 be
       -0.14276071 0.11412229 -0.15757506 -0.26807866
000060 94 7a 83 3e e7 60 94 3e 1a 61 60 be c4 b2 83 be
       0.25679457 0.2898018 -0.21912041 -0.25722325
000070 00 36 08 be 25 d9 36 bb 68 a5 f0 bd 1a 3f 17 3e
       -0.1330185 -0.0027900424 -0.11750299 0.14770165
000080 6b 13 3b be d9 35 f2 bd 6f e3 e8 bd ca 71 2b 3d
       -0.18269126 -0.11826677 -0.113715045 0.041856565
000090 7b 76 3c 3e a9 af 3a be a4 ec 23 bc 75 e9 6b be
       0.18404572 -0.18231072 -0.01000515 -0.23038276
0000a0 eb b2 7f bd 6d fc 35 be 2f a0 97 be 6e ab 23 be
       -0.06242649 -0.17772074 -0.29614398 -0.15983364
0000b0 bb 94 31 be 41 3a b5 bd 4d 44 2a be 4c 3c 8b bd
       -0.17341892 -0.08849002 -0.16627617 -0.0679861
0000c0 5d e9 5c be c7 a1 0e 3e d7 bc a5 bc c6 f0 65 be
       -0.21573396 0.139289 -0.020231647 -0.22455129
0000d0 2d ba 9a bc 61 aa b5 be b0 c4 ee bc 8f 5e 88 be
       -0.018887604 -0.3548155 -0.029146522 -0.26634642
0000e0 3d 03 0b be f4 36 5f bd a6 9b 39 bd 8c 43 90 be
       -0.13575454 -0.054495767 -0.045314454 -0.28176534
0000f0 94 d4 bb bd 9b 86 24 bd a4 13 21 3c d2 cf 8d be
       -0.091714054 -0.040167432 0.009831343 -0.27697617
000100 03 64 0a be e1 bd 15 be 58 3b bf bd 7f 11 37 be
       -0.13514714 -0.14623214 -0.09337491 -0.17877768
000110 cc 44 09 3f 7e 61 e6 bc 8a d5 6d be f6 37 0f be
       0.536206 -0.02812266 -0.2322599 -0.13986191
000120 7f 74 1a be 47 2a 27 be b3 2c 71 be 37 73 3e 3d
       -0.15083502 -0.16324721 -0.23552208 0.046496596
000130 0d 59 f4 3d 97 bb 31 be 13 35 b9 be 33 5f 46 be
       0.119310476 -0.17356716 -0.36173305 -0.19372253
000140 b6 21 80 bb 1a 22 bb bd 05 9b 9c bd 6a 97 07 3c
       -0.0039102687 -0.09137364 -0.07646755 0.008275846
000150 f4 4b 75 bc 1a a0 a0 be d3 3d 30 be b3 34 e6 3d
       -0.014971722 -0.31372148 -0.17211084 0.1124052
000160 77 b6 3d bd 70 d3 8d 3c 5f c2 f6 3d a9 a7 67 be
       -0.04631659 0.017312735 0.12048792 -0.22622551
000170 c0 b6 76 bc 1c 8c 99 bd e6 c3 d2 bb 10 24 52 bd
       -0.015058219 -0.07497427 -0.0064320443 -0.051303923
000180 49 3a 46 bd d7 a8 6d 3d 32 80 c2 3d 95 7e 1c bd
       -0.04839543 0.058022346 0.094971076 -0.038206656
000190 c7 50 0d 3e ce e5 20 ba 35 cb d2 bc 39 0b 99 bc
       0.13800345 -0.0006137759 -0.025731662 -0.01868211
0001a0 37 a2 89 be 65 5b cf bd 01 a1 06 be 9c 6d 27 3e
       -0.26881573 -0.10124854 -0.13147356 0.16350406
0001b0 96 36 34 be 2e 0b 34 3e 8d d2 33 be 22 8e ec bd
       -0.17598948 0.1758239 -0.17560787 -0.11550547
0001c0 4a 8d 98 bd e0 33 ad 3d 43 0c 28 3c 76 79 ba 3c
       -0.07448824 0.0845716 0.01025683 0.022762995
0001d0 64 3f 9b bd f8 4b 55 be 65 f0 2c be 72 ef c6 bd
       -0.0758045 -0.20829761 -0.16888578 -0.09713639
0001e0 bf 80 a8 bd ee e6 b3 bd 37 a9 e7 bd 24 4d 1a be
       -0.08227681 -0.08784281 -0.11311572 -0.1506849
0001f0 6e 77 d8 bd ed 64 da be 12 a8 35 3e 9a 82 25 bf
       -0.105696544 -0.42655125 0.17739895 -0.6465241

encoder.9.weight f4 [128, 1, 5, 5]
000000 d4 15 8a be cb 8e 8b bd 99 ba 14 3e 69 ee 7c 3e
       -0.2696978 -0.06814345 0.14524306 0.24700321
000010 6b 61 2a 3e 3a 14 7e be b5 a0 46 be c8 af 8d bd
       0.16638725 -0.24812403 -0.19397242 -0.06918293
000020 31 f4 91 3e bf db 06 bd 21 26 b9 3d 0f ef 5b 3d
       0.28506616 -0.03292441 0.09040476 0.05369478
000030 1a 98 ad bd d2 82 85 be 34 76 65 3e 93 b3 32 be
       -0.08476277 -0.2607637 0.22408372 -0.17451315
000040 b6 b2 aa 3d 0c fc 68 be 82 08 8f be 4b 9c e3 3e
       0.08334868 -0.22752398 -0.27936178 0.4445518
000050 55 81 ca bc b7 f4 6e bd 00 c1 e0 3d 4b bd eb 3e
       -0.024719873 -0.058338847 0.10974312 0.46042857
000060 05 c8 2c 3e 5c d1 09 3e ea b7 10 3e 25 4a 85 3c
       0.16873176 0.1345877 0.14132658 0.016270706
000070 e5 70 e8 bd b1 6e 9b be 99 69 88 3e b4 d7 a1 3e
       -0.11349658 -0.30357888 0.26643065 0.3160988
000080 d6 df 00 3f 49 7c 46 3c 33 da 4c be 9a cc 09 3e
       0.50341547 0.012114593 -0.20005111 0.13456956
000090 93 6e 91 3e 82 0c bd 3e f6 58 1a 3e 92 ee dc 3c
       0.28404674 0.36923605 0.15072998 0.026969228
0000a0 d5 3c d2 3e 13 85 5c 3e 33 aa 15 bd 40 c3 eb bc
       0.41062036 0.21535139 -0.036539268 -0.028779626
0000b0 83 d3 66 be fa 1d 3d be 64 bb ab bd cc 24 f7 be
       -0.22541623 -0.18468466 -0.08385351 -0.4827026
0000c0 2a 84 4c be 8a 2d a4 3e a7 5c 0f 3e 0c fd 32 3e
       -0.19972292 0.32065994 0.14000188 0.17479342
0000d0 cf 35 e6 3c 66 4c cb be 9e e4 0f bf e6 19 6d 3e
       0.02810183 -0.39706725 -0.5620822 0.2315441
0000e0 b9 ed 83 3e 0b d3 75 3e a1 45 2d be a2 05 43 bf
       0.25767305 0.24006288 -0.16921093 -0.7618047
0000f0 ca d2 d7 3d f2 60 99 3e 09 9a af 3e a6 68 a3 3d
       0.10538252 0.29956776 0.34297207 0.079789445
000100 d5 22 a4 be c7 ec c4 be db 45 3b be 4f 83 82 3c
       -0.32057825 -0.38461897 -0.18288366 0.015931753
000110 af 2a ec 3e fb 7c cb 3d 83 b4 04 bf 02 4f 2e bf
       0.46126315 0.099359475 -0.5183794 -0.68089306
000120 8d da cd be 40 fc 27 3c 5a ae 4d 3e 94 22 52 3e
       -0.40205804 0.010253012 0.20086041 0.20521003
000130 12 a7 05 bd 4a 48 e5 3d 5e 39 25 3d bf 33 c9 bd
       -0.032630034 0.11195429 0.040337913 -0.09824323
000140 76 48 16 3e 41 18 bb be 12 ff 6c be 4b df 27 3e
       0.14676079 -0.36541942 -0.23144177 0.16393773
000150 40 a7 5b 3d 3e 89 5d 3d d5 39 3a bb a0 55 04 3e
       0.0536263 0.054085962 -0.0028415818 0.12923288
000160 94 e7 71 3e 1d 73 95 3e fe 71 fe 3d 6a 64 0e 3e
       0.23623496 0.29189387 0.12424086 0.13905492
000170 c6 1c 53 3d 14 54 71 3e 59 3c d2 3c 3d e8 1e 3e
       0.051541112 0.2356723 0.025663542 0.1551828
000180 09 88 31 be cc 90 27 3d e2 16 90 3e b9 bd 16 be
       -0.1733705 0.040909573 0.28142458 -0.14720811
000190 1b 64 3f 3d c2 79 25 bd 6f 96 45 3e 88 36 18 3e
       0.046726327 -0.04039932 0.19295667 0.14864552
0001a0 fb 34 19 3e 12 4c 7a bc 9a c4 62 ba b5 ab a3 3c
       0.14961617 -0.015276926 -0.0008650512 0.019979337
0001b0 da a7 05 3e fc 62 35 3e 3b d4 37 be fc ab 51 be
       0.13052312 0.17713541 -0.17952053 -0.20475763
0001c0 ba aa a2 be 96 1b b1 bd 51 90 76 3e 8b 27 df 3c
       -0.3177088 -0.0864784 0.2407849 0.027240535
0001d0 4e f6 63 be 24 f0 e1 be ca aa e4 be cd 81 c7 3d
       -0.22261927 -0.44128525 -0.44661552 0.097415544
0001e0 c8 0a 1a 3e c4 a5 c7 3d 3e e0 ba bb 26 bd ab 3c
       0.15043175 0.09748414 -0.0057030013 0.020964216
0001f0 c6 a3 9b 3d cf f4 4b bc 49 df d7 bd aa e8 ca be
       0.07599597 -0.012448504 -0.10540635 -0.39630634
000200 9e 03 f4 be a6 b9 25 be 1f d7 fd bd fd 82 81 3d
       -0.4765901 -0.161841 -0.12394547 0.06323812
000210 0d af 1f 3e 95 44 a8 be 32 5e 0a bf 56 98 00 bf
       0.1559412 -0.32864824 -0.5404998 -0.50232446
000220 1d 33 65 3e c2 6c 9e 3d 12 85 06 bf d8 92 e0 be
       0.2238278 0.07735588 -0.525468 -0.43862033
000230 e5 bd ff be bd df b6 be fa 8f ee be 40 57 06 bf
       -0.49949566 -0.35717574 -0.4659422 -0.5247688
000240 dc b9 29 be 7d 39 9e be 4a 8b 00 bf 15 07 e9 be
       -0.16574806 -0.30903235 -0.5021254 -0.45513216
000250 85 f6 11 be d7 ea 70 3e da 8a 05 3e 92 46 12 3e
       -0.14254196 0.23527084 0.13041249 0.14284733
000260 73 13 1e 3e 2e 37 3d 3e 0d 55 55 3e a5 fa 92 3c
       0.15437107 0.1847808 0.20833226 0.017941782
000270 d6 c8 3c 3e bb 34 a5 bd 64 3f 85 3c 28 44 2c 3e
       0.18435988 -0.08066698 0.016265579 0.16822875
000280 59 8d 60 3e ea 2f 9f bc 48 4c d4 be ca f1 3c be
       0.2192892 -0.019432027 -0.41464448 -0.1845161
000290 31 c9 e5 3d cb 67 47 3e 4d 7b af bd 34 1b f6 be
       0.11220015 0.19473188 -0.0856844 -0.4806763
0002a0 de 3e a3 be c4 ef d0 bc 8e d0 09 3e f7 a9 ad 3d
       -0.318839 -0.025504954 0.13458464 0.08479684
0002b0 f6 84 32 3d d1 f9 e1 bd 33 f4 ce bc ba 34 96 bd
       0.043583833 -0.11033977 -0.025262928 -0.073342755
0002c0 4b c8 f9 3b da 23 0b 3e 70 dd d5 3e c8 06 ab 3a
       0.0076227537 0.13587895 0.41770506 0.0013048286
0002d0 6f 18 5c be af 9f 91 be e6 b7 b8 3d 07 4c a6 3e
       -0.21493696 -0.2844214 0.09019451 0.3247988
0002e0 9e 4c 2a 3e ed d9 a1 bd 79 96 9b be 00 f9 f3 be
       0.1663079 -0.07902894 -0.3038824 -0.4765091
0002f0 59 2a c6 3d ac bd be 3e ba 92 88 3e 94 c0 a2 bd
       0.09676046 0.37254083 0.26674443 -0.079468876
000300 80 58 16 bf 25 31 13 bf ea 14 aa 3d 98 77 87 3e
       -0.5872879 -0.57496864 0.0830477 0.2645843
000310 ee 92 94 3e a1 39 3b bc c3 87 a2 be f6 ec 66 be
       0.29018348 -0.011427314 -0.31744203 -0.22551331
000320 2a ca c9 bd f6 07 1f bd 2b cd 1a be ba 2d 88 bd
       -0.09853013 -0.03882595 -0.15117328 -0.06649347
000330 7e 3f 25 be 07 10 48 3e 84 c1 89 3c 73 ae b3 be
       -0.16137502 0.19537364 0.016815908 -0.35094032
000340 10 b6 ca be a2 59 5c be ed 8e 03 3e 27 23 a2 3e
       -0.39592028 -0.21518567 0.1284749 0.31667444
000350 b3 86 74 be 66 8c 24 bf eb b6 49 be 1a e1 9f 3e
       -0.23879509 -0.6427673 -0.19698684 0.31226426
000360 72 a5 d1 3e 66 25 2b 3e 34 46 62 be 15 ec 25 bd
       0.40946537 0.16713485 -0.22097093 -0.04050835
000370 1c 3f 89 bc 01 98 a9 3e 12 cd a8 3e 5b 5b 81 3e
       -0.016753726 0.33123782 0.32968956 0.2526501
000380 70 cf 38 bc 49 5c f4 3d 5d bf 2d 3d bc 8a d8 ba
       -0.011279926 0.119316645 0.042418826 -0.0016520838
000390 95 d8 1f bd 32 ff 28 3e 60 78 5a 3c 68 19 2f 3e
       -0.039024908 0.165036 0.013334364 0.17099535
0003a0 bd a2 d7 bd 4f c8 02 bd e2 06 59 bc 8d ee 48 3d
       -0.10529087 -0.03192931 -0.01324627 0.049055625
0003b0 b3 eb 91 3d 06 77 3a 3d e4 7b 42 be 91 23 89 be
       0.07125034 0.045523666 -0.18992573 -0.26784948
0003c0 fe aa 24 be 22 a2 3e be 58 15 cc 3c a7 ac 69 be
       -0.16080853 -0.18616536 0.024912521 -0.22819768
0003d0 27 be f1 bc 60 73 f6 bd 1e 6c 12 be e5 e9 7c be
       -0.029509617 -0.12033725 -0.14299056 -0.24698599
0003e0 8a e2 da bd f0 8c 17 3c 26 fd 76 3d 20 f6 02 3e
       -0.1068774 0.009249911 0.060300015 0.12789202
0003f0 7b 4d e9 3d 16 5c f7 bd c2 3d 71 be b4 94 92 3e
       0.11391731 -0.12078111 -0.23558715 0.28629076

encoder.9.bias f4 [128]
000000 25 d6 ac bd 0e dc ed bc f5 08 f1 3d ad c7 42 bd
       -0.08439282 -0.029035594 0.117692865 -0.047553707
000010 b6 bd 90 3d 8e 1e 8b 3d 0b 9d 72 bc 56 3b ba bd
       0.070674345 0.06792937 -0.01480795 -0.09093349
000020 ea bf 2d 3e b1 e7 bf 3d ed 12 d5 bc 33 67 68 bb
       0.1696774 0.093703635 -0.026010001 -0.0035461902
000030 b3 84 94 bc 7e 63 7f bd 4b 24 64 3d 17 22 52 bb
       -0.018129682 -0.062350743 0.055698674 -0.0032063776
000040 84 c4 fe bd 93 fd c1 bd 8d 06 11 bc 10 b3 23 bd
       -0.12439826 -0.094721936 -0.0088516595 -0.03996569
000050 b6 28 3a be 77 41 1e bb b9 27 44 3c ff 84 f9 3c
       -0.18179592 -0.0024147907 0.011972361 0.030458925
000060 fe 58 a6 3d 8b 89 bb bc 41 fa 29 bc 4b c5 7b bc
       0.08122443 -0.022892734 -0.010374607 -0.0153668625
000070 67 0f 3d 3d 60 71 43 3c 2f db 0e bc 1e d8 03 3d
       0.046157267 0.011928886 -0.00871925 0.032188527
000080 fa 29 89 bc e0 95 31 bd eb e6 24 3d 56 a7 65 3c
       -0.016743649 -0.043355823 0.040259283 0.014016947
000090 05 80 96 bd e9 71 f5 bd 9e 30 85 3c 77 80 9a 3a
       -0.073486365 -0.11984617 0.016258534 0.0011787553
0000a0 1a d3 32 bc ec 21 77 bd 6c af 06 3c e8 b4 89 bd
       -0.010914588 -0.060335085 0.008220535 -0.06723958
0000b0 22 9b bf 3c 1f e1 46 3d 51 8b 8d bc d1 0a 75 bc
       0.023389403 0.048554536 -0.017278345 -0.014956192
0000c0 36 00 ce 3b f5 56 3d 3d 00 d1 ba 3c 88 f6 92 3d
       0.0062866462 0.046225507 0.022804737 0.07175928
0000d0 89 26 1f 3d c0 4f 5f 3c e2 39 e9 3a 60 bb 13 bc
       0.03885511 0.013629854 0.001779374 -0.009016842
0000e0 e3 f8 31 3c 0b c9 d5 bb 80 53 0d 3c 21 ef fd bd
       0.010862562 -0.0065242103 0.008625865 -0.12399126
0000f0 f9 41 e6 bc af b5 73 bd 52 e4 6f 3b b0 0b b5 bd
       -0.02810763 -0.05949944 0.0036604595 -0.0884012
000100 7a 7c 4c 3d 50 a4 e5 3c 0e 72 f2 bb 4c 09 84 bd
       0.049923398 0.028032452 -0.0073988503 -0.06447086
000110 8e b8 97 3d 2f 25 8c 3b f2 11 89 3a 5f 5e ee 3b
       0.07408248 0.0042768936 0.0010457619 0.0072744335
000120 9f 7d 30 bd 0d 19 4d bd 54 6d 7a 3d f2 67 79 bd
       -0.04308855 -0.05007272 0.06113942 -0.060890146
000130 6a 27 0e be c3 cd bc bc c4 2c 0a bc 17 f7 74 bc
       -0.13882223 -0.023047334 -0.0084335245 -0.014951489
000140 b6 ae 88 bd e8 5b 9f bd 94 44 06 3c ed 95 b0 3d
       -0.066739485 -0.077812016 0.008195061 0.08622346
000150 d8 49 ea bb b5 d4 f4 3d a7 09 37 bd c2 22 19 3d
       -0.007149916 0.11954633 -0.04468694 0.037386663
000160 8b fa 91 bc ff fe fd bc 45 0a 4b be ed 5e e5 bd
       -0.017819664 -0.03100538 -0.19828136 -0.11199746
000170 68 5f 47 3c cf 02 67 3d b3 58 5d bc 54 38 7f bc
       0.012168743 0.056399163 -0.013509917 -0.0155773945
000180 f0 e7 d5 bd bf 65 6e 3d e1 3f 0e bd 98 8c 24 3c
       -0.10444629 0.0582025 -0.03472889 0.010043286
000190 91 ee d1 3c 12 ff 0c 3b aa 8e e8 bc 94 09 de bc
       0.025626453 0.0021514338 -0.02838834 -0.027104177
0001a0 16 a3 e4 bb 8d 97 84 3b 5f 57 6f bb 15 53 11 be
       -0.006977449 0.0040463866 -0.0036520583 -0.1419185
0001b0 d1 4f a1 3b 40 67 85 bd 33 e5 4c bc 18 98 ee 3b
       0.004922845 -0.06513834 -0.012505817 0.0072813146
0001c0 41 ed 11 bd 69 2e d5 3d ce 93 2b bd 77 4b 4a bd
       -0.035626654 0.10409243 -0.041889004 -0.049388375
0001d0 57 90 3d 3c cf 63 35 bc 5b 3c cf 3b f2 6d 58 bb
       0.011570058 -0.0110711595 0.0063243336 -0.0033024517
0001e0 cd 50 a0 bd a3 ac b1 bd 4f 1c 2d 39 19 0a 1c bd
       -0.078279115 -0.08675506 0.00016509111 -0.038095567
0001f0 6a b9 3c ba b8 4c 7f 3d 9e fc 13 bd e3 41 80 bd
       -0.00071992597 0.062329024 -0.036129586 -0.06262567
