src/anomaly_detection/model_checkpoints/cookie/clf_model.pt (torch, 11049 bytes, 8 tensors)

1.weight f4 [128, 1, 3, 3]
0	0x3d9c66b7	0.07636779
1	0xbe4bbda2	-0.19896558
2	0xbde0a933	-0.10969772
3	0xbe1d72f5	-0.15375884
4	0xbe022800	-0.12710571
5	0xbe30bb23	-0.17258887
6	0xbe08f7ac	-0.1337573
7	0x3dfc815a	0.12329359
8	0xbd8af60e	-0.067852125
9	0x3d25a816	0.040443502
10	0xbe0fd9bf	-0.14047907
11	0xbe4c3ef2	-0.19945887
12	0x3dede960	0.116167784
13	0xbea5cc57	-0.3238246
14	0xbe98738b	-0.29775652
15	0xbdef8b80	-0.116965294
16	0xbe85acc7	-0.2610838
17	0x3dbdce45	0.092678584
18	0x3e6c169f	0.23055504
19	0xbdbb1b96	-0.09136121
20	0xbea34941	-0.31891826
21	0xbe080a30	-0.13285136
22	0xbdaef588	-0.08542925
23	0xbdfc5ff2	-0.123229876
24	0xbe0a5ca2	-0.13511899
25	0x3e824aed	0.2544779
26	0x3d4e5971	0.050378267
27	0x3e76b996	0.24094233
28	0xbe2a5e8e	-0.16637632
29	0x3e20d0cc	0.1570465
30	0xbe14055c	-0.1445517
31	0x3dd7351c	0.10508177
32	0x3eac91be	0.33704942
33	0x3e597de4	0.2123943
34	0xba33d45d	-0.00068599527
35	0x3dc60c2f	0.096702926
36	0x3eca20ef	0.3947825
37	0x3eb4e737	0.35332653
38	0x3e86e67d	0.26347724
39	0xbdeecb74	-0.11659899
40	0x3ce5d484	0.028055437
41	0x3eaa4f97	0.33263847
42	0x3ed1d2eb	0.4098123
43	0x3d879c2c	0.06621584
44	0x3e430e68	0.19048464
45	0xbdfbaad7	-0.122884445
46	0x3d9360b6	0.071961805
47	0xbeb0c3cb	-0.34524378
48	0x3e8be554	0.273234
49	0xbe1fc969	-0.15604176
50	0xbd64887a	-0.055794217
51	0x3e98173b	0.29705223
52	0x3bf286b0	0.00740131
53	0x3e13eda4	0.14446121
54	0xbe69cc9a	-0.22831956
55	0xbe37e742	-0.17959312
56	0x3e680070	0.22656417
57	0xb9e79249	-0.00044168744
58	0x3e0f7b87	0.14011966
59	0xbe8dc33a	-0.2768801
60	0x3ea8d4f7	0.3297498
61	0x3dbf0d43	0.09328701
62	0xbe14ce98	-0.14531934
63	0xbe60b07e	-0.21942326
64	0x3dc72a55	0.09724871
65	0x3eb75b08	0.3581164
66	0xbe80ba12	-0.2514196
67	0x3db610db	0.08889934
68	0xbe4b3f81	-0.19848444
69	0xbda524d0	-0.08063662
70	0x3ea95392	0.33071572
71	0x3ea3100f	0.3184819
72	0xbe6dc4ab	-0.23219554
73	0xbe9631be	-0.29334825
74	0xbda1aa81	-0.07893849
75	0xbe153251	-0.14569975
76	0xbe739753	-0.23788194
77	0x3e141658	0.14461648
78	0xbe8f6a39	-0.2801073
79	0xbc65894d	-0.014009786
80	0x3e91c75d	0.28472415
81	0xbe6f35fc	-0.23360437
82	0x3e229121	0.15875675
83	0xbe0d28a7	-0.13785039
84	0xbd7d4088	-0.06182912
85	0x3e4d6ac6	0.20060262
86	0xbea7237d	-0.32644263
87	0xbead82b1	-0.33888772
88	0xbeb14fc1	-0.3463116
89	0xbd4c51e8	-0.0498828
90	0xbeba22b0	-0.3635459
91	0xbe8b46b5	-0.27202383
92	0xbe962450	-0.2932458
93	0xbe8b195d	-0.27167788
94	0xbce8bf1d	-0.028411442
95	0xbeaf0601	-0.34184268
96	0x3d57103c	0.052505717
97	0xbd965607	-0.07340627
98	0xbe549d6a	-0.20763174
99	0xbec63d97	-0.38718864
100	0xbe729cc5	-0.23692615
101	0xbe944a91	-0.2896314
102	0x3d614166	0.05499401
103	0x3da48762	0.08033635
104	0xbd1e2071	-0.038605157
105	0x3dac8edc	0.08425686
106	0xbe43a453	-0.19105653
107	0xbe6873fd	-0.22700496
108	0xbe3cb447	-0.18428145
109	0x3e0b6760	0.13613653
110	0xbe8a9dd8	-0.2707355
111	0x3e8c90b0	0.27454138
112	0x3e866279	0.26247004
113	0x3e4dc8ca	0.20096126
114	0x3e842fc2	0.25817686
115	0xbe8c745a	-0.2743252
116	0x3e56964c	0.20955771
117	0x3db78c28	0.089622796
118	0xbea8e9b8	-0.32990813
119	0xbe849944	-0.25898182
120	0xbe47fffb	-0.19531243
121	0x3e6ea8e8	0.2330662
122	0x3d706aeb	0.058695715
123	0x3ea49f67	0.32152864
124	0xbe8f9637	-0.28044292
125	0x3cce5040	0.02518475
126	0xbe7b1313	-0.24518995
127	0xbe040877	-0.12893854
128	0xbd85e42a	-0.065376595
129	0xbdf23c4d	-0.11827908
130	0xbe7eaa3a	-0.24869624
131	0x3e5b809f	0.21435784
132	0x3d3e64c5	0.04648282
133	0xbe575068	-0.21026766
134	0xbdaabb61	-0.08336521
135	0x3d0367a6	0.03208127
136	0x3e9809cd	0.29694977
137	0x3e577b6c	0.21043175
138	0xbe0b9032	-0.13629225
139	0xbc47f22f	-0.012203737
140	0x3e84cb92	0.25936562
141	0x3e9bfc00	0.30465698
142	0xbe09ad5e	-0.1344504
143	0x3e40dac7	0.18833457
144	0x3dbffae2	0.09374024
145	0x3ecc8194	0.3994261
146	0x3eb26096	0.34839314
147	0x3ebbb5c1	0.36662105
148	0xbd310976	-0.043221913
149	0x3e1c7771	0.15279938
150	0x3d0f3b6e	0.034968786
151	0x3db7d7f8	0.0897674
152	0x3e84b91a	0.2592247
153	0x3e5f1356	0.2178472
154	0xbe4c560d	-0.19954701
155	0xbe3427fa	-0.17593375
156	0x3bdb7bff	0.006698131
157	0xbeadeff0	-0.3397212
158	0x3bf23283	0.0073912754
159	0xbe925455	-0.28579965
160	0xbe478408	-0.1948396
161	0xbeaedb0f	-0.34151503
162	0xbe8df918	-0.27729106
163	0xbe55bd6b	-0.20873038
164	0xbe221db0	-0.15831637
165	0xbd7e8d55	-0.062146503
166	0x3dfba9cf	0.12288248
167	0xbd9af499	-0.075661846
168	0x3da2372e	0.07920681
169	0xbdd631a7	-0.10458689
170	0x3a2ef522	0.0006674101
171	0xbe723088	-0.23651326
172	0xbe220e3d	-0.15825744
173	0x3e0e8eea	0.13921705
174	0xbdbbc2f4	-0.09168044
175	0xbe960104	-0.2929765
176	0x3cf4bd23	0.029875344
177	0xbe7f96e1	-0.249599
178	0xbe9986e1	-0.29985717
179	0x3ea47bff	0.32125852
180	0x3e282dda	0.16423741
181	0x3e222148	0.15833008
182	0xbdc0c492	-0.09412493
183	0xbe93ed61	-0.28892043
184	0x3c71f5f4	0.014768112
185	0xbeb4b33f	-0.35293004
186	0xbe61fe11	-0.22069575
187	0xbe1372dc	-0.14399284
188	0xbc83e9f4	-0.016102768
189	0xbd15f216	-0.036607824
190	0x3e1f67b3	0.15566902
191	0x3e537f88	0.20654118
192	0xbe87c37b	-0.26516327
193	0xbdf5aa36	-0.11995356
194	0xbe392da0	-0.18083811
195	0x3e7dc686	0.24782762
196	0x3dc0ddfb	0.094173394
197	0x3e911c6e	0.28342003
198	0x3e61489d	0.22000356
199	0xbc53141f	-0.012883215
200	0x3df18749	0.11793382
201	0x3dd64a1a	0.104633525
202	0x3e30a072	0.17248705
203	0x3e074d00	0.13212967
204	0xbe0efca1	-0.13963558
205	0x3e6caa14	0.23111755
206	0xbe9e786b	-0.30951247
207	0x3e84ab51	0.25911954
208	0xbe25b1fd	-0.16181178
209	0xbe544c86	-0.20732316
210	0xbe989312	-0.29799706
211	0x3e736ffc	0.23773187
212	0xbe7f75ec	-0.24947327
213	0xbe1a1484	-0.15046889
214	0xbcac674d	-0.021045351
215	0xbe954070	-0.29150724
216	0xbe9ab2d6	-0.30214566
217	0x3e8c93e2	0.27456576
218	0xbc7648b7	-0.015031985
219	0xbe8d6faf	-0.2762427
220	0x3e2b2223	0.16712241
221	0xbed87819	-0.42279127
222	0x3d65f136	0.05613824
223	0xbe4796f4	-0.19491178
224	0xbdef3611	-0.11680234
225	0x3e330a8a	0.17484489
226	0xbe1d0b26	-0.15336284
227	0xbea3db17	-0.3200309
228	0xbea9d758	-0.33172107
229	0xbdc8eeb8	-0.09811157
230	0xbe2ca0c2	-0.16858199
231	0xbe8a5f31	-0.2702575
232	0xbe5666ef	-0.20937704
233	0x3e9948e0	0.29938412
234	0x3e8e37b4	0.27776873
235	0x3eaa9b95	0.33321825
236	0x3e894f80	0.26818466
237	0x3ea26b25	0.3172237
238	0x3e7a36ae	0.24434921
239	0xbe8484d6	-0.25882596
240	0x3ddaa686	0.10676293
241	0x3df7089c	0.12062189
242	0x3dcb67d2	0.099319115
243	0xbe1f379b	-0.15548556
244	0xbebc8853	-0.36822757
245	0xbe2964bb	-0.16542332
246	0x3d81040a	0.062995985
247	0x3e3ade7f	0.18248938
248	0xbe7b9c31	-0.24571301
249	0xbe297676	-0.16549096
250	0xbde626a4	-0.11237839
251	0x3e1150bf	0.14190958
252	0xbdc321f3	-0.0952796
253	0xbe24acf5	-0.16081603
254	0x3debb696	0.11509435
255	0xbdb602f1	-0.0888728

1.bias f4 [128]
0	0xbdaa0fee	-0.083038196
1	0xbe6aa34f	-0.2291386
2	0x3d6e18f8	0.05812928
3	0x3e931c2f	0.2873244
4	0x3df8e3ad	0.12152801
5	0x3eb38713	0.3506399
6	0xbd9cf0a9	-0.0766309
7	0x3e7877aa	0.24264398
8	0xbe85fda5	-0.26170078
9	0x3d02d8e7	0.031945135
10	0x3e11cb70	0.14237761
11	0x3e974dd3	0.29551563
12	0xbde2dfc3	-0.110778354
13	0xbe65b79c	-0.22433323
14	0x3e683e84	0.22680098
15	0xbe87d063	-0.26526174
16	0xbe899031	-0.26867822
17	0xbcfef449	-0.031122344
18	0x3c4393f8	0.011937134
19	0x3d1aeaf0	0.03782171
20	0x3d8616b8	0.06547302
21	0xbe036242	-0.12830451
22	0x3e8697fd	0.26287833
23	0xbe4e56e7	-0.20150338
24	0xbe4a4710	-0.1975367
25	0x3e9f6965	0.31135097
26	0x3d0afa0c	0.03392987
27	0xbe873a52	-0.26411682
28	0xbeb319c6	-0.349806
29	0xbe9768f6	-0.29572266
30	0x3e9c7ec0	0.30565453
31	0x3e25cb17	0.16190754
32	0xbe78ff33	-0.24316101
33	0x3dbb5058	0.09146184
34	0xbce2f4be	-0.027704593
35	0xbe9f9483	-0.31167993
36	0xbe2c0345	-0.16798122
37	0x3e35103f	0.17681979
38	0xbe07cc49	-0.13261522
39	0x3dbf3a75	0.09337322
40	0xbe948b9d	-0.29012766
41	0x3c6a0098	0.014282368
42	0xbeb42314	-0.35183012
43	0xbdc079a1	-0.09398199
44	0xbe4fba09	-0.2028581
45	0xbe6a4a75	-0.22879966
46	0xbe41c43d	-0.18922515
47	0xbe2468f7	-0.16055666
48	0xbe8b3e34	-0.27195895
49	0xbbcc1c1c	-0.006228937
50	0x3e8b8b30	0.2725463
51	0xbccaabbd	-0.024740094
52	0x3e5159b8	0.20444381
53	0x3eb0ef86	0.34557742
54	0xbe047c33	-0.12938003
55	0x3e95ebfe	0.2928161
56	0x3e7df83f	0.2480173
57	0x3e632c5a	0.22184888
58	0x3e6080f5	0.21924193
59	0x3e19e959	0.15030421
60	0x3df1c86c	0.118058056
61	0x3d8537ab	0.065047584
62	0x3e8aa9a3	0.27082548
63	0xbe9fa692	-0.3118177
64	0xbe129653	-0.14315157
65	0xbe66ec19	-0.22551002
66	0x3e1eed16	0.15520129
67	0xbe620365	-0.22071607
68	0xbe23ee70	-0.16008925
69	0xbe95ce02	-0.29258734
70	0x3dc63555	0.09678141
71	0xbe6c3230	-0.2306602
72	0x3d8ff7b8	0.070296705
73	0xbe96a454	-0.29422247
74	0x3e60967e	0.21932408
75	0xbbbc24c6	-0.0057416884
76	0xbca393f0	-0.019968003
77	0xbe08ba65	-0.13352354
78	0x3d1fb45a	0.038990356
79	0xbe47cf00	-0.19512558
80	0xbdd9a76d	-0.10627637
81	0xbe944359	-0.28957632
82	0xbe04ca35	-0.12967761
83	0xbdc82964	-0.0977352
84	0x3d5e76c7	0.054312494
85	0x3e0e9ce0	0.1392703
86	0xbd10bdcd	-0.035337258
87	0xbe2208ff	-0.15823744
88	0x3e8c6efa	0.27428418
89	0x3ddc217d	0.10748575
90	0xbd219dd0	-0.039457142
91	0x3c9492ad	0.018136347
92	0x3e6124b6	0.2198666
93	0x3e6569d3	0.2240365
94	0x3d8979c4	0.06712678
95	0xbe8e2416	-0.27761906
96	0xbd84315d	-0.06454728
97	0xbd9a381b	-0.075302325
98	0x3d30c33c	0.04315494
99	0x3d00fa5c	0.03148876
100	0xbe6812ef	-0.22663473
101	0x3d8b19bc	0.06792018
102	0x3e5ae251	0.21375395
103	0xbe130cf5	-0.14360411
104	0xbd3affbd	-0.045654047
105	0x3c8c5bd4	0.01713363
106	0xbdeabb48	-0.11461502
107	0x3da3e901	0.08003426
108	0x3e3d019f	0.1845765
109	0xbe8781ad	-0.26466122
110	0x3e04a7cc	0.12954634
111	0xbe16d065	-0.14727934
112	0x3e9cdd10	0.30637407
113	0x3ebd662e	0.3699202
114	0xbe187bbc	-0.14890951
115	0x3d48917f	0.04896688
116	0xbebaf47d	-0.36514655
117	0xbe16d794	-0.14730674
118	0xbe2b1124	-0.16705757
119	0xbe5c1bd5	-0.21494992
120	0xbd81f4f6	-0.06345551
121	0x3e9f7b93	0.31148967
122	0x3d815c22	0.06316401
123	0xbea2fa2b	-0.31831488
124	0x3ea9195d	0.33027163
125	0xbe83796f	-0.25678584
126	0x3e1fafad	0.15594359
127	0x3ce39fcc	0.027786158

2.weight f4 [4, 128, 1, 1]
0	0x3da6aa95	0.08138005
1	0xbbe94df7	-0.00711989
2	0xbd67c230	-0.056581676
3	0x3dd528b1	0.10408152
4	0x3cce8a8a	0.025212545
5	0x3bb1ca60	0.0054257363
6	0x3d473199	0.048631284
7	0xbd0e7533	-0.03477974
8	0x3da4795c	0.0803096
9	0xbd334278	-0.04376456
10	0xbd72e87a	-0.05930374
11	0x3d40c463	0.04706229
12	0x3d7efc07	0.06225207
13	0x3db62ce3	0.0889528
14	0x3d30dc2d	0.043178726
15	0xbc772c48	-0.015086241
16	0x3cd5073a	0.026004422
17	0x3d9ddfab	0.07708677
18	0x3cbba62a	0.022906382
19	0x3d1545e3	0.036443602
20	0xbb9bd035	-0.004755045
21	0xbc7731d1	-0.015087561
22	0xbd513f17	-0.051085558
23	0xbd5f16ec	-0.05446522
24	0xbc5d4649	-0.013505527
25	0x3d576a9f	0.052591916
26	0xbcb085ce	-0.021548178
27	0xbd062c2c	-0.03275697
28	0xbbe1a3b7	-0.0068859714
29	0x3d8ec190	0.06970513
30	0xbd870891	-0.06593431
31	0x3cfbeb66	0.030751895
32	0xbd031d85	-0.032010574
33	0xbd3bfc67	-0.045895007
34	0x3c561c5e	0.013068287
35	0xbcb528da	-0.022114206
36	0xbd841add	-0.06450436
37	0x3cf92665	0.030413816
38	0xbe6c90f9	-0.23102178
39	0x3d999144	0.0749841
40	0xbcc07eba	-0.023497928
41	0x3ccaf70f	0.02477601
42	0xbd99ad84	-0.075037986
43	0xbd8c8ef2	-0.06863202
44	0xbc972904	-0.018452175
45	0x3d05f346	0.032702707
46	0xbd0ea9a5	-0.034829754
47	0x3b99f98e	0.0046989387
48	0xbd7fcb36	-0.062449656
49	0xbc0cac5d	-0.0085860165
50	0xbda290fe	-0.07937811
51	0xbc66ec3b	-0.014094408
52	0x3e295687	0.16536914
53	0x3d66a3f7	0.056308713
54	0x3c9cd1d1	0.019143017
55	0xbd260524	-0.040532246
56	0xbd22dd44	-0.039761797
57	0xbd425b84	-0.047450557
58	0x3d1cd5e7	0.03828993
59	0x3d61c363	0.055117976
60	0xbd63cf1b	-0.055617433
61	0x3c157e60	0.009124368
62	0xbb140830	-0.0022587888
63	0x3dbec9f3	0.093158625
64	0x3d3b76bb	0.045767527
65	0x3d4e3de7	0.050352003
66	0xbd855ac2	-0.06511451
67	0x3d855a3c	0.065113515
68	0xbda1b4d2	-0.07895817
69	0x3c205395	0.0097855525
70	0xbc2081d9	-0.009796583
71	0x3d55a01d	0.05215465
72	0x3c776564	0.015099857
73	0xbc5e6bf8	-0.013575546
74	0x3d95b2f6	0.07309525
75	0xbc677918	-0.014127992
76	0xbd98cff0	-0.07461536
77	0xbcf5fc27	-0.030027462
78	0xbdee0af0	-0.1162318
79	0x3d0b2266	0.03396835
80	0x3c616b25	0.013758455
81	0xba8ec29a	-0.0010891736
82	0xbc344748	-0.011003323
83	0x3d271cfb	0.040799122
84	0x3cdf4861	0.027256193
85	0xbd81f84f	-0.06346189
86	0x3cee07b7	0.029056413
87	0xbc3c56c4	-0.011495296
88	0x3c92024f	0.017823366
89	0xbc620802	-0.0137958545
90	0xbdd7c40e	-0.10535441
91	0x3e4830da	0.19549885
92	0x3da27bc9	0.079337664
93	0x3bbc7a18	0.0057518594
94	0x3d3eb28a	0.046556987
95	0x3c367a61	0.011137576
96	0x3dda6727	0.10664206
97	0x3cce806d	0.025207723
98	0x3c8c6de9	0.017142253
99	0xbc899907	-0.016796602
100	0x3daab7db	0.08335849
101	0xbb963d2c	-0.004584929
102	0xbdb9c1ea	-0.09070189
103	0x3d3eebe6	0.04661169
104	0x3c4a757b	0.012357111
105	0x3d3af7a5	0.04564633
106	0x3c8b260a	0.016985912
107	0xbd1bab99	-0.038005445
108	0x3d923dc8	0.0714069
109	0x3bdc089d	0.006714894
110	0x3d9a3061	0.07528759
111	0xbcae9be1	-0.021314563
112	0x3d6f416c	0.058412
113	0xbaa324ff	-0.0012446939
114	0xbd82fad9	-0.06395502
115	0xbc98daed	-0.01865908
116	0x3d5987ff	0.05310821
117	0xbbb921b3	-0.005649769
118	0x3d88656a	0.06659968
119	0x3dbf1fe8	0.093322575
120	0x3d806d04	0.06270793
121	0xbc335a5e	-0.010946838
122	0xbca805d8	-0.020510599
123	0xbcaf8616	-0.021426242
124	0xbe06e990	-0.13175035
125	0x3cf203bb	0.029542794
126	0xba0d3145	-0.0005386065
127	0x3d63ebf9	0.055644963
128	0xbd18f53e	-0.037343256
129	0x3dd7e7d1	0.10542262
130	0x3dcd6482	0.10028936
131	0xbd3e138b	-0.046405356
132	0xbe09dbae	-0.13462707
133	0xbd4c903b	-0.049942236
134	0xbc899576	-0.016794901
135	0x3d1aaaac	0.03776042
136	0xbb248361	-0.0025102722
137	0xbd5d794b	-0.054070752
138	0xbdcd75c3	-0.10032227
139	0xbb84c32b	-0.004051586
140	0x3b847eec	0.0040434506
141	0x3d9920f6	0.0747699
142	0x3c21a95d	0.0098670395
143	0x3cd3f98f	0.025875835
144	0x3ddb3c87	0.10704904
145	0xbc4c4976	-0.012468686
146	0xbcaaa190	-0.020828992
147	0xbd6cc063	-0.05780066
148	0xbac16e47	-0.0014757597
149	0x3d8b1593	0.06791224
150	0xbc0195a2	-0.00790921
151	0x3d0179a3	0.031610142
152	0xbdf0ad61	-0.117518194
153	0xbddacc43	-0.10683491
154	0xbd2ee6c4	-0.042700544
155	0x3ad94cc2	0.0016578662
156	0x3e16ef77	0.14739786
157	0xbc6f3546	-0.014600104
158	0xbc83e568	-0.0161006
159	0x3d89d8f5	0.067308344
160	0x3c5276de	0.012845723
161	0x3c48862d	0.012239021
162	0xbdcd297a	-0.10017677
163	0xbc12cae0	-0.008959502
164	0x3cc07629	0.023493843
165	0xbdc87a39	-0.09788937
166	0xbc875107	-0.016518129
167	0xbd325495	-0.043537695
168	0xbca98b34	-0.02069626
169	0x3ddfd347	0.1092897
170	0x3dea4e6e	0.114407405
171	0x3c169662	0.0091911275
172	0x3c43615a	0.011925066
173	0x3d37fc00	0.04491806
174	0x3a47a39b	0.00076156267
175	0xbc940cb0	-0.018072456
176	0x3c05e50d	0.008172286
177	0x3cbbc0e3	0.022919124
178	0x3dc0a8ab	0.09407171
179	0x3ab9d7d3	0.00141787
180	0xbd937547	-0.07200103
181	0xbdf00127	-0.1171897
182	0x3c12e180	0.008964896
183	0x3b5b64fc	0.003347694
184	0x3d4d011d	0.05004989
185	0xbd21a2d1	-0.039461914
186	0x3c8bd379	0.017068611
187	0xbbd51f24	-0.0065039564
188	0xbb462aca	-0.0030237907
189	0xbb2633f5	-0.0025360559
190	0xbc491957	-0.012274108
191	0x3d73f9ae	0.059564285
192	0xbd80d5bf	-0.06290769
193	0xbca92a2f	-0.020649998
194	0x3d9f7364	0.07785681
195	0xbc31ec31	-0.010859535
196	0x3c14f743	0.009092155
197	0xbcad461e	-0.021151599
198	0x3d9bfdb5	0.0761675
199	0x3a7d885d	0.0009671504
200	0xbd598ca5	-0.053112645
201	0xbc245b33	-0.010031509
202	0x3c4aa3a1	0.012368114
203	0x3c45f798	0.012082957
204	0x3df190c2	0.117951885
205	0xbd2dc591	-0.042424742
206	0x3d1fdd2c	0.039029285
207	0x3d8a85cf	0.06763803
208	0x3c96f270	0.01842615
209	0xbccf481c	-0.02530294
210	0x3debf85b	0.115219794
211	0x3db3ae99	0.08773536
212	0x3cc1d78f	0.023662357
213	0xbd76b9a2	-0.060235627
214	0x3d1bc013	0.038024973
215	0xbd87210c	-0.065981
216	0xbca87435	-0.020563224
217	0x399cb0d2	0.0002988638
218	0x3cb19b78	0.021680579
219	0x3e59b287	0.21259509
220	0x3d179779	0.03700969
221	0xbc95a624	-0.018267699
222	0x3d37d155	0.04487737
223	0x3e55e876	0.20889458
224	0x3c11674e	0.008874727
225	0xbd55bd44	-0.05218245
226	0x3c5e4f83	0.013568762
227	0xbb03afbb	-0.0020093757
228	0x3d551152	0.05201847
229	0x3d206560	0.03915918
230	0x3d3c5c62	0.04598654
231	0x3c245a6c	0.010031324
232	0x3dba3e53	0.09093919
233	0x3d6cd703	0.05782224
234	0x3d7e038f	0.062015112
235	0xbbb8e1ce	-0.0056421524
236	0x3cb0923f	0.02155411
237	0x3d7ba851	0.061439816
238	0xbd393c69	-0.045223627
239	0x3d9d5908	0.07682997
240	0xbc0dcd0a	-0.008654842
241	0xbe390767	-0.1806923
242	0x3dbf594e	0.093432054
243	0xbd6c7373	-0.05772729
244	0x3ce53107	0.02797748
245	0xbdc84397	-0.09778517
246	0x3dec22ab	0.1153005
247	0x3df7a717	0.12092417
248	0x3dc2f542	0.095194355
249	0xbcd1b2eb	-0.02559801
250	0xbc93335c	-0.017968826
251	0x3d992b52	0.07478966
252	0xbcadff12	-0.021239791
253	0x3cc75609	0.024333017
254	0xbc96f23d	-0.018426055
255	0xbb81368d	-0.0039432705

2.bias f4 [4]
0	0xbdb317c7	-0.087447695
1	0x3d17729c	0.036974534
2	0xbd208bc0	-0.039195776
3	0x3c84d6c5	0.016215691

6.weight f4 [4, 1, 3, 3]
0	0x3d9aa2b9	0.07550568
1	0x3e7744fa	0.24147406
2	0xbec8a623	-0.39189252
3	0xbd9d5380	-0.07681942
4	0xbd620891	-0.05518395
5	0xbca82b99	-0.020528601
6	0xbe194963	-0.14969401
7	0x3ebf3418	0.37344432
8	0x3d31a6ee	0.043372087
9	0x3d68949c	0.05678235
10	0xbd095fc5	-0.0335386
11	0xbdaaf524	-0.08347538
12	0xbdf7e4f5	-0.12104217
13	0xbe8aad1c	-0.27085197
14	0xbeb059a4	-0.3444339
15	0xbe95d950	-0.2926736
16	0xbe0e4c44	-0.1389628
17	0xbcdf21bd	-0.027237767
18	0x3ebc3aac	0.36763513
19	0x3ce9b23d	0.028527373
20	0x3e937deb	0.28807005
21	0x3e494423	0.19654898
22	0x3e1d3b21	0.15354587
23	0x3eb75752	0.35808808
24	0x3db94082	0.09045507
25	0xbb926284	-0.0044673104
26	0x3e9d85d1	0.30766156
27	0xbe043d49	-0.12914003
28	0x3e2f54da	0.17122212
29	0xbe84c794	-0.25933516
30	0xbe925658	-0.285815
31	0xbe054c65	-0.13017423
32	0xbccae87c	-0.02476906
33	0xbe2bc47b	-0.1677417
34	0xbe951774	-0.29119456
35	0xbe0313d9	-0.1280054

6.bias f4 [4]
0	0xbd4dcbfe	-0.05024337
1	0xbe049c64	-0.12950283
2	0x3e64b975	0.22336371
3	0xbde64948	-0.11244446

7.weight f4 [2, 4, 1, 1]
0	0x3ed50b2f	0.41610095
1	0x3d76b9fb	0.06023596
2	0x3ea9d7b0	0.3317237
3	0x3e588238	0.21143425
4	0x3e640e5f	0.22271107
5	0xbed67765	-0.41887966
6	0xbd42d377	-0.04756495
7	0xbe80e485	-0.25174347

7.bias f4 [2]
0	0x3e9e8046	0.3095724
1	0x3e9b50eb	0.30335173
