src/demo/anomaly_detection/model_checkpoints/mvtec/model.pt (torch, 289252 bytes, 32 tensors)

encoder.0.weight f4 [1, 1, 5, 5]
-0.013223363 -0.009466507 -0.030880176 -0.036494438 -0.013727232 -0.007656183 -0.003656 -0.016099518
-0.035341337 0.002686459 -0.03921974 -0.022795402 0.59418213 0.6536706 -0.0062983935 -0.04328705
-0.03199657 0.60347575 0.69849116 -0.005848381 -0.01175395 0.0063604848 0.0007906771 -0.0037649202
0.011728591
00000000: cea6 58bc 6819 1bbc 6cf8 fcbc 317b 15bd
00000010: 2fe8 60bc b8e0 fabb 8099 6fbb 23e3 83bc
00000020: 14c2 10bd 4e0f 303b e1a4 20bd 6cbd babc
00000030: 521c 183f f556 273f c162 cebb c34d 31bd
00000040: d60e 03bd 637d 1a3f 51d0 323f c7a3 bfbb
00000050: a493 40bc 9d6b d03b 7145 4f3a e1bc 76bb
00000060: 4729 403c

encoder.1.weight f4 [32, 1, 1, 1]
-0.75102687 -1.3362491 -0.2461421 0.61473393 -1.1414936 -0.31815106 -0.08787152 0.52427506
-1.028227 0.85905975 -0.8612503 0.09479791 1.2884983 -0.43670082 -0.8546318 -0.46273056
-0.90245265 -0.54215944 0.24952921 -0.5210245 0.4375201 -0.6818908 -0.85008717 0.28231028
-0.27294716 0.10776014 -1.0826491 -0.47079995 0.26886183 0.21655446 -0.09241736 0.40361062
00000000: 4c43 40bf 360a abbf ad0c 7cbe 345f 1d3f
00000010: 761c 92bf b2e4 a2be fcf5 b3bd e436 063f
00000020: f19c 83bf 57eb 5b3f e67a 5cbf 6825 c23d
00000030: 83ed a43f 4097 dfbe 26c9 5abf 05eb ecbe
00000040: 2307 67bf f6ca 0abf 9684 7f3e dd61 05bf
00000050: a202 e03e 6590 2ebf 509f 59bf f98a 903e
00000060: bbbf 8bbe 59b1 dc3d 3f94 8abf b10c f1be
00000070: 42a8 893e 74c0 5d3e 5045 bdbd 0da6 ce3e

encoder.1.bias f4 [32]
0.22498888 -0.4129296 0.36156946 -0.59960246 0.35518363 0.1257213 0.5659119 -0.05329791
0.56557995 -0.44864652 0.062455572 -0.5750523 -0.348114 0.6379478 1.0580689 0.17632036
0.08561223 0.6331312 -0.035664503 0.14070913 -0.31354728 0.16462298 0.057118673 0.46233302
0.44008538 -0.030766856 0.10100014 0.7413266 0.6852603 0.72667766 -0.9750159 -0.2856045
00000000: 7c63 663e 826b d3be a21f b93e 8c7f 19bf
00000010: a1da b53e 16bd 003e 9adf 103f e94e 5abd
00000020: d9c9 103f ffb4 e5be 6ad1 7f3d a136 13bf
00000030: 003c b2be 8c50 233f cd6e 873f 538d 343e
00000040: 7755 af3d e314 223f f114 12bd 0e16 103e
00000050: 4589 a0be ed92 283e 45f5 693d eab6 ec3e
00000060: df52 e13e c60a fcbc 29d9 ce3d 94c7 3d3f
00000070: 386d 2f3f 8c07 3a3f a49a 79bf c13a 92be

encoder.3.weight f4 [32, 1, 5, 5]
-0.38901234 -0.11709053 0.15021 -0.1442881 -0.42779735 -0.11914735 0.21611327 0.6514433
0.31127402 -0.25280392 0.20946379 0.6879661 1.2232673 0.49603313 0.098386966 -0.35829958
0.1732014 0.6212066 0.08710184 -0.3162934 -0.44050914 -0.26128316 -0.059738208 -0.39330292
-0.44202372 -0.08467028 0.037207335 0.27901262 0.21002585 -0.038802586 0.03789833 0.43260178
0.7055343 0.55679417 0.14014342 0.26269677 0.68276525 0.64767784 0.7756797 0.41282678
0.2451079 0.43528333 0.7810035 0.6622063 0.2093581 -0.049365543 0.13211071 0.31742358
0.220254 -0.013249747 -0.092198454 0.08289794 0.08157841 -0.043719377 -0.15721656 -0.07307241
0.22122979 0.25158545 -0.090642475 -0.3455398 0.11221718 0.23175728 0.21206583 0.18099654
-0.32808778 0.05226374 0.053621817 0.06183638 0.48954856 0.034316372 -0.25634667 -0.37384224
-0.33027583 0.051330555 -0.20004193 0.24625055 -0.10370989 -0.4159841 0.13958158 0.26808918
-0.12573408 -0.65354043 -1.1122005 -0.35111436 0.10353674 -0.37935326 -1.0570694 -1.7342024
-1.0731255 -0.35922864 0.18681355 -0.32421228 -1.0781618 -0.530088 -0.037194498 0.2935417
0.09659829 -0.27555698 0.024999272 0.21790928 0.1254828 0.042028017 -0.1990697 -0.08776533
0.056459732 0.11653017 -0.20674828 -0.5180062 -0.36984593 -0.114351064 -0.06721808 -0.45120266
-0.67127675 -0.7823144 -0.36200368 -0.11558268 -0.2635201 -0.63894457 -0.60840154 -0.28959596
0.026172658 -0.027836332 -0.36352688 -0.31297174 0.04793204 -0.15097976 -0.1661149 -0.11528425
-0.17613617 -0.23929189 -0.14718875 -0.15430488 -0.31906518 -0.29766575 -0.24341553 0.021694932
-0.23468919 -0.45276502 -0.15369001 0.16007279 0.14110652 -0.14436564 -0.13124104 0.15119384
0.033444434 -0.20999035 -0.15245716 0.16487649 0.29851517 -0.2601827 0.15934077 -0.035672497
0.09815889 0.18795832 0.103091486 0.23825994 -0.06306855 -0.070503645 0.13600412 0.09266755
0.18762553 0.18609692 -0.23307844 -0.08912697 -0.06749009 -0.02287448 -0.08343518 -0.035390403
-0.01588375 -0.15012878 0.14683455 0.19029985 -0.10868524 -0.21079476 -0.10790705 0.089395076
-0.1836056 -0.25961608 0.18197805 0.16873914 -0.08524873 -0.28544003 -0.47571552 -0.03461242
0.21010503 0.012352433 -0.11709143 -0.26342055 -0.31245065 -0.007036751 0.37295684 0.25604957
-0.03727707 0.002666793 0.045051433 0.19737333 0.32608557 0.042646132 0.06502217 0.2622946
-0.12438483 -0.008315525 0.12091435 0.0065951385 -0.15821208 -0.029167432 0.24885498 0.517263
0.2911077 -0.06540849 0.20482168 0.5185065 0.78245676 0.47914773 0.20942016 0.021276131
0.28471008 0.56688464 0.3453867 0.012507606 -0.14548483 -0.066023804 0.15715688 0.06376797
-0.18828747 -0.07892235 0.065833576 0.24277493 -0.012468223 -0.07024451 0.061491806 0.30953532
0.42152786 0.16750719 0.028943593 0.21152066 0.41766173 0.6339709 0.40516514 0.23818254
0.045577068 0.18559574 0.43412232 0.25368074 0.06228897 -0.082650244 0.032194424 0.23182003
0.04960618 -0.046317585 0.27727023 0.1075391 -0.022838842 0.02226206 0.24462658 0.038787752
00000000: a02c c7be 29cd efbd a6d0 193e 42c0 13be
00000010: 4108 dbbe 8703 f4bd cc4c 5d3e fdc4 263f
00000020: 4f5f 9f3e 846f 81be ad7d 563e 8c1e 303f
00000030: 0694 9c3f 0ef8 fd3e 1b7f c93d 0b73 b7be
00000040: b55b 313e 6507 1f3f 7362 b23d 35f1 a1be
00000050: 6a8a e1be e8c6 85be 0db0 74bd 005f c9be
00000060: ef50 e2be 9d67 adbd b866 183d beda 8e3e
00000070: 0411 573e 76ef 1ebd 473b 1b3d fb7d dd3e
00000080: e59d 343f 108a 0e3f c281 0f3e 3180 863e
00000090: b4c9 2e3f 37ce 253f f292 463f 085e d33e
000000a0: 91fd 7a3e 75dd de3e d8ef 473f 5a86 293f
000000b0: f861 563e 8633 4abd 0848 073e 5885 a23e
000000c0: 448a 613e 7815 59bc 8bd2 bcbd 65c6 a93d
000000d0: 9512 a73d 1713 33bd 61fd 20be fda6 95bd
000000e0: 108a 623e cfcf 803e c3a2 b9bd 98ea b0be
000000f0: 1fd2 e53d c851 6d3e c927 593e 2857 393e
00000100: 1ffb a7be 8112 563d 8da2 5b3d 2548 7d3d
00000110: 1ca6 fa3e 538f 0c3d df3f 83be 4068 bfbe
00000120: ea19 a9be fd3f 523d cbd7 4cbe 1b29 7c3e
00000130: da65 d4bd defb d4be 79ee 0e3e fc42 893e
00000140: 6fc0 00be 6d4e 27bf 965c 8ebf 43c5 b3be
00000150: 120b d43d 973a c2be 0d4e 87bf 58fa ddbf
00000160: 2d5c 89bf d1ec b7be 0d4c 3f3e 27ff a5be
00000170: 3501 8abf d9b3 07bf 4259 18bd 194b 963e
00000180: 53d5 c53d ce15 8dbe 46cb cc3c 9c23 5f3e
00000190: 907e 003e 9225 2c3d edd8 4bbe 4fbe b3bd
000001a0: 5242 673d 5fa7 ee3d d2b5 53be 0e9c 04bf
000001b0: 725c bdbe e430 eabd a2a9 89bd 0904 e7be
000001c0: cbd8 2bbf c245 48bf 8c58 b9be 9db6 ecbd
000001d0: 1bec 86be df91 23bf 34c0 1bbf ec45 94be
000001e0: 0b68 d63c 0509 e4bc 3220 babe d53d a0be
000001f0: 6354 443d 709a 1abe 061a 2abe 261a ecbd
00000200: 0a5d 34be ef08 75be a6b8 16be 1902 1ebe
00000210: 835c a3be a567 98be ec41 79be 92b9 b13c
00000220: 5d52 70be d1d0 e7be ea60 1dbe 1fea 233e
00000230: 3a7e 103e 96d4 13be 0d64 06be 8fd2 1a3e
00000240: 08fd 083d b607 57be bb1d 1cbe 62d5 283e
00000250: fbd6 983e ab36 85be 3a2a 233e 531d 12bd
00000260: 8707 c93d 2578 403e a121 d33d 6afa 733e
00000270: 152a 81bd 3764 90bd aa44 0b3e 7cc8 bd3d
00000280: e820 403e 3190 3e3e 1dac 6ebe 3388 b6bd
00000290: 3f38 8abd 4363 bbbc 10e0 aabd 87f5 10bd
000002a0: a31e 82bc 5cbb 19be cc5b 163e f7dd 423e
000002b0: 5e96 debd 95da 57be 5ffe dcbd c414 b73d
000002c0: 1b03 3cbe 66ec 84be 7458 3a3e f4c9 2c3e
000002d0: e396 aebd 3225 92be fc90 f3be c1c5 0dbd
000002e0: c625 573e dc61 4a3c a2cd efbd 0fdf 86be
000002f0: 88f9 9fbe 8c94 e6bb 33f4 be3e ee18 833e
00000300: d7af 18bd 5dc5 2e3b da87 383d 3c1c 4a3e
00000310: b0f4 a63e b6ad 2e3d 582a 853d 7a4b 863e
00000320: 79bd febd d73d 08bc f1a1 f73d 081c d83b
00000330: 5902 22be 8af0 eebc d7d3 7e3e 596b 043f
00000340: 120c 953e e3f4 85bd c6bc 513e d8bc 043f
00000350: 164f 483f da52 f53e 3d72 563e 484b ae3c
00000360: 85c5 913e 5a1f 113f 87d6 b03e b4ec 4c3c
00000370: faf9 14be 7d37 87bd bced 203e c898 823d
00000380: 6ece 40be 0ba2 a1bd c1d3 863d fe99 783e
00000390: 8547 4cbc 5bdc 8fbd d5de 7b3d 6a7b 9e3e
000003a0: 80d2 d73e 0187 2b3e 1d1b ed3c df98 583e
000003b0: c2d7 d53e eb4b 223f ce71 cf3e 20e6 733e
000003c0: 05af 3a3d cf0c 3e3e 4845 de3e 71e2 813e
000003d0: b822 7f3d 8844 a9bd 4dde 033d 3b62 6d3e
000003e0: da2f 4b3d 82b7 3dbd 5df6 8d3e 763d dc3d
000003f0: 8618 bbbc ec5e b63c 647f 7a3e e8df 1e3d

encoder.3.bias f4 [32]
-0.1559912 0.015755057 0.09674396 0.2085401 0.019157968 0.11552066 -0.19672123 -0.1004759
-0.3321715 -0.030243918 -0.15841527 -0.0027737862 0.04474222 -0.017835246 0.012913713 0.10723884
0.11073293 -0.06909839 0.14407495 0.09710814 0.09998736 -0.026831329 0.08599618 0.18795133
-0.04585006 -0.11474342 -0.16891985 -0.012889765 -0.038397104 0.07913548 0.0046931785 -0.082603365
00000000: 28bc 1fbe c010 813c b321 c63d 898b 553e
00000010: 2cf1 9c3c 1996 ec3d 4a71 49be 4fc6 cdbd
00000020: 6212 aabe 18c2 f7bc 9d37 22be 69c8 35bb
00000030: 9e43 373d 391b 92bc 0a94 533c 09a0 db3d
00000040: f2c7 e23d 7583 8dbd 6288 133e a2e0 c63d
00000050: 2cc6 cc3d 60cd dbbc c41e b03d 5076 403e
00000060: 46cd 3bbd 99fe eabd 53f9 2cbe 982f 53bc
00000070: 4846 1dbd c811 a23d 3cc9 993b f42b a9bd

encoder.4.weight f4 [64, 32, 1, 1]
0.023655266 0.03115485 -0.2934594 0.13353665 -0.19626951 -0.29004398 -0.05751936 0.112545
0.33653873 0.17269695 0.08971707 0.00072325347 -0.04182317 -0.1864508 -0.14945139 -0.332969
-0.11271339 -0.07834829 -0.22118066 -0.16617578 -0.15640871 0.2028087 -0.059199747 0.010364957
-0.0031804522 -0.14173655 -0.25511983 -0.009481155 0.14094256 0.13357204 0.08710065 0.34993696
0.12716575 -0.07693038 -0.09033684 0.05147818 0.18863447 -0.056188844 -0.010975306 -0.04531003
-0.03260711 -0.055019975 0.03544875 -0.15149295 0.037074752 -0.037932977 -0.07602938 0.13088375
0.10850476 -0.10125498 -0.1530354 -0.055229943 -0.017176066 -0.026877306 0.008972777 0.17733262
-0.026096778 -0.017777521 0.07690184 0.06108032 -0.1592526 -0.042081196 0.14845064 -0.045860678
-0.5000717 0.34887788 0.0012339854 0.086754486 0.3779515 0.07758266 0.017869212 -0.050645303
-0.19737142 -0.6221373 -0.35888603 -0.0042523397 0.0025190236 0.03976924 0.2587223 0.31413275
0.1454602 -0.08700393 -0.026098864 0.34526598 -0.17951383 -0.2013625 0.14723632 -0.047906153
-0.0605622 -0.022087224 0.027258286 0.049610075 0.22116922 0.18596046 0.0043132417 -0.5962592
0.109699644 -0.09790157 0.19920045 1.1115974 -0.12667175 0.060425017 -0.16776633 -0.4609207
-0.48961696 0.49058205 -0.22913943 -0.008153975 0.21105908 -0.36997437 -0.4098527 0.027470408
0.21503375 -0.37620986 0.10136526 0.03894621 -0.15505394 -0.04604712 0.3324327 -0.13440482
0.066146046 -0.256861 0.039581943 -0.10288985 0.2997603 0.20396568 0.03977556 -0.083774865
-0.33094925 0.018097667 0.2899316 -0.54463464 0.59271824 -0.0045196507 -0.040989473 -0.14132507
-0.14005502 -0.49231136 -0.21029693 -0.0059850127 -0.06111062 0.20621976 0.25331816 0.3878212
0.16242252 0.011945653 0.09271669 0.4509833 0.14853378 -0.13479897 0.17327975 0.037667908
0.036774527 -0.040617727 0.3416332 0.11678315 -0.13038653 0.07594354 0.0064064334 -0.5234241
0.063081406 -0.01914201 0.4423734 0.8490046 0.44656 0.009356203 0.0561987 0.5080197
-0.41156608 -0.20508316 0.18598884 0.011739931 0.2937419 0.13655007 -0.011852619 0.14198004
-0.19168767 0.28823403 0.101655185 -0.016840994 -0.047803443 0.20793527 0.15201879 0.16279024
0.11425483 0.09766147 0.1217215 0.25000438 -0.15839833 0.11450837 -0.0035332975 -0.443137
0.38276938 0.029347448 -0.17285489 0.15483855 -0.29440644 -0.3795041 -0.04825625 0.0073198425
0.16699862 0.106939 0.16035953 -0.04736261 0.008140044 -0.2067612 -0.30630264 -0.18801278
-0.26203692 -0.24584767 -0.06528699 -0.037261337 0.26551253 0.24719997 -0.13328192 0.13513589
0.043171253 0.20147954 -0.27979535 -0.10148828 0.17774147 0.21529825 0.032870654 0.31688005
0.6116061 -0.37726822 -1.2258779 -0.16310696 -0.2998119 0.6571742 0.21867491 -0.069553256
-0.10771518 0.0088751335 0.50793403 -0.025620116 0.63440025 0.8754869 -0.033609726 0.21699204
-0.42384106 0.05373452 0.1701577 0.06952092 0.30090162 -0.7335261 -0.52364 -0.27533987
-0.3514415 -0.0050569563 -1.1387142 -0.063775405 0.3123779 0.015101872 0.017890107 0.28422353
00000000: b0c8 c13c 7538 ff3c 4f40 96be d5bd 083e
00000010: e0fa 48be a580 94be 6c99 6bbd fe7d e63d
00000020: ce4e ac3e 78d7 303e 95bd b73d b898 3d3a
00000030: c64e 2bbd f5ec 3ebe c909 19be ea7a aabe
00000040: 47d6 e6bd 1175 a0bd 2f7d 62be fc29 2abe
00000050: 9b29 20be 15ad 4f3e 6f7b 72bd c8d1 293c
00000060: 226f 50bb 6323 11be 119f 82be d956 1bbc
00000070: 3f53 103e 1cc7 083e d361 b23d f02a b33e
00000080: bd37 023e ad8d 9dbd 8502 b9bd c9da 523d
00000090: 6529 413e 4626 66bd c5d1 33bc 0397 39bd
000000a0: 088f 05bd a05c 61bd b532 113d f820 1bbe
000000b0: b2db 173d 9c5f 1bbd 4bb5 9bbd 6406 063e
000000c0: be37 de3d c55e cfbd 50b5 1cbe cb38 62bd
000000d0: d2b4 8cbc cc2d dcbc 8e02 133c af96 353e
000000e0: e9c8 d5bc 2aa2 91bc b67e 9d3d 5c2f 7a3d
000000f0: 1d13 23be 555d 2cbd 7203 183e 68d8 3bbd
00000100: b304 00bf 1fa0 b23e aebd a13a 56ac b13d
00000110: dc82 c13e a8e3 9e3d 7462 923c 7371 4fbd
00000120: bc1b 4abe 6444 1fbf e9bf b7be 3657 8bbb
00000130: 3416 253b 12e5 223d 4077 843e 02d6 a03e
00000140: 85f3 143e 1e2f b2bd 49cd d5bc b4c6 b03e
00000150: 79d2 37be f931 4ebe 1ec5 163e 3e39 44bd
00000160: 1210 78bd 44f0 b4bc c54c df3c ef33 4b3d
00000170: 2f7a 623e 6b6c 3e3e 1856 8d3b 71a4 18bf
00000180: 35aa e03d 9e80 c8bd 34fb 4b3e d348 8e3f
00000190: 3db6 01be 3980 773d f0ca 2bbe ccfd ebbe
000001a0: 13af fabe 922d fb3e 87a3 6abe 4098 05bc
000001b0: df1f 583e 486d bdbe 37d8 d1be 9f09 e13c
000001c0: cf31 5c3e 949e c0be 9798 cf3d 1086 1f3d
000001d0: 76c6 1ebe e89b 3cbd 9e34 aa3e 6ba1 09be
000001e0: 9477 873d 4983 83be ad20 223d eab7 d2bd
000001f0: 2f7a 993e 61dc 503e b3eb 223d 2892 abbd
00000200: 2e72 a9be 8f41 943c ea71 943e 2d6d 0bbf
00000210: 62bc 173f 9419 94bb 94e4 27bd 85b7 10be
00000220: 956a 0fbe 3c10 fcbe 1458 57be ed1d c4bb
00000230: 214f 7abd 462b 533e ebb2 813e 8090 c63e
00000240: 1752 263e b3b7 433c 3fe2 bd3d 48e7 e63e
00000250: 3d19 183e be08 0abe 3f70 313e aa49 1a3d
00000260: e3a0 163d c65e 26bd 8cea ae3e 012c ef3d
00000270: 0c84 05be 4988 9b3d 0fed d13b 1fff 05bf
00000280: d330 813d b4cf 9cbc c47e e23e 5e58 593f
00000290: 83a3 e43e c24a 193c 9c30 663d 940d 023f
000002a0: cab8 d2be 5201 52be dc73 3e3e d758 403c
000002b0: 5765 963e c8d3 0b3e 7d31 42bc 3763 113e
000002c0: c649 44be 6993 933e 9830 d03d 20f6 89bc
000002d0: 8bcd 43bd fcec 543e d0aa 1b3e 7cb2 263e
000002e0: 70fe e93d bd02 c83d 1f49 f93d 9300 803e
000002f0: 2c33 22be 5d83 ea3d e58e 67bb dae2 e2be
00000300: 59fa c33e 0f6a f03c df00 31be ff8d 1e3e
00000310: 71bc 96be 5d4e c2be 58a8 45bd 4adb ef3b
00000320: b001 2b3e d602 db3d 4a35 243e 4cff 41bd
00000330: d25d 053c 35b9 53be b3d3 9cbe 6c86 40be
00000340: b429 86be 7ebf 7bbe 2fb5 85bd 589f 18bd
00000350: 42f1 873e fd21 7d3e 0e7b 08be 1061 0a3e
00000360: 57d4 303d a750 4e3e 5641 8fbe 16d9 cfbd
00000370: dc01 363e 2577 5c3e 61a3 063d 1a3e a23e
00000380: 3892 1c3f 4d29 c1be 91e9 9cbf 8305 27be
00000390: f280 99be 923c 283f 51ec 5f3e f071 8ebd
000003a0: c799 dcbd 0269 113c f707 023f 47e1 d1bc
000003b0: 0e68 223f e91f 603f 5aaa 09bd 2933 5e3e
000003c0: b201 d9be ba18 5c3d d23d 2e3e fc60 8e3d
000003d0: c70f 9a3e 5ec8 3bbf 450d 06bf 59f9 8cbe
000003e0: 24f0 b3be d3b4 a5bb 63c1 91bf ae9c 82bd
000003f0: ffef 9f3e d86d 773c 468e 923c bf85 913e

encoder.4.bias f4 [64]
0.06554947 -0.022945426 0.077513665 0.27189037 0.30248547 -0.15846552 0.2585676 0.055344336
-0.17809857 0.039692856 0.07172829 0.040191196 -0.12166507 -0.022914937 0.014308973 0.31722876
-0.19880366 0.015917221 0.11680392 -0.19181551 -0.27207693 0.21419533 0.19439726 0.2283377
-0.0734118 -0.07355834 -0.08288858 -0.17562059 -0.17471766 0.087724246 -0.028251525 -0.05225548
-0.05777213 0.22551286 -0.016724298 -0.10438696 0.014426832 -0.09395336 -0.082765765 0.05387993
-0.10315514 -0.004874232 -0.04969583 -0.23064996 -0.049126152 -0.26854256 -0.057533603 -0.059595957
-0.027674362 0.107610606 0.4933749 0.012860283 -0.07223545 -0.34033957 -0.30171058 -0.29080284
0.23579295 -0.0670084 0.04204993 0.22662018 -0.029474193 -0.06107041 -0.106951885 0.25681946
00000000: cd3e 863d 0cf8 bbbc 7cbf 9e3d 3735 8b3e
00000010: 60df 9a3e c944 22be f962 843e beb0 623d
00000020: 795f 36be fa94 223d 48e6 923d 869f 243d
00000030: 892b f9bd 1bb8 bbbc 2f70 6a3c cf6b a23e
00000040: 3093 4bbe d564 823c e536 ef3d 496b 44be
00000050: ab4d 8bbe 0556 5b3e 1310 473e 5cd1 693e
00000060: ed58 96bd c1a5 96bd 7dc1 a9bd e2d5 33be
00000070: 30e9 32be c5a8 b33d be6f e7bc d809 56bd
00000080: 78a2 6cbd d8ec 663e 6501 89bc d5c8 d5bd
00000090: 855e 6c3c 9f6a c0bd 1981 a9bd 34b1 5c3d
000000a0: 0143 d3bd 06b8 9fbb db8d 4bbd 812f 6cbe
000000b0: 8138 49bd 697e 89be 5ba8 6bbd e41a 74bd
000000c0: 58b5 e2bc f362 dc3d a39b fc3e f0b3 523c
000000d0: 2ef0 93bd fd40 aebe cf79 9abe 1ce4 94be
000000e0: b573 713e b33b 89bd 8c3c 2c3d 1f0f 683e
000000f0: dd73 f1bc f724 7abd 9709 dbbd d77d 833e

encoder.6.weight f4 [64, 1, 5, 5]
0.15474696 0.25584912 0.16650875 -0.19969189 0.27693987 0.0780187 0.18340144 -0.0011849996
-0.6118219 -0.2560556 0.06412922 0.122536 0.12521882 -0.29923007 -0.031286843 -0.04269322
-0.2523827 0.051724862 0.07896511 0.32602534 0.039067596 -0.23188895 0.0098282425 0.063977234
0.012892465 -0.066670015 0.15168454 -0.18090741 -0.006526469 -0.18907411 0.035889976 -0.124257445
0.10778414 -0.044839416 -0.10385742 0.071306124 0.11626722 -0.06481594 -0.0071785175 -0.024110189
-0.07948473 0.100727856 0.1409459 0.14596976 -0.099470854 0.007953011 0.0825412 -0.16671647
-0.14645945 -0.19874714 -0.1462676 -0.32429084 -0.5225971 -0.41093788 -0.13090816 -0.26706555
-0.36789107 -0.5012757 -0.45961156 -0.16716665 -0.3965044 -0.32729712 -0.23262803 -0.38550478
-0.36311066 -0.22635795 -0.349841 -0.2857236 -0.20460607 -0.2647422 -0.13017425 -0.24518254
-0.327809 -0.24754573 -0.07222045 0.0018612012 -0.29955643 -0.3083165 -0.211346 -0.025449034
-0.296613 -0.20187369 0.23060164 0.069752336 -0.2001392 -0.28729445 0.20447905 0.8869593
0.490141 -0.22771269 -0.27789375 0.019557938 0.4547205 0.116628885 -0.19311434 -0.0019048512
-0.26927876 -0.23104021 -0.22785658 -0.13713431 -0.06043991 0.001171452 0.003502728 0.015024891
0.03361746 0.06373304 0.2263465 0.35876647 0.3907121 0.09213997 0.15989016 0.4282369
0.8179308 0.79154474 0.27751133 0.15221527 0.3260872 0.7432481 0.8033872 0.24095751
-0.0051213293 -0.017828148 0.07911851 0.22665186 0.1121275 0.03850695 0.09607658 -0.0028526115
-0.007681082 -0.092071176 0.035788253 0.20726684 0.10979762 -0.050506406 -0.06171901 -0.0020882469
0.016124342 -0.05188529 -0.33154732 -0.07220928 -0.08835611 -0.14805359 -0.2857444 -0.49099967
-0.469535 -0.028062677 -0.09465684 -0.148706 -0.3698084 -0.28597587 -0.16748652 0.25990272
0.10896992 -0.28326973 -0.13397817 0.16953918 0.39072835 0.048534993 -0.17499086 0.011381218
0.122692116 -0.10655868 -0.4195055 -0.028939584 0.1822172 -0.012676096 -0.29945382 -0.21915708
0.24907291 0.11170983 -0.07349241 -0.020172812 0.10760587 0.33922398 -0.014684072 0.021721544
0.17870474 -0.22393163 0.011007535 -0.24018924 0.40597212 0.6221576 -0.022872902 0.22478302
0.33217403 -0.01817698 -0.026834853 -1.0556235 -0.37510574 0.16878016 0.28562394 0.16527642
-0.578503 -0.21334 0.24032255 -0.004915298 0.4464227 -0.025246926 0.3345572 0.120868586
0.103869244 0.15154746 0.112526625 0.11730073 0.0035601764 0.17136844 0.39332277 0.23857781
0.11919209 0.10112893 0.11639693 0.3765675 0.22460985 0.036656022 0.08127655 0.0955734
0.11208358 0.0670506 0.1056585 0.06762412 -0.001481006 0.05590332 0.17242515 0.061650984
-0.010741783 0.004467511 -0.05358531 -0.10071009 -0.077558994 -0.11002154 -0.11148552 0.036254745
0.13954891 0.061880644 0.010922658 -0.04806886 0.2354106 0.5213084 0.41864792 0.1351021
-0.01837488 0.18970267 0.51173437 0.48329252 0.056900796 -0.046500854 0.08209098 0.21103905
0.1606232 0.0015877428 -0.12617655 0.033231486 0.035820246 0.31311575 0.03290059 0.098008074
00000000: fd75 1e3e a8fe 823e 4581 2a3e 087c 4cbe
00000010: 10cb 8d3e 45c8 9f3d 96cd 3b3e fd51 9bba
00000020: 5ca0 1cbf b819 83be 2e56 833d 28f4 fa3d
00000030: 5d39 003e af34 99be a226 00bd 16df 2ebd
00000040: 4e38 81be 73dd 533d 76b8 a13d cbec a63e
00000050: 5805 203d 4c74 6dbe a306 213c 7f06 833d
00000060: eb3a 533c 4a8a 88bd 3153 1b3e cb3f 39be
00000070: fddb d5bb a59c 41be 5e01 133d b07a febd
00000080: eebd dc3d 89a9 37bd 33b3 d4bd f208 923d
00000090: 821d ee3d 38be 84bd c539 ebbb bb82 c5bc
000000a0: e4c8 a2bd 684a ce3d 1f54 103e 1979 153e
000000b0: 60b7 cbbd 594d 023c 5c0b a93d b9b7 2abe
000000c0: 77f9 15be 5f84 4bbe 2cc7 15be 7309 a6be
000000d0: ecc8 05bf 7366 d2be ca0c 06be d1bc 88be
000000e0: 385c bcbe 9b53 00bf 3552 ebbe bc2d 2bbe
000000f0: a002 cbbe 7d93 a7be 0b36 6ebe e260 c5be
00000100: a4e9 b9be 61ca 67be 5c1e b3be 5d4a 92be
00000110: 4184 51be 4a8c 87be 664c 05be 2211 7bbe
00000120: 95d6 a7be a17c 7dbe 51e8 93bd 8df3 f33a
00000130: 765f 99be a9db 9dbe 166b 58be 7e7a d0bc
00000140: a9dd 97be fab7 4ebe d622 6c3e 50da 8e3d
00000150: 4af1 4cbe 4218 93be f562 513e c40f 633f
00000160: c3f3 fa3e 842d 69be 1748 8ebe f837 a03c
00000170: 20d1 e83e 20db ee3d c4bf 45be 33ac f9ba
00000180: e8de 89be ce95 6cbe 3c53 69be f06c 0cbe
00000190: d78f 77bd 688b 993a 068e 653b f62a 763c
000001a0: 76b2 093d 7886 823d 60c7 673e 3db0 b73e
000001b0: 6b0b c83e e1b3 bc3d 3fba 233e de41 db3e
000001c0: ea63 513f ada2 4a3f f715 8e3e 52de 1b3e
000001d0: e7f4 a63e 8245 3e3f c9aa 4d3f 91bd 763e
000001e0: d3d0 a7bb 560c 92bc e308 a23d 6d17 683e
000001f0: 1aa3 e53d 77b9 1d3d ccc3 c43d e1f2 3abb
00000200: 96b1 fbbb d08f bcbd b496 123d c23d 543e
00000210: 93dd e03d cedf 4ebd 13cd 7cbd f8da 08bb
00000220: 3217 843c ab85 54bd 92c0 a9be 76e2 93bd
00000230: 0cf4 b4bd 5c9b 17be 174d 92be 4f64 fbbe
00000240: e466 f0be b3e3 e5bc 72db c1bd 6346 18be
00000250: 8757 bdbe 6e6b 92be 9681 2bbe f811 853e
00000260: 9f2b df3d bb08 91be 9331 09be ae9b 2d3e
00000270: 8c0d c83e a1cc 463d ce30 33be 4a78 3a3c
00000280: 0146 fb3d 703b dabd 6dc9 d6be b512 edbc
00000290: 2597 3a3e 66af 4fbc 0352 99be b76a 60be
000002a0: f80c 7f3e 20c8 e43d 3083 96bd 7441 a5bc
000002b0: 7760 dc3d c4ae ad3e 7695 70bc 61f1 b13c
000002c0: 60fe 363e 554e 65be f358 343c 2bf4 75be
000002d0: 94db cf3e b845 1f3f f45f bbbc 852d 663e
000002e0: b712 aa3e e4e7 94bc c4d4 dbbc ac1e 87bf
000002f0: dc0d c0be b5d4 2c3e 4d3d 923e 393e 293e
00000300: c618 14bf cd75 5abe 1d17 763e 8210 a1bb
00000310: 8491 e43e a4d2 cebc 154b ab3e f389 f73d
00000320: 66b9 d43d 422f 1b3e 5c74 e63d 5d3b f03d
00000330: d951 693b 357b 2f3e 9a61 c93e be4d 743e
00000340: fc1a f43d af1c cf3d 8361 ee3d 75cd c03e
00000350: 2000 663e a024 163d 5274 a63d fdbb c33d
00000360: 138c e53d d351 893d 7c63 d83d 847e 8a3d
00000370: 511e c2ba e1fa 643d 3890 303e be85 7c3d
00000380: 4efe 2fbc 3364 923b 457c 5bbd 1741 cebd
00000390: 40d7 9ebd f952 e1bd 8552 e4bd db7f 143d
000003a0: e9e5 0e3e 8f76 7d3d f3f4 323c dae3 44bd
000003b0: 7a0f 713e 7874 053f 0559 d63e 3458 0a3e
000003c0: eb86 96bc 6b41 423e 0601 033f 1e72 f73e
000003d0: cf10 693d ae77 3ebd 511f a83d 9f1a 583e
000003e0: 687a 243e cf1b d03a 6d34 01be bd1d 083d
000003f0: 40b8 123d b550 a03e c5c2 063d 75b8 c83d

encoder.6.bias f4 [64]
0.0038333042 -0.08631241 0.0150997145 0.019101646 -0.21072833 0.2558032 -0.00047747098 0.01834292
-0.039504115 -0.24987508 -0.010251594 0.09226137 -0.015268966 -0.11093195 0.0961247 0.111199446
0.002338654 0.24608842 0.13284652 0.21734606 -0.26236472 0.06516264 0.17861351 -0.06361476
0.18939514 0.020085452 0.07544607 0.16070354 -0.046183404 0.020245278 0.07622346 -0.13256761
-0.12041825 -0.19856422 -0.05951264 -0.1382182 -0.018204352 -0.18282041 0.22733971 0.023676096
0.010227854 0.14800844 -0.064662434 0.0005986027 0.12461514 0.011219865 0.17870706 0.14200717
-0.0150079345 -0.09131548 0.107278675 -0.22222307 0.030752836 -0.00026823307 0.14540853 -0.0032076056
0.034332097 -0.021957211 0.16110796 0.042151134 0.05205641 -0.0033517033 0.015319465 0.0013273201
00000000: 2c38 7b3b 90c4 b0bd cb64 773c 0e7b 9c3c
00000010: 2bc9 57be a3f8 823e 1255 fab9 e443 963c
00000020: 11cf 21bd 41df 7fbe 4df6 27bc 87f3 bc3d
00000030: af2a 7abc 4a30 e3bd 07dd c43d 89bc e33d
00000040: 1a44 193b 9afe 7b3e eb08 083e f78f 5e3e
00000050: ab54 86be fd73 853d 76e6 363e 7548 82bd
00000060: cdf0 413e 3f8a a43c 7883 9a3d 788f 243e
00000070: cf2a 3dbd 6dd9 a53c 0c1b 9c3d cebf 07be
00000080: d89d f6bd 6b54 4bbe 87c3 73bd 1289 0dbe
00000090: 4b21 95bc 4635 3bbe becb 683e 5ff4 c13c
000000a0: bb92 273c 868f 173e bd6d 84bd 8ceb 1c3a
000000b0: 3936 ff3d 86d3 373c fcfe 363e 546a 113e
000000c0: d7e3 75bc 9c03 bbbd ecb4 db3d 728e 63be
000000d0: 5fed fb3c a2a1 8cb9 f9e5 143e b136 52bb
000000e0: d09f 0c3d 9cdf b3bc 7cf9 243e aba6 2c3d
000000f0: 1a39 553d 40a8 5bbb 7efe 7a3c 79f9 ad3a

encoder.7.weight f4 [128, 64, 1, 1]
0.0084775295 -0.25926536 0.0051258816 0.5160545 0.26524904 0.2075814 0.10028821 -0.109473534
-0.0041239266 -0.3117886 0.29031855 -0.14956638 -0.37408164 -0.51366204 0.3959631 0.2761582
-0.020324396 -0.3606886 -0.29540128 0.30617368 -0.3236766 -0.11329945 -0.8821001 0.24572596
0.21044174 0.28355792 0.14410852 0.37437776 -0.44114968 0.19051556 0.30885115 -0.23835473
0.25164613 -1.0312063 0.034438938 -0.30111808 0.24920635 -0.37900522 0.48511344 0.12272099
-0.27929366 0.24645025 -0.22796957 0.08558519 0.34700266 0.3354749 0.40704358 0.23493895
-0.34247193 0.0021711257 0.37728277 0.059349746 0.27063426 0.07952612 0.29258236 -0.28021708
-0.24033955 0.0028971483 -0.21960208 0.05709897 0.28950977 -0.060863066 0.35109487 -0.34905827
-0.002066624 0.12169818 0.13091253 0.20819214 -0.18837242 -0.055723876 -0.061113175 0.0006154895
0.40917686 0.010688085 -0.048163947 -0.21230361 0.14837176 -0.23475546 0.15627655 0.096166365
0.01051418 0.48105568 -0.14929187 -0.11660771 0.1877507 -0.011576374 0.124380685 0.16681355
-0.14378862 -0.1544998 -0.020972522 -0.017703231 0.04212002 -0.11058137 -0.15576893 0.110357225
0.6557448 0.07196304 0.36166936 0.15623309 -0.006716252 0.10811786 -0.33372965 0.098144375
-0.26274425 -0.45092368 0.18209097 -0.049109317 -0.0070555615 -0.0039665196 -0.17065544 -0.21643256
0.103886634 -0.41654968 -0.035076514 -0.50971854 0.18169975 0.030291801 -0.19420476 0.035965864
0.08297945 0.06037429 -0.08406442 0.36870065 -0.11191767 0.0007685208 -0.033127822 -0.3134213
-0.10640106 -0.31259266 0.47270554 -0.15957423 -0.4829923 0.4484833 0.18144962 0.22277106
0.018144067 -0.6650088 -0.16840489 -0.025634764 -0.32592714 0.3789002 0.10301748 0.10532254
-0.03815557 -0.012436382 0.12490369 0.340536 -0.40162373 0.28049994 0.21487264 0.023347564
0.2485373 0.25703937 -0.118678965 0.43479723 -0.42526394 -0.043657552 0.23712431 -0.38111532
0.5160816 -0.1200684 0.17621776 -0.4522763 -0.24409078 -0.47462234 -0.0064547057 -0.039530285
0.29306594 -0.0124186855 -0.37302068 0.03739115 0.39422977 0.31497404 0.28975388 0.36505565
-0.2118995 -0.33223915 -0.09516134 -0.8161742 0.0035428938 -0.021138702 0.46242955 -0.28886765
0.24959144 -0.10312795 -0.4753049 0.2509738 0.34493667 0.00016174445 0.42516935 0.03055699
-0.02747254 -0.23556925 0.3520071 -0.44296885 -1.1573818 0.26188806 0.023887934 0.0077595357
0.13303491 -0.54388154 0.07603547 -0.07106168 -0.01632001 0.630319 0.17839448 0.008031169
0.08844093 -0.012550345 0.2732371 -0.0032472096 -0.023718933 0.025626749 0.03572851 -0.014548614
0.2549356 0.16464074 0.07824463 0.11278674 -0.24902244 0.024637109 0.0946308 -0.0554478
0.06568317 -0.07234909 -0.08217731 -0.16114418 -0.18782437 -0.20252344 -0.24541737 0.05236539
0.3404822 -0.09472685 -0.16244385 0.10256942 0.020559331 0.19700648 0.14852694 -0.00065833743
-0.13656248 -0.019365618 -0.29479888 -0.3430143 0.08347878 -0.08507288 0.1623659 -0.12677903
0.018491939 -0.002502817 -0.33971223 0.2426416 0.14900178 -0.03239317 0.21538167 -0.0577896
00000000: 56e5 0a3c 6ebe 84be 03f7 a73b 261c 043f
00000010: b9ce 873e 3890 543e e863 cd3d a933 e0bd
00000020: 0122 87bb c1a2 9fbe a2a4 943e ee27 19be
00000030: a187 bfbe 5b7f 03bf adbb ca3e 9c64 8d3e
00000040: 597f a6bc 2dac b8be d63e 97be ccc2 9c3e
00000050: f0b8 a5be 8b09 e8bd 50d1 61bf 969f 7b3e
00000060: 0a7e 573e 812e 913e 2f91 133e 71ae bf3e
00000070: 5fde e1be 8316 433e bd21 9e3e 4313 74be
00000080: c3d7 803e 91fe 83bf d80f 0d3d 262c 9abe
00000090: f32f 7f3e f90c c2be ca60 f83e 2455 fb3d
000000a0: 94ff 8ebe 745d 7c3e db70 69be 4a47 af3d
000000b0: 55aa b13e 5ec3 ab3e 0468 d03e d693 703e
000000c0: 7b58 afbe 7249 0e3b 352b c13e b818 733d
000000d0: 9390 8a3e 97de a23d 5bcd 953e 9d78 8fbe
000000e0: 921b 76be 15de 3d3b 5edf 60be 9ce0 693d
000000f0: a03a 943e 8d4b 79bd b5c2 b33e c4b7 b2be
00000100: 3270 07bb e53c f93d ef0d 063e 5230 553e
00000110: b3e4 40be b83e 64bd cf51 7abd cd58 213a
00000120: a17f d13e 141d 2f3c 8f47 45bd 1e66 59be
00000130: c4ee 173e bc63 70be f606 203e dff2 c43d
00000140: ab43 2c3c ee4c f63e f8df 18be 06d0 eebd
00000150: b841 403e d5aa 3dbc 4dbb fe3d 2cd1 2a3e
00000160: 533d 13be 3235 1ebe 91ce abbc 5e06 91bc
00000170: 0b86 2c3d 7c78 e2bd e481 1fbe f802 e23d
00000180: e4de 273f 5c61 933d ba2c b93e 91fb 1f3e
00000190: 0114 dcbb e66c dd3d 9dde aabe ebff c83d
000001a0: 6a86 86be 78df e6be 0e76 3a3e da26 49bd
000001b0: 5732 e7bb 94f9 81bb 4dc0 2ebe 7fa0 5dbe
000001c0: 84c2 d43d 0046 d5be 64ac 0fbd ea7c 02bf
000001d0: 800f 3a3e 8326 f83c 9ddd 46be f150 133d
000001e0: 21f1 a93d 084b 773d f729 acbd 55c6 bc3e
000001f0: 1735 e5bd 8f76 493a 0ab1 07bd c278 a0be
00000200: cde8 d9bd 250c a0be 7606 f23e 6d67 23be
00000210: c44a f7be 9a9f e53e eecd 393e 191e 643e
00000220: dea2 943c 043e 2abf 5572 2cbe ffff d1bc
00000230: ecdf a6be 35ff c13e d4fa d23d 58b3 d73d
00000240: 0449 1cbd f7c1 4bbc 81cd ff3d bc5a ae3e
00000250: a0a1 cdbe b09d 8f3e 9307 5c3e 6443 bf3c
00000260: 9080 7e3e aa9a 833e f50d f3bd be9d de3e
00000270: 32bc d9be 43d2 32bd b7d0 723e 8c21 c3be
00000280: ec1d 043f 6ce6 f5bd 6e72 343e c290 e7be
00000290: eff2 79be b301 f3be ff81 d3bb 82ea 21bd
000002a0: bd0c 963e be77 4bbc 91fc bebe 7627 193d
000002b0: 7cd8 c93e 4744 a13e 9f5a 943e 93e8 ba3e
000002c0: 2ffc 58be 401b aabe f3e3 c2bd cbf0 50bf
000002d0: e52f 683b 122b adbc 91c3 ec3e 76e6 93be
000002e0: e694 7f3e bf34 d3bd 2a5b f3be a37f 803e
000002f0: 8a9b b03e f299 2939 ccaf d93e a752 fa3c
00000300: 180e e1bc 1139 71be 463a b43e d0cc e2be
00000310: 1625 94bf 3116 863e a1b0 c33c b443 fe3b
00000320: 4e3a 083e d23b 0bbf 7cb8 9b3d c988 91bd
00000330: 8bb1 85bc 965c 213f 0bad 363e 2a95 033c
00000340: 8520 b53d f69f 4dbc bce5 8b3e 23cf 54bb
00000350: 354e c2bc 30ef d13c 0f58 123d 4f5d 6ebc
00000360: eb86 823e 9597 283e b83e a03d bcfc e63d
00000370: bdff 7ebe c3d3 c93c cbcd c13d 3b1d 63bd
00000380: e684 863d c22b 94bd 944c a8bd fb02 25be
00000390: 0855 40be 4e62 4fbe b14e 7bbe 177d 563d
000003a0: af53 ae3e 2700 c2bd ae57 26be eb0f d23d
000003b0: 0b6c a83c 11bc 493e 7217 183e 4794 2cba
000003c0: 09d7 0bbe a5a4 9ebc e1ef 96be 929f afbe
000003d0: ecf6 aa3d b13a aebd 3f43 263e 5dd2 01be
000003e0: 687c 973c 4d06 24bb c3ee adbe 0a77 783e
000003f0: ec93 183e b3ae 04bd 038d 5c3e cab4 6cbd

encoder.7.bias f4 [128]
0.4221854 -0.13055024 0.32759434 0.1452339 0.03495226 0.46280566 -0.07535232 -0.026587272
0.4649259 0.15461609 0.9627518 -0.15238419 -0.12985913 0.86607224 0.073379785 0.18477093
-0.04944318 -0.06779747 0.084896035 -0.1384362 0.09725622 -0.08375924 0.16140261 -0.17541546
0.09768974 -0.12510869 0.15830056 0.1631181 0.39683992 -0.046499357 0.07135343 0.12799948
-0.0118754 0.30294883 0.23999543 -0.2064926 0.08283957 -0.30306557 -0.19611904 -0.20529416
0.09721424 -0.22161013 0.22363392 -0.09980466 -0.009053275 -0.19860555 -0.14666025 0.7755787
0.12418896 -0.053601217 0.29487523 -0.21891919 0.16332306 -0.1360958 0.0016300419 -0.10202235
0.1324177 0.15114078 -0.1599941 0.042475674 0.30172294 -0.111440785 -0.15773085 -0.09170065
0.053870622 -0.114564314 -0.18124111 0.05206623 -0.15636449 -0.03460377 -0.17139545 0.25273255
0.0401978 0.082669355 -0.17507918 -0.21922837 -0.17599922 0.1557159 0.5049602 -0.08556035
-0.14407618 -0.23308398 0.22020227 0.22857286 0.6902403 -0.029648662 -0.029596915 0.63249546
-0.06549384 -0.011912047 0.1254211 -0.16114333 -0.020651491 0.37131557 0.20201048 0.047284443
0.5714807 -0.20681544 0.24708983 -0.030269533 0.34780002 0.26923355 -0.17144582 0.0918387
-0.20330161 0.21391983 -0.18958993 0.076842844 1.0523304 -0.202936 0.25587243 0.2980862
-0.014896859 -0.195617 -0.053566046 0.3048892 0.52376103 0.10499454 0.32911333 -0.12881108
0.2653372 0.040478904 0.28428373 -0.031222692 0.16701123 0.0655126 -0.075968064 -0.25371408
00000000: af28 d83e f6ae 05be 72ba a73e 32b8 143e
00000010: 1a2a 0f3d ddf4 ec3e 5152 9abd 8dcd d9bc
00000020: c40a ee3e ae53 1e3e e776 763f 9a0a 1cbe
00000030: cbf9 04be e9b6 5d3f 2448 963d 9734 3d3e
00000040: ef84 4abd 66d9 8abd f9dd ad3d 38c2 0dbe
00000050: 452e c73d f789 abbd ba46 253e 1ca0 33be
00000060: 8f11 c83d 7e1c 00be 8b19 223e 6e08 273e
00000070: 9a2e cb3e 1c76 3ebd bf21 923d 4c12 033e
00000080: 0a91 42bc 1c1c 9b3e 5dc1 753e cc72 53be
00000090: cba7 a93d 692b 9bbe 6ed3 48be a238 52be
000000a0: 4218 c73d c4ed 62be 4a00 653e 6366 ccbd
000000b0: 3054 14bc 415f 4bbe 1b2e 16be 538c 463f
000000c0: c856 fe3d f38c 5bbd e3f9 963e 5a2c 60be
000000d0: 293e 273e b35c 0bbe 21a7 d53a 18f1 d0bd
000000e0: 8198 073e a6c4 1a3e 7ed5 23be f9fa 2d3d
000000f0: 6e7b 9a3e 113b e4bd 3284 21be 8dcd bbbd
00000100: 71a7 5c3d b2a0 eabd 4597 39be 6643 553d
00000110: 031e 20be afbc 0dbd 4a82 2fbe 2966 813e
00000120: 73a6 243d 8d4e a93d f547 33be 677d 60be
00000130: 2439 34be fd73 1f3e 1245 013f 443a afbd
00000140: b588 13be 91ad 6ebe b47c 613e 010f 6a3e
00000150: 97b3 303f c0e1 f2bc 3b75 f2bc 39eb 213f
00000160: a221 86bd bf2a 43bc 646e 003e c202 25be
00000170: 512d a9bc 131d be3e d6db 4e3e 55ad 413d
00000180: 8f4c 123f 6dc7 53be 1e05 7d3e d0f7 f7bc
00000190: d812 b23e fbd8 893e 7e8f 2fbe ee15 bc3d
000001a0: 4c2e 50be cd0d 5b3e dd23 42be c85f 9d3d
000001b0: c3b2 863f 74ce 4fbe b601 833e c19e 983e
000001c0: f511 74bc d34f 48be 1268 5bbd 701a 9c3e
000001d0: 3415 063f 6107 d73d 8b81 a83e 0de7 03be
000001e0: 47da 873e 35cd 253d a38d 913e bbc6 ffbc
000001f0: fe04 2b3e 782b 863d 2595 9bbd d0e6 81be

encoder.9.weight f4 [128, 1, 5, 5]
-0.36672541 -0.33157575 -0.26151073 -0.38336793 -0.1432324 -0.18314919 -0.09356991 0.035983864
-0.015202648 0.053372767 0.002602409 0.26886418 0.66010994 0.19623807 0.081568 -0.24897228
0.32811797 0.40217364 -0.008261153 0.055442646 -0.15274689 -0.035688806 0.1376284 0.030464957
-0.113303445 0.2036726 0.16140981 0.23638861 0.27697074 0.15861088 0.19642141 0.27694154
-0.06826981 0.12298679 0.036454406 0.2733643 0.4364781 0.030464627 0.01019721 0.2454177
0.35324132 0.29579353 0.12055084 0.26392126 0.4909914 0.056626104 0.2004146 0.22952396
0.34660888 0.24768607 -0.25738308 -0.13473617 -0.04626721 0.12352961 0.017615689 -0.16539524
-0.08601255 0.36047024 0.24795987 -0.086197756 0.11801592 -0.0049923626 0.4149333 -0.38884366
-0.41716173 0.23420216 0.3259957 0.32362154 -0.37047845 -0.5088516 0.017802984 0.10755254
0.16624185 -0.14157957 0.018707354 0.004509058 -0.10402023 0.115725346 0.23774794 0.31954527
-0.15433367 -0.34193748 -0.090223834 0.42857876 -0.039301112 0.046853136 -0.09120047 -0.5903374
0.27590567 -0.10416697 -0.18876517 0.3708997 0.1676493 0.302206 -0.057129376 -0.16308075
-0.09877885 -0.0616824 0.07490818 0.02793928 -0.076782554 0.07371941 -0.036055733 0.19338539
0.07901838 -0.21856909 -0.30843312 -0.1990756 0.20220618 0.18534918 -0.13803811 -0.28747696
-0.20602222 -0.011930779 0.321166 -0.077647135 -0.026761156 -0.4424517 -0.18383984 0.008850519
0.15919214 -0.08265932 -0.13956633 -0.2107495 -0.106713854 0.09405328 0.107831165 -0.055723358
-0.07541742 0.1057721 0.14410543 0.15877014 0.2707247 0.341281 -0.070804924 0.06510313
-0.2859043 0.28175247 -0.47331047 0.28309545 0.02347277 -0.17571847 -0.23351245 -0.7054962
0.25267625 0.047020618 0.07699344 -0.006410933 0.038044676 0.094218425 0.12866528 -0.38776314
-0.5418567 0.2971647 0.069698624 0.030243076 0.06193099 -0.06262565 0.07886498 -0.11240359
0.06843271 0.46670628 0.44778156 0.4110591 0.25579602 -0.1390315 0.25997117 0.64020604
0.57536286 -0.3556321 -0.13942608 -0.15706095 0.031912085 -0.10367521 -0.33428228 -0.09065633
0.12962295 -0.10190706 0.14050516 -0.06557538 0.060434677 -0.20117778 0.51303256 -0.0901222
0.09985446 0.13615483 -0.38386768 -0.89876306 0.48868665 -0.20144086 0.029425396 0.15497193
0.510401 -0.62441665 0.2692403 -0.040872935 0.115866855 -0.038155172 0.18380283 -0.11144955
-0.08274941 0.072843306 -0.0072335424 -0.031298712 -0.016782464 0.0001501783 -0.13970622 -0.25527966
-0.20688637 -0.027827594 -0.08756812 0.092927866 0.54397774 -0.19602844 -0.09579134 -0.05242304
0.31632197 0.75755274 -0.18049946 -0.15455607 0.0072858995 -0.106543474 -0.29382756 0.00805686
0.11664628 -0.7654244 -0.6009423 0.33919 0.46289173 0.86012286 0.044986274 -0.20517333
0.081447124 -0.10787356 0.16713019 0.2585561 0.064085856 -0.15017392 -0.095301144 -0.32288405
0.41864148 0.15067439 -0.26494223 -0.048607487 -0.49173203 0.32487556 -0.018602595 0.044730503
-0.2704438 0.26642823 0.05715041 0.010265766 0.07968836 0.19438922 0.049173437 -0.037877098
00000000: 6fc3 bbbe 4cc4 a9be bce4 85be cd48 c4be
00000010: 84ab 12be 768b 3bbe 95a1 bfbd d163 133d
00000020: 8714 79bc 679d 5a3d 2e8d 2a3b 91a8 893e
00000030: f7fc 283f a2f2 483e 200d a73d 97f2 7ebe
00000040: 14ff a73e b4e9 cd3e c959 07bc d417 633d
00000050: ae69 1cbe 6d2e 12bd 76ee 0c3e a591 f93c
00000060: a30b e8bd 8d8f 503e 9d48 253e db0f 723e
00000070: 1ccf 8d3e e46a 223e b222 493e 48cb 8d3e
00000080: 0bd1 8bbd 80e0 fb3d 3751 153d 68f6 8b3e
00000090: 0f7a df3e f490 f93c 3312 273c c74e 7b3e
000000a0: 0cdc b43e 4072 973e 5ce3 f63d b020 873e
000000b0: 3a63 fb3e c6f0 673d 7c39 4d3e 5408 6b3e
000000c0: b876 b13e 6ba1 7d3e b7c7 83be 47f8 09be
000000d0: b082 3dbd 18fd fc3d c74e 903c 5f5d 29be
000000e0: 5927 b0bd 8e8f b83e 31e9 7d3e 7388 b0bd
000000f0: 55b2 f13d f996 a3bb 2372 d43e 8416 c7be
00000100: 3996 d5be b1d2 6f3e e9e8 a63e b9b1 a53e
00000110: 5aaf bdbe 1944 02bf 90d7 913c 8244 dc3d
00000120: 4e3b 2a3e 3cfa 10be 2a40 993c b8c0 933b
00000130: 8f08 d5bd 6901 ed3d 3274 733e 709b a33e
00000140: a509 1ebe 6e12 afbe 46c7 b8bd ad6e db3e
00000150: 34fa 20bd 13e9 3f3d 50c7 babd 5a20 17bf
00000160: 8243 8d3e 7e55 d5bd a84b 41be 91e6 bd3e
00000170: 42ac 2b3e bfba 9a3e 7e00 6abd a4fe 26be
00000180: 914c cabd afa6 7cbd 7669 993d ebe0 e43c
00000190: 2c40 9dbd 34fa 963d 2daf 13bd d206 463e
000001a0: 63d4 a13d 93d0 5fbe f2ea 9dbe 79da 4bbe
000001b0: 230f 4f3e 2dcc 3d3e dd59 0dbe 2e30 93be
000001c0: 7df7 52be 5079 43bc df6f a43e 7605 9fbd
000001d0: 363a dbbc 0789 e2be 8340 3cbe c401 113c
000001e0: 4403 233e 4a49 a9bd 7aea 0ebe b8ce 57be
000001f0: cb8c dabd 029f c03d 96d6 dc3d 2d3e 64bd
00000200: 7374 9abd 0b9f d83d 6090 133e a494 223e
00000210: 6e9c 8a3e 62bc ae3e 2c02 91bd ca54 853d
00000220: 0c62 92be dc41 903e c055 f2be e3f1 903e
00000230: f749 c03c 8bef 33be e31d 6fbe 669b 34bf
00000240: c85e 813e b198 403d bdae 9d3d ce12 d2bb
00000250: bcd4 1b3d 97f5 c03d d5c0 033e e488 c6be
00000260: 1fb7 0abf f925 983e 27be 8e3d 54c0 f73c
00000270: 5aab 7d3d e041 80bd f683 a13d da33 e6bd
00000280: 7326 8c3d 20f4 ee3e a043 e53e 5776 d23e
00000290: b2f7 823e 465e 0ebe f11a 853e 8be4 233f
000002a0: fb4a 133f 6915 b6be b6c5 0ebe 96d4 20be
000002b0: 3fb6 023d ab53 d4bd 0c27 abbe 07aa b9bd
000002c0: e1bb 043e a6b4 d0bd 96e0 0f3e 634c 86bd
000002d0: 5a8a 773d 8c01 4ebe 1a56 033f fd91 b8bd
000002e0: 7f80 cc3d 2c6c 0b3e 4e8a c4be 5615 66bf
000002f0: 2335 fa3e 8346 4ebe 870d f13c f6b0 1e3e
00000300: a4a9 023f c5d9 1fbf ddd9 893e 616a 27bd
00000310: 9a4b ed3d 9948 1cbd cf36 3c3e a93f e4bd
00000320: 8678 a9bd df2e 953d 5a07 edbb 1433 00bd
00000330: 617b 89bc 2e79 1d39 260f 0fbe 04b4 82be
00000340: 05da 53be b2f6 e3bc ea56 b3bd f750 be3d
00000350: 2042 0b3f aebb 48be 402e c4bd 8bb9 56bd
00000360: f4f4 a13e faee 413f dad4 38be f243 1ebe
00000370: 8ebe ee3b 7733 dabd 9170 96be ec00 043c
00000380: 3fe4 ee3d daf2 43bf 5bd7 19bf 50aa ad3e
00000390: 2500 ed3e 0331 5c3f 8743 383d f518 52be
000003a0: c0cd a63d d0ec dcbd 2d24 2b3e 7761 843e
000003b0: 723f 833d 31c7 19be 3f2d c3bd 0f51 a5be
000003c0: 2d58 d63e 634a 1a3e 82a6 87be a518 47bd
000003d0: 4dc4 fbbe 1756 a63e 7864 98bc 5537 373d
000003e0: 9c77 8abe 4869 883e 8c16 6a3d be31 283c
000003f0: a733 a33d f80d 473e 166a 493d 0425 1bbd

encoder.9.bias f4 [128]
0.03855187 -0.24070238 0.07166216 -0.24637002 0.17564991 -0.25290152 0.010733885 -0.062848486
-0.17398687 -0.07397217 -0.29338893 0.15170068 0.0012518999 0.19030647 0.16451783 -0.25030255
0.14209078 0.00038720923 0.1516465 -0.0018481954 -0.026390882 -0.0034010105 -0.14703469 0.24430074
-0.0822078 0.23951253 0.0044510257 0.31492546 0.0006422993 -0.00038560297 0.07694737 -0.28365725
-0.024630362 0.11905097 -0.11623435 -0.0020300373 0.5387978 0.04852061 0.032433372 -0.0026462143
0.23471136 -0.023422541 -0.10236526 -0.009123669 0.08757568 -0.09778922 -0.013914836 0.24485803
0.20249067 -0.21917957 0.017041868 0.22163895 -0.1450723 -0.0027651489 -0.043506805 0.0034517033
0.083474435 0.20204721 -0.0003755492 -0.03429142 -0.002605122 -0.0023435638 -0.0013274811 -0.0010285382
-0.23952463 0.0004493615 0.0008260114 0.11085306 0.0010754964 0.093678355 -0.09103379 0.18005747
0.20553523 -0.036420017 0.048591718 0.00072393153 -0.0014169749 0.47661808 -0.14887966 0.052068762
-0.00806231 -0.038303066 0.0717553 -0.2747751 0.1555471 0.0063548344 -0.020753438 0.106718905
3.8202965e-05 -0.0047135423 0.37082323 0.00017618004 0.21269642 -0.077853635 0.0784138 0.24204801
0.4552246 -0.07041026 -0.2911127 -0.0052158353 0.33760977 0.29686055 0.0029524642 -0.18201235
0.0035547235 0.04912365 -0.00056842214 -0.03706074 -0.24742275 0.0027426057 0.37989548 -0.0031889384
-0.052177172 -0.1286684 -0.010832555 -0.087567374 0.08325701 -0.0013299703 -0.25400332 -0.16475491
0.22667854 -0.023627145 0.026734568 -0.17552324 -0.14210182 0.24616055 -0.100190565 0.122963205
00000000: 91e8 1d3d af7a 76be 9cc3 923d 6c48 7cbe
00000010: 92dd 333e 4f7c 81be 2ddd 2f3c b5b6 80bd
00000020: 9d29 32be b97e 97bd 1337 96be 6c57 1b3e
00000030: ca16 a43a b3df 423e 5d77 283e a827 80be
00000040: 3f80 113e 5802 cb39 3849 1b3e 263f f2ba
00000050: b131 d8bc 7de3 5ebb 4390 16be f929 7a3e
00000060: 905c a8bd c642 753e e9d9 913b e93d a13e
00000070: fa5f 283a c12a cab9 9596 9d3d 863b 91be
00000080: 9dc5 c9bc ffd0 f33d 460c eebd 600a 05bb
00000090: a7ee 093f 8cbd 463d dbd8 043d 1c6c 2dbb
000000a0: 2d58 703e a1e0 bfbc e1a4 d1bd 717b 15bc
000000b0: e15a b33d b745 c8bd 0dfb 63bc 10bc 7a3e
000000c0: b759 4f3e 9c70 60be 639b 8b3c 52f5 623e
000000d0: d58d 14be 8037 35bb 3134 32bd f935 623b
000000e0: a5f4 aa3d 77e5 4e3e 5ce5 c4b9 2975 0cbd
000000f0: b2ba 2abb 7a96 19bb e0fe adba 04d0 86ba
00000100: f245 75be 4898 eb39 b088 583a ee06 e33d
00000110: acf7 8c3a 70da bf3d ec6f babd fc60 383e
00000120: d477 523e 282d 15bd 1c08 473d 39c6 3d3a
00000130: cab9 b9ba 4907 f43e e973 18be 0e46 553d
00000140: c717 04bc ade3 1cbd 71f4 923d 52af 8cbe
00000150: bd47 1f3e 373c d03b 1d03 aabc 718f da3d
00000160: 1f3c 2038 0f74 9abb 8bdc bd3e f8bc 3839
00000170: 17cd 593e ba71 9fbd 6a97 a03d 6fdb 773e
00000180: 3313 e93e 4133 90bd b90c 95be 99e9 aabb
00000190: 30db ac3e 1bfe 973e 217e 413b 7261 3abe
000001a0: 5df6 683b e135 493d 2a02 15ba 01cd 17bd
000001b0: 645c 7dbe 4abd 333b a981 c23e 82fd 50bb
000001c0: bbb7 55bd a6c1 03be 077b 31bc 8656 b3bd
000001d0: a782 aa3d 6652 aeba b90c 82be 83b5 28be
000001e0: 6b1e 683e b78d c1bc 7402 db3c 5dbc 33be
000001f0: 2483 11be 8311 7c3e b630 cdbd 22d4 fb3d

encoder.10.weight f4 [128, 128, 1, 1]
0.4922288 -0.2605568 -0.04725692 0.24558668 0.08963394 0.15230635 0.21890457 -0.07294068
-0.34731883 0.018289594 0.2656143 -0.022558989 -0.012622249 0.07133147 0.15649323 0.30803898
-0.06422798 0.098663114 0.16162343 -0.14664449 -0.069843024 0.1143141 -0.10905081 -0.14564234
0.04553378 0.114672676 0.22893111 0.116626196 0.020888062 0.07312394 0.0471831 0.340322
-0.27120355 0.3503352 0.06738874 -0.027846899 -0.02110278 0.51390404 -0.3216627 0.0012964119
0.5561365 -0.41624528 -0.1781785 -0.10317893 -0.23717286 -0.005729328 0.10527632 0.54206777
-0.4454261 0.1877229 -0.5136847 0.21394846 0.38643318 -0.071586564 -0.63664657 0.16503754
0.45694566 0.11629302 -0.18859234 0.15475748 0.2264678 -0.065664224 -0.07468176 -0.0009235893
-0.020788351 -0.105495825 0.10695418 -0.16402823 -0.1382306 -0.18580054 -0.20116782 -0.506124
0.07467402 -0.6145774 -0.06348408 -0.038567696 0.06911675 -0.14873803 -0.18814969 -0.35673964
-0.03765106 0.29830235 0.26795003 -0.21096395 -0.21228792 0.37875983 0.20262982 0.015945662
0.041821525 -0.09179916 0.1721328 -0.01647532 -0.30949616 0.1987557 -0.2985818 0.24593608
-0.04508692 0.036815643 -0.06716339 0.10576205 0.11257361 -0.23631617 0.0029167137 -0.45542395
-0.02513255 -0.5650987 0.00060989964 -0.33862436 -0.29830253 0.013835277 -0.09110683 -0.065191865
0.0556675 -0.09910772 -0.13440637 0.268805 -0.34812105 -0.19816054 -0.10605205 0.119728565
0.020168645 0.038027555 -0.16043064 -0.39822572 0.43673497 -0.093307346 -0.21425031 0.26641744
0.20842613 0.24822927 -0.19873892 -0.5170503 0.07109899 0.11915037 0.0087023275 -0.3044423
0.513592 0.1534384 -0.12378561 0.27807227 0.04733421 -0.7054164 0.1328994 -0.034879636
-0.3913109 0.11206138 -0.24299243 0.0476282 0.32798338 0.04801124 0.04761812 0.38641173
0.046106756 -0.063781336 -0.24686442 0.05577588 -0.59979475 0.035172746 -0.13639149 0.1259125
-0.042887297 0.16978623 0.04746715 0.064286284 -0.032412577 0.14026971 -0.20712309 0.041005876
-0.06715045 -0.24301124 -0.3171086 0.033396084 0.5040019 0.1503949 -0.28273258 -0.62130433
-0.02542453 -0.04676319 0.11390408 -0.97505385 -0.20421384 -0.04699963 0.48647708 0.021152537
-0.097774364 -0.15261434 -0.3059963 -0.03818104 -0.5975056 0.02324672 0.0031733075 -0.038452547
-0.6119849 -0.06523001 0.009183918 0.1123762 0.048305012 -0.25904262 0.25982592 0.1366421
-0.23992093 0.11280512 0.9528509 0.009358934 0.051299736 0.077743866 0.04224377 -0.57517046
-0.15144797 -0.38778445 -0.14603941 -0.0711484 -0.3932486 -0.22271802 0.074112184 -0.059854195
0.022486296 -0.057558868 -0.1731572 0.009734668 0.46480575 -0.56011754 0.31227297 -0.3266664
-0.07003756 -0.45396358 -0.4496713 -0.48419067 -0.08102427 0.045337155 0.07466413 0.35263714
0.10563033 0.11920099 0.06884168 0.42322582 -0.51553583 0.07605683 -0.10407523 0.099622376
-0.13929296 0.17162432 0.067657135 -0.22423637 -0.274952 0.20938548 0.13944617 0.17421465
0.048758134 0.056833554 0.11620805 0.122043885 0.088130035 0.33581203 0.2602119 -0.16932046
00000000: 6a05 fc3e b367 85be 7990 41bd 137b 7b3e
00000010: 0092 b73d 32f6 1b3e 8528 603e ec61 95bd
00000020: c6d3 b1be 0fd4 953c 99fe 873e a1cd b8bc
00000030: 8dcd 4ebc 3c16 923d c33f 203e 49b7 9d3e
00000040: f689 83bd e30f ca3d 9d80 253e f929 16be
00000050: dc09 8fbd 831d ea3d 0856 dfbd 4423 15be
00000060: a181 3a3d 82d9 ea3d eb6c 6a3e b7d9 ee3d
00000070: 711d ab3c 01c2 953d 1143 413d af3e ae3e
00000080: 31db 8abe 235f b33e 1c03 8a3d 2e1f e4bc
00000090: bddf acbc 378f 033f f9b0 a4be 5dec a93a
000000a0: f65e 0e3f 1a1e d5be 6d74 36be 7a4f d3bd
000000b0: 71dd 72be 16bd bbbb 1c9b d73d f4c4 0a3f
000000c0: e40e e4be 6f3a 403e d780 03bf 4e15 5b3e
000000d0: 92da c53e fa9b 92bd 45fb 22bf 9aff 283e
000000e0: c8f4 e93e 092b ee3d 5a1e 41be bf78 1e3e
000000f0: 2de7 673e f77a 86bd c0f2 98bd 071d 72ba
00000100: 554c aabc 320e d8bd cb0a db3d 04f7 27be
00000110: 538c 0dbe 7f42 3ebe f0fe 4dbe 5891 01bf
00000120: b1ee 983d f254 1dbf f103 82bd 29f9 1dbd
00000130: 158d 8d3d c84e 18be 50aa 40be 94a6 b6be
00000140: ff37 1abd 16bb 983e bf30 893e ef06 58be
00000150: 0162 59be cfec c13e 317e 4f3e 7aa0 823c
00000160: 0c4d 2b3d 3301 bcbd 9543 303e 40f7 86bc
00000170: 4876 9ebe 9d86 4b3e b7df 98be abd6 7b3e
00000180: 10ad 38bd 00cc 163d f68c 89bd c699 d83d
00000190: fe8c e63d defc 71be 5626 3f3b 542d e9be
000001a0: c7e2 cdbc 4faa 10bf ace1 1f3a 2c60 adbe
000001b0: 1cbb 98be 5cad 623c 3896 babd 5083 85bd
000001c0: 9b03 643d fdf8 cabd d3a1 09be cfa0 893e
000001d0: ec3c b2be 99ea 4abe d131 d9bd 4034 f53d
000001e0: b738 a53c c8c2 1b3d ee47 24be 3ee4 cbbe
000001f0: ba9b df3e ec17 bfbd 6f64 5bbe de67 883e
00000200: a96d 553e d02f 7e3e 3782 4bbe 695d 04bf
00000210: 599c 913d 1c05 f43d 3594 0e3c dcdf 9bbe
00000220: c47a 033f f51e 1d3e 4f83 fdbd 7d5f 8e3e
00000230: 84e1 413d 2b96 34bf c816 083e f3dd 0ebd
00000240: e759 c8be 7080 e53d 02d3 78be ca15 433d
00000250: 70ed a73e 6fa7 443d 380b 433d c2d7 c53e
00000260: 70da 3c3d ca9f 82bd 07ca 7cbe 4075 643d
00000270: 268c 19bf 4c11 103d 36aa 0bbe 35ef 003e
00000280: 97aa 2fbd 71dc 2d3e ea6c 423d 87a8 833d
00000290: 0dc3 04bd dda2 0f3e 1318 54be c7f5 273d
000002a0: 2d86 89bd f0d7 78be 0f5c a2be 55ca 083d
000002b0: 4506 013f 1f01 1a3e 53c2 90be cd0d 1fbf
000002c0: 1b47 d0bc c28a 3fbd 8b46 e93d 219d 79bf
000002d0: 6f1d 51be af82 40bd 8613 f93e 1648 ad3c
000002e0: ed3d c8bd ef46 1cbe 8cab 9cbe b963 1cbd
000002f0: 21f6 18bf e86f be3c 44f7 4f3b 6b80 1dbd
00000300: 0bab 1cbf 5097 85bd 2578 163c 7e25 e63d
00000310: 7adb 453d 3ca1 84be e707 853e e8eb 0b3e
00000320: d5ad 75be 5f06 e73d 09ee 733f 3756 193c
00000330: ac1f 523d 2d38 9f3d ce07 2d3d 5f3e 13bf
00000340: 2d15 1bbe af8b c6be 5b8b 15be 41b6 91bd
00000350: e157 c9be 3110 64be 21c8 973d ac29 75bd
00000360: 2e35 b83c d9c2 6bbd 1f50 31be 287e 1f3c
00000370: 05fb ed3e dd63 0fbf 3ee2 9f3e d240 a7be
00000380: da6f 8fbd ea6d e8be 513b e6be d7e7 f7be
00000390: 0df0 a5bd 74b3 393d 82e9 983d db8c b43e
000003a0: b754 d83d a61f f43d defc 8c3d 0eb1 d83e
000003b0: 28fa 03bf afc3 9b3d 6525 d5bd d106 cc3d
000003c0: d0a2 0ebe 49be 2f3e d38f 8a3d 389e 65be
000003d0: 82c6 8cbe 2669 563e faca 0e3e 5365 323e
000003e0: 9cb6 473d 4dca 683d 7cfe ed3d 25f2 f93d
000003f0: 857d b43d 8eef ab3e 7f3a 853e 5862 2dbe
