model_checkpoints/cookie/model.pt (torch, 289252 bytes, 32 tensors)

encoder.0.weight f4 [1, 1, 5, 5]
00000000: fc25 2bbc b6a6 92bc 46fd 6b3c 5a82 e13c
00000010: 94f8 feba 2aa9 d8bc cb73 59bd b949 213e
00000020: ef89 523e 12ff 23bd 51d9 1e3b 81d4 8e3d
00000030: 6530 dc3e d45f de3e 86c6 423e e843 833c
00000040: 8f35 9f3d 4caf 833e 45b3 c33e 18af 933e
00000050: 0bd7 9abb e2f1 aabc 5772 153d 73fd 433d
00000060: da13 0fbc
-0.010446068 -0.01790176 0.014403647 0.027527977 -0.0019452744 -0.026447851 -0.053088944 0.15750779
0.2056043 -0.040038176 0.0024238417 0.06974126 0.43005672 0.43432486 0.19021043 0.016023591
0.07773887 0.25719678 0.3822271 0.28844523 -0.004725342 -0.020867292 0.036485996 0.04784913
-0.00873276

encoder.1.weight f4 [32, 1, 1, 1]
00000000: a298 0c3f 888a 02bf eab7 75be bbaf f8be
00000010: b34d 2bbf 8ee5 07be 10f7 12bd 5742 cf3e
00000020: fc4e d2be 0ffd 58bf 1d0f cd3c 9a73 dbbd
00000030: b690 dabe 7933 683f da1a 353f eac5 f2be
00000040: 9018 4a3f 11c0 973e fcc5 0e3f bd30 04bf
00000050: f34a 283f a784 5b3f 4eee ca3e 1100 ee3e
00000060: 4960 22be 193e 473f dd0a ac3d 0c90 043f
00000070: 93b7 433f 0716 f5be 12a2 4f3f 62e2 e8be
0.549204 -0.5099263 -0.23995939 -0.48571572 -0.66915435 -0.13271162 -0.03588015 0.404803
-0.41075885 -0.84761137 0.02503162 -0.107154086 -0.4268853 0.9070354 0.707441 -0.4741662
0.7894373 0.29638723 0.5577085 -0.5163687 0.65739363 0.85749286 0.39634937 0.46484426
-0.15857042 0.7782913 0.084005095 0.517823 0.7645199 -0.47868368 0.81106675 -0.45485216

encoder.1.bias f4 [32]
00000000: 6875 0bbf 3d02 983e 543d 0a3f ba60 d33e
00000010: 96e5 fd3e 54f4 1c3e 3d25 fa3e c6ec a7be
00000020: 7f50 133f 8982 8a3f 8002 11be 6611 523e
00000030: acf1 2e3f ee96 59bf 9a64 5cbf 74a7 ae3e
00000040: 59a7 1fbf 66b4 6abe 5db2 f8be 657d 3f3e
00000050: 4d17 46bf 4898 7dbf f06b c9be 7767 bdbe
00000060: 9617 3ebf d401 37bf 51bf 1d3e 0013 13bf
00000070: 820a 5dbf 7aeb fc3e 9205 2cbf ed6b a03d
-0.5447602 0.29689208 0.5399983 0.41284734 0.49589223 0.15327579 0.48856536 -0.3279783
0.575447 1.0821086 -0.1416111 0.2051445 0.6833751 -0.84995925 -0.86091006 0.34112132
-0.6236473 -0.22920379 -0.4857358 0.18700178 -0.77379304 -0.9906049 -0.39340162 -0.36993
-0.7425474 -0.71487164 0.15405013 -0.57450867 -0.8634416 0.49398404 -0.67196 0.07833085

encoder.3.weight f4 [32, 1, 5, 5]
00000000: cc72 513e 07b4 86bc 8062 f4bd 7611 d33d
00000010: e327 203e 2be8 443e 9af0 b73d 2403 83be
00000020: 9c89 16bd a749 8d3d a94b fabd 5d8a 7dbe
00000030: 5def 2abf e80a 51be 8ed8 1fbe 2fd5 6fbd
00000040: 4732 f2be 8695 63bf 194f f6be 930c 18be
00000050: 9023 a83d cc2b c7bd 1c2c 85be c068 8fbd
00000060: 45b1 223d 20cc 99be f38a 8cbe a9bf aa3d
00000070: a756 593e 4bd0 8f3d 4667 bcbe d0cc a8bd
00000080: 7df6 dd3e 660d a43e 860a 223e 5b38 bebd
00000090: 8bc7 5c3e f872 b93d 29d9 bf3d 9fab a0bd
000000a0: dfc0 fd3d b989 c83e 860b a63d 2ecd d5be
000000b0: 4223 e9be aa95 103d d12c 5f3d c8ed 8abe
000000c0: dc0f 15bf 0ae9 e2be c065 f4bd 0ecc 11be
000000d0: 0a3d cdbd ed70 67ba 3080 a73d a806 3bbe
000000e0: f5a7 32be fab5 1a3e 1b92 39bd 1415 c5bc
000000f0: fd28 7a3c 9373 563e 2e2c 983f a447 d73e
00000100: 3b7c dabc 6cd8 61be 6886 e5bd f0d0 ae3e
00000110: 0e51 e2bc bceb bcbe 6a25 cd3d ca49 95be
00000120: a5d4 80be 4d28 7cbe 60db 74be 556d 83be
00000130: 9356 70be dba1 383b 4f8a d5be 442e 96be
00000140: 78c1 91be 6299 ccbd 6d5e b63e 849d 33be
00000150: deb1 debe 4fa1 a03d 6f72 ce3e 37c8 713f
00000160: 8ad7 833e 499f 1cbe a2b2 06be f152 933e
00000170: 35e1 8c3f be96 b43e 4df5 21be 675e 91be
00000180: c7f2 8ebe a1ab 763e 391e ecbd 1299 7cbe
00000190: 48f7 52bb f7b3 40be 42e9 5fbe e629 0ebd
000001a0: 772d 203d a9c5 00be 152f e0be 3b85 1cbf
000001b0: 94b2 d5be 5908 11be 8836 7dbe 3e23 1ebf
000001c0: 7fb9 92bf 81d5 60bf b8f2 ebbe 364d 95be
000001d0: fd8f 51bf 1855 aabf 0928 81bf d500 03bf
000001e0: 113b b7bd b1aa f3be 8605 1cbf 220a e5be
000001f0: ad70 58be 6ea4 febd fde1 f2bd 7425 d83d
00000200: 63a3 273e 26cc 62bc 3437 f83d d59f 823e
00000210: 5b0e 1e3e 65c7 a73e 10cf 273d 40bf 3bbe
00000220: 990a 81be d6ce 1fbd 4bfb b7bd 3973 5dbe
00000230: 1040 fabc 9782 4bbe 41ce e8bd 7989 363d
00000240: 993b 6abe bb4a 3abc 98ae 333e 6f4e 7c3e
00000250: 7861 5f3e 2f99 34be 9928 5e3d d735 213e
00000260: 8c0c ba3d 64d3 e7bc 0fd3 033f 67ba b53e
00000270: f5d3 6e3e 7418 e53d 0abd 0fbd 865d 063f
00000280: c7e7 5bbe 86e8 1cbb c038 a1be f6cd ddbe
00000290: 1e90 723e 33cc 9fbb 0fe6 2c3c 865d 8abe
000002a0: 61bf edbe f557 093e 314d de3d 7dc6 4c3e
000002b0: 7a45 a9bd 8652 5ebe 3b54 e93d 7fdf 503c
000002c0: 20ee 363e 2ae5 b13c a3a3 6bbe 73dc 8a3e
000002d0: cef0 efbd 0f41 6d3c 6865 5d3e 3c86 8fbe
000002e0: e29f a13d 279f 80be e99d c5be 76ac 5b3d
000002f0: 6775 35be 500b 3c3d 93b9 c93e d7e1 8b3e
00000300: a409 ac3e e275 55be 7ffc d33e 9122 963c
00000310: 2255 d23d 1746 01bd bf2d 58bf ee76 4b3d
00000320: 5662 36be ffe4 dbbd 3afd 8abd bf5e d0bd
00000330: 5720 46be 2e03 68be a076 36be 769f 21be
00000340: 7a53 8dbe 7670 42be 39f9 f4bd cc58 58bc
00000350: e5b0 9fbe 494d b2be 5d96 6dbe 22b9 0f3e
00000360: da6b ad3e 57cb fb3e 690e e23d 7e8c 97bd
00000370: 3e05 9e3d 2f2c 1b3e 9d18 153e 63ea 29bd
00000380: 6a27 28be 6a15 82bc fb50 c2bc ebf9 9a3c
00000390: 5f57 21bd e0b4 b0bd f45f 3bbd c4f9 223d
000003a0: f029 9e3e bc5c c73d 435f debd ca25 733d
000003b0: a6ec 953e d253 603f fc1a fb3e 32f7 de3d
000003c0: 26e6 753c 78b2 933e 0b8b 7a3f 9486 eb3e
000003d0: 1459 843d 7f6d 2ebd 79ed 953b e9e8 163e
000003e0: 6a99 193c cc3f 71bd 4c96 6abe a509 57be
000003f0: 9091 8ebe c9f6 63be 745d ab3d e6b8 22be
0.20453948 -0.016443266 -0.1193285 0.10306065 0.15640216 0.1922919 0.08981438 -0.25588334
-0.03675233 0.06898814 -0.12221462 -0.24759813 -0.6677149 -0.20414317 -0.15609953 -0.058552917
-0.47303984 -0.8890003 -0.48107222 -0.14848547 0.08209908 -0.097251505 -0.26010215 -0.07002401
0.03971984 -0.30038548 -0.2744976 0.083373375 0.21224461 0.070221506 -0.3679754 -0.0824219
0.43352118 0.32041472 0.15824327 -0.09288093 0.21560495 0.09055132 0.09367592 -0.07845234
0.12390303 0.39167574 0.08107667 -0.41758102 -0.45534712 0.03529898 0.0544861 -0.27134538
-0.58227324 -0.4431842 -0.1193347 -0.14237997 -0.10021408 -0.0008828778 0.08178747 -0.18264258
-0.17446883 0.15108481 -0.045305353 -0.024057902 0.015268561 0.20942526 1.1888483 0.42046845
-0.026670566 -0.22055215 -0.112072766 0.34143782 -0.02762654 -0.368986 0.10016902 -0.2915786
-0.25162235 -0.24624749 -0.2391181 -0.2566935 -0.23470525 0.0028172645 -0.41707084 -0.29332173
-0.28467917 -0.09990193 0.35618916 -0.17540556 -0.43495077 0.07843267 0.4032168 0.9444613
0.2575038 -0.15295137 -0.1315408 0.28774217 1.1006228 0.35271257 -0.15816231 -0.28392336
-0.279196 0.24088909 -0.11529202 -0.24667767 -0.0032190848 -0.18818651 -0.21866325 -0.034707926
0.03910586 -0.12575401 -0.4378592 -0.61140794 -0.41737807 -0.1416334 -0.24727833 -0.61772525
-1.1462859 -0.8782578 -0.46083617 -0.2916047 -0.81860334 -1.3307219 -1.0090343 -0.51173145
-0.08946813 -0.47591165 -0.6094593 -0.44734293 -0.21136732 -0.12433706 -0.1185951 0.105540186
0.16370921 -0.013842618 0.12119904 0.25512567 0.15435164 0.32769313 0.040968955 -0.18334675
-0.25203398 -0.039015613 -0.08983477 -0.21625985 -0.030548126 -0.19874035 -0.11367465 0.044564698
-0.22874297 -0.011370356 0.17547071 0.24639295 0.21814525 -0.1763656 0.054237936 0.15743195
0.090844244 -0.028299041 0.51493925 0.35493776 0.23323043 0.11186305 -0.03509239 0.52486455
-0.21475135 -0.0023942306 -0.3148861 -0.43321198 0.23687789 -0.0048766374 0.010552897 -0.27024478
-0.46435073 0.13412459 0.10854567 0.19997592 -0.08265205 -0.21711168 0.11393019 0.012748598
0.17864275 0.02171572 -0.23011641 0.27121314 -0.11715852 0.014480843 0.21620715 -0.280321
0.07891823 -0.25121424 -0.38597038 0.05363127 -0.17720567 0.045909226 0.39399394 0.2732074
0.33601105 -0.2084575 0.41403577 0.01832703 0.10270144 -0.031560984 -0.84444803 0.049673967
-0.1781095 -0.10737037 -0.067865804 -0.101743214 -0.19348274 -0.22657463 -0.1781869 -0.15783486
-0.2760275 -0.18988213 -0.11961598 -0.013204765 -0.31189647 -0.3482459 -0.2320189 0.14035466
0.33871347 0.49178573 0.11037905 -0.07399844 0.077158436 0.15153573 0.1456017 -0.041483294
-0.16421285 -0.015879352 -0.023720255 0.018917998 -0.039389964 -0.08628249 -0.045745805 0.039788976
0.3089137 0.097344846 -0.108580135 0.05936221 0.2928211 0.876279 0.49044025 0.108869925
0.015008485 0.28847098 0.9786841 0.46001112 0.06462303 -0.042584892 0.004575428 0.14737286
0.009374956 -0.058898732 -0.22908896 -0.20999773 -0.2784543 -0.2226211 0.08367434 -0.15890846

encoder.3.bias f4 [32]
00000000: 7e6f 4a3e b78d d83d a173 9c3d ba8a eabd
00000010: 7f9f ab3d fa78 01bb cb5e 66be 1c8c 373b
00000020: 6c0a 603d ac93 c1be d524 e6bd 3ccb 3e3d
00000030: 0fa2 0fbf f7af 33be 426f 23bc d103 a4be
00000040: cc4a 1ebd 2474 9fbc 24cf cabd 19cd 153e
00000050: fc68 f4bd 7f3b 12bd 55cc 2bbe 4296 9ebc
00000060: 0c48 1dbe 2fb9 06bd b04a b5bc fd35 b33c
00000070: 0fc3 37be 4591 ac3e e5ff f2bc 1062 ef3c
0.19769093 0.10573905 0.07639242 -0.11452241 0.08380031 -0.0019755946 -0.22497098 0.0028007096
0.05469744 -0.37807977 -0.11237494 0.04658054 -0.56106657 -0.17547594 -0.009975256 -0.32034162
-0.03864555 -0.01946456 -0.0990279 0.1462902 -0.11934087 -0.03570127 -0.16777165 -0.019358758
-0.15359515 -0.03289145 -0.02213034 0.02187633 -0.17945503 0.33704582 -0.029663036 0.029221565

encoder.4.weight f4 [64, 32, 1, 1]
00000000: 2f48 b93e 7f19 b03d 6511 923d be34 5fbe
00000010: 8be1 b63e 1863 003d ab0c f13c 5ec0 ed3d
00000020: 0803 31be 9ad3 843e 76f5 97be e4a1 a43e
00000030: 3b11 0d3e 2b74 31bf f396 013e 8f17 463d
00000040: 0d02 0e3d a1c0 163e b046 a3be dbdf 7f3d
00000050: f4b2 573e ea26 093f 946c 0bbe 6860 f0bd
00000060: ae5b eebe d15a 863b 1ea4 8fbe b506 03be
00000070: 7f8c 243f 2874 e7be 45d9 41be 0781 84bd
00000080: af86 0940 e2ad 183d 5d3d 533d 62fb d3be
00000090: a120 bd3e f51c aebd 74be 58bd 4a67 103e
000000a0: 663e 11be b5c3 003d 2e56 8bbe f792 573e
000000b0: 3e0a 1ebe a33c 18bf 0da3 a3be 63ad 25be
000000c0: 21fc ff3d e6d1 47bd 7e64 7bbe 1374 913e
000000d0: bff7 74be b3a2 643e 1ec8 e0be 8041 d13d
000000e0: 1c24 0dbe 9cc8 90be 8589 a0bd fc9e 2dbe
000000f0: 8647 0bbd fb90 4d3e 3c8f 563c fd96 dbbe
00000100: f2b7 d8be 505e c5be f718 3fbe f501 223f
00000110: ce33 583f 0b63 bb3e a203 d73e d059 f03e
00000120: fdb9 c2bb 6a10 24bb fa53 13bd 3ea1 6a3e
00000130: 2e90 ad3e 5f26 ffbc 3d18 3dbd 5919 1a3e
00000140: 64d1 fd3e daea 053f 819c 34bf b627 c0be
00000150: c884 693d cda6 e43d 786c 093e 15d7 1b3f
00000160: bdd9 36be a298 64be 11d2 2bbf e062 72be
00000170: 7dcd 703d de46 8ebd 0c5f 94be a421 bebf
00000180: d4cf 933d 2aa8 543e ff5f 1cbd 363b 093d
00000190: 0ad2 1d3e 2ff6 103e 0776 b5be 4e7a 283c
000001a0: 7ec8 34bd 5599 4dbd b93b 08be 8124 7a3b
000001b0: dd03 0bbf 1563 c43c fa4b 6f3e a0df a7bc
000001c0: 65d3 91be 58e9 bebe cf4d afbd ee65 243e
000001d0: 8b6e f23d c3e9 ad3e 5edf 3bbf 6ff3 523d
000001e0: ca5a a9bd df6f fa3c e0d7 cf3c e8d3 09be
000001f0: aebf 1f3f 5b7f af3c dfec 323d c58f 0fbf
00000200: 3c4e 98bd 609c e8bd daae 443f 18e1 debd
00000210: 21fb 123e 996b ffbd edb9 e3bd 8702 183f
00000220: b0c2 f3be c12f 3cbe b650 c43e 3147 a8be
00000230: 763a 3b3d 41a4 033e 08da 17be 94a2 833c
00000240: 4e23 8cbe 4559 823e e269 21bf cbc3 1e3e
00000250: bd13 e2bd c219 5b3e 8073 dd3e c80c 65bc
00000260: a47f d53e d533 76be 46c7 08be 4473 42bf
00000270: 5764 3b3e 4252 7c3d ef2e d6be 9734 5fbd
00000280: d35c 533e a64c d9bc bc52 fabd 9b69 953d
00000290: 7f72 923d 1c06 233e 0fff 893d 177b 293e
000002a0: affd 953d 6eb0 8ebe dfe3 46bd 3179 523d
000002b0: e3d8 043d a4af 43bd 0487 ec3d 1576 5bbd
000002c0: 9abb 99bd bef7 b7bd 9279 96bc edc0 c9bc
000002d0: ec8e 87bd 05b0 47be ffcc 5abc 12b0 953d
000002e0: ed8b e53d de62 3dbd e6e2 3f3d b352 b93d
000002f0: 7b56 66be 1169 4ebd 2505 f6bd 76bc e33d
00000300: 4a69 e8bb d8c4 3fbf dd6c 063f 1db4 53bf
00000310: b1cc b53f 78a8 b33d 8255 d13d 9a02 eebd
00000320: 3fa7 643e af51 a53e beaf 09be 5397 83bd
00000330: c9cc df3b 9aab 68be 2833 ecbe d052 3ebe
00000340: ad50 4dbe 3bcb d9bd c1f8 72be 7957 f93e
00000350: 049f 62be fdb8 983e b231 37bf f2aa 443d
00000360: 90b4 adbd a2e8 a03e 8ae9 3dbe 6782 cebd
00000370: b031 8c3c 93e5 44bf 6a36 7e3e 0232 0cbf
00000380: 9e66 68be 5692 8bbe cc03 d13e e809 e43d
00000390: 2acd b1bd 602a 1ebe de6e 40bf 5265 0f3e
000003a0: df69 aa3d cb56 2bbe 0f76 ad3e 98ea c2be
000003b0: d0ce 813e ac1b 3f3e 093e 42be 3bad 803e
000003c0: 8773 c13d 61e4 293d c3e6 7bbe 035e a5be
000003d0: a110 37bd 1a29 083e 893e d33d b872 8e3e
000003e0: dade 6e3e 87bf fabc 9368 e7bc ed39 aabe
000003f0: c892 8c3e d378 a03c ac88 963c 9384 af3d
0.36187884 0.08598613 0.07132224 -0.21797463 0.3571895 0.031344503 0.029424986 0.11608957
-0.17286313 0.2594269 -0.2967946 0.32154763 0.13776104 -0.69317883 0.12655239 0.04836231
0.034669925 0.1472192 -0.31889868 0.062469345 0.21064359 0.53575003 -0.13615638 -0.11737138
-0.4655432 0.0041001816 -0.280549 -0.12795527 0.6427688 -0.45205808 -0.18930538 -0.064699225
2.1488454 0.037275203 0.051572192 -0.41402727 0.36938956 -0.08501617 -0.052916005 0.14101902
-0.1418396 0.03143664 -0.27214187 0.21052156 -0.15433595 -0.59467524 -0.31960335 -0.16179423
0.12499262 -0.04878416 -0.24550053 0.2840887 -0.23922633 0.2232769 -0.43902677 0.10217571
-0.13783306 -0.28278053 -0.0783873 -0.16955179 -0.034003757 0.20074837 0.013095673 -0.42888632
-0.4232784 -0.38548517 -0.18661867 0.63284236 0.8445405 0.36599 0.4199496 0.46943521
-0.0059425817 -0.0025034198 -0.03596876 0.22913072 0.33899063 -0.031146226 -0.046165694 0.15048732
0.49573815 0.5231148 -0.70551306 -0.37530297 0.057011396 0.11164627 0.13420284 0.60875064
-0.17856498 -0.2232385 -0.6711741 -0.2367053 0.05878972 -0.069471106 -0.28978765 -1.4854016
0.072173744 0.20767274 -0.038177487 0.033503734 0.15412155 0.14156412 -0.3544161 0.010283066
-0.044136517 -0.050195057 -0.13304032 0.003816873 -0.5430277 0.023973027 0.23368827 -0.020492375
-0.28481594 -0.37287402 -0.08559763 0.16054508 0.11837491 0.3396741 -0.73387706 0.051501688
-0.0826927 0.030570922 0.025371492 -0.13459742 0.62401855 0.021423033 0.04368293 -0.5607875
-0.07436797 -0.11357951 0.768293 -0.10882777 0.1435361 -0.124716945 -0.11119447 0.59378856
-0.47609472 -0.18377592 0.38342828 -0.32866815 0.04571005 0.12855627 -0.14829266 0.016068734
-0.27370685 0.25458732 -0.6305219 0.15504377 -0.11038921 0.21396545 0.43252182 -0.013980098
0.41698945 -0.2404321 -0.13357267 -0.7595713 0.18299995 0.061601885 -0.41832682 -0.054493513
0.20640878 -0.026525807 -0.122228116 0.07295533 0.07150745 0.159203 0.06738102 0.16550861
0.07323777 -0.2786898 -0.04855716 0.05138511 0.0324334 -0.047774926 0.1154919 -0.05357941
-0.07506485 -0.089828 -0.018368516 -0.024628127 -0.06619057 -0.1950074 -0.013354539 0.07308973
0.11208329 -0.046236865 0.046847247 0.09048977 -0.22493927 -0.050393168 -0.120127 0.111199304
-0.0070926296 -0.74909735 0.5250986 -0.82696706 1.4203092 0.08772367 0.102213874 -0.1162159
0.22329424 0.32288882 -0.13445947 -0.06425347 0.006829832 -0.22721711 -0.4613278 -0.18586278
-0.20050307 -0.10634466 -0.23727705 0.4869955 -0.22130972 0.29828635 -0.71560204 0.04801459
-0.08481705 0.31427485 -0.1854612 -0.10083466 0.017113537 -0.769128 0.24825445 -0.54763806
-0.22695395 -0.27260083 0.4082321 0.11134702 -0.0868171 -0.15445852 -0.7516917 0.14003494
0.083209746 -0.16732328 0.33879134 -0.38069606 0.25353098 0.186629 -0.18968977 0.25132164
0.09445863 0.041477565 -0.24599747 -0.32298288 -0.044693593 0.13296929 0.10314662 0.27821898
0.23327199 -0.030608905 -0.028248107 -0.3324732 0.27455735 0.019588863 0.018375717 0.085702084

encoder.4.bias f4 [64]
00000000: 239a 843e e235 ed3c cefd a33b fd37 683b
00000010: 0c99 b7be 580f 99be 391a 743d c0a9 0bbf
00000020: cf3b 7cbb c893 aa3e 5fc9 0cbe af05 05bf
00000030: e9f3 fdbc 7ca7 8ebe 4a99 cbbc 515a 2dbe
00000040: c6a3 dd3e b65d 3a3e 0cf5 863d 0a7d cebd
00000050: 4953 bbbe 1620 72bc 1a08 b93c 285b 6f3d
00000060: 8299 f0be 7e91 a93d 638b 8f3b d1a4 1abf
00000070: b387 5d3d a955 ec3d 7f65 3d3e de12 80bc
00000080: dfb4 52be 8ba6 0dbf 6f69 6a3e 9e3b ebba
00000090: 9f6a adbd adf9 a1bc 062f 463e 36c6 013e
000000a0: 7db2 b83e c8fb 913e 2d89 01be b26e e93e
000000b0: cfbb 7d3e cc44 e9be 0bcb a9be ec99 15bf
000000c0: 2e03 e4be 572e 093d 16b1 82be 4def 03bc
000000d0: de85 a7be 6e02 cabe 2791 c3bd 187c 8bbe
000000e0: 13b5 9d3e 8f70 18be 5b2b 85bd 2c34 65be
000000f0: bd77 b03e 07a4 7abe 69ad 653e 2b5a 92be
0.25898847 0.028956357 0.005004621 0.0035433762 -0.35858953 -0.2989452 0.05959532 -0.5455589
-0.0038487797 0.33315873 -0.13748692 -0.519618 -0.031000094 -0.27862155 -0.024853367 -0.16928984
0.43289012 0.1819981 0.06589708 -0.10082443 -0.3658698 -0.014778158 0.022586871 0.058436543
-0.46992117 0.082797036 0.00438063 -0.6040774 0.05408449 0.11539776 0.18495749 -0.015633997
-0.2057681 -0.5533225 0.22891782 -0.0017946844 -0.08467602 -0.019772375 0.19353876 0.12673268
0.36073676 0.28512406 -0.12649985 0.45592266 0.24778675 -0.455603 -0.33162722 -0.5843799
-0.44533676 0.03349146 -0.2552573 -0.008052659 -0.3271932 -0.3945498 -0.0954917 -0.27243114
0.3080221 -0.14886688 -0.0650241 -0.22383183 0.34466353 -0.24476634 0.22429432 -0.28584418

encoder.6.weight f4 [64, 1, 5, 5]
00000000: fb1a 29bf b71e babe 209e 19be 11bf 993e
00000010: 88f0 a33e dacf cfbe 7efa 6ebe bbf2 893d
00000020: 0e68 863e b6fb 363e 8a45 f8bd ab41 c93d
00000030: 6078 e83e e96d 7a3e d4ef 8abe 55a1 913e
00000040: 5364 903e 6ddc 813e 07da 05be 2738 d5be
00000050: 256f b23e 717b 753e b810 31be 8ca6 d7be
00000060: 2fc7 6dbe c6ee 373d afb2 12be 4ae7 97be
00000070: db83 48be 3896 363e d95c 4ebe 3ffb cdbe
00000080: 1f8b 1cbf 9b13 11bf f52e 51be fae3 93be
00000090: b536 16bf b3c5 46bf 1b33 50bf bb76 1ebf
000000a0: 687d 1fbd 3674 c1be c59f 55bf bdfc 47bf
000000b0: 50a7 cdbe 268e 673e eb99 42be c956 f5be
000000c0: c151 d7be c004 813c f2e7 a73d 9359 b2be
000000d0: ca92 34bf 058a 0cbe 0348 ea3d 9929 6cbb
000000e0: 2c8b 40be 9bb2 80be 899e 6d3d 4add 3e3e
000000f0: 1a41 abbe 0e40 a13e 7389 0f3f 8add 753e
00000100: d381 10bd e078 57bc b3d2 1b3f aac2 003f
00000110: 5870 8dbe 72b9 0bbf 2179 a33d 493c a73e
00000120: 411e 9f3d 3318 fdbe 7c3d 13bf d973 48bf
00000130: 88e2 3bbe 6912 a53e 8937 d33e cc50 79be
00000140: 9aaa 09be 6f63 cb3d 56e9 043e f02a a73e
00000150: dd63 01bd 4174 e03e e0bc 513e df43 1cbe
00000160: 5b65 5dbe e9a5 813d edc5 e13e 81cb f53d
00000170: b9d7 27be ca03 8cbe 1a1c 1d3d 13ff d9be
00000180: b37b cbbd 4ea2 243e 1c98 b23d 4dba e9be
00000190: 9a0c 653e 3a71 22be 1986 5dbe 8467 733d
000001a0: f409 973d 8194 f43d 0301 10be 46bf d9bc
000001b0: b8bb 4b3e 6f36 153e 4ff5 5abe c37e 453c
000001c0: 73d0 633e 40ff 063e 9059 6e3d 7db2 28bf
000001d0: 37ac 32be 643f a33e e425 493e 97db cbbd
000001e0: f30a 28bf 4595 45be 9cb8 5a3d f183 883d
000001f0: 82d8 c0bd 60bb 0a3e 98b1 d5bd eda9 04be
00000200: 8e93 0abe 7401 c63d 98c7 133e 80bd 55bd
00000210: 3b1a 933d 40a5 3b3e 0577 f4bd a341 c8bd
00000220: b7e3 2dbe fa76 1fbe 3b6a bf3d 2304 39be
00000230: 0eb6 bbbd 7b35 7c3c 807f 0d3e 2df1 313e
00000240: 3ceb 11be b639 cabd 7a1c 7e3d 9616 9abd
00000250: 32b8 8a3b 0780 34be 4ff8 ed3e d600 3f3f
00000260: 8188 293f 57b5 083e 79df cb3d 1df2 2e3f
00000270: 4a87 e03e 5c38 1cbe cc7e 04bf 673f a2be
00000280: cd67 3d3f c89f fbbd 2698 93bf 608d 6dbf
00000290: 7475 4cbe 908a 3a3e d9d7 0dbf 25f5 66bf
000002a0: 8af3 ecbe 629b 5a3e 7eb0 203d f090 96be
000002b0: aa20 41be 3fa4 8a3e 6e8c b23e e9ad 4ebc
000002c0: 837c 533e b447 533d 29d1 00bd 9583 c93d
000002d0: d50c 223e 86f9 8b3e 65bd 763e 8008 013e
000002e0: 7caa b8bd 4564 a43e 8249 e73e ef21 203f
000002f0: 6858 993e 6b3b 023d 288e e43e 6236 c43e
00000300: 9695 b03e 7d0a b73e 262d 933e f07b 4a3e
00000310: ef4f c63d 7290 50bc 4cbd e73d b4ab 383e
00000320: 2048 c03d 9be4 1abe 0201 a8be 2f06 04bf
00000330: 424f 7ebe 67cb f5bd d6a2 c1bd ffbf b83d
00000340: 40d4 8b3d 6076 813c 25e8 eebe dbcb 5ebd
00000350: 243b b93e 078f c53e 1f7b 2e3e 80cf c3be
00000360: 0431 70bd 66eb 803e f6da a23e cc84 613e
00000370: 4808 39be 470c 51bc aa49 003e 72bc 003e
00000380: ba2b 9f3d 31e3 8c3d 5eb1 2ebd 4863 273e
00000390: 1f90 a83e e660 213e b04e 95bd 4215 02be
000003a0: e4a0 4cbe d779 afbd dddb 043e 858c 7f3d
000003b0: abe3 8fbe f45b 40bf 90a6 1fbf d8aa 363e
000003c0: 034b 853e 1abe 87be 69d9 4fbf 9bc0 d3be
000003d0: ba35 7e3e d0c7 8b3e 469c c03d 7850 2dbd
000003e0: cd18 1f3e 008d c33e 954d 913d 523e 3c3c
000003f0: 1e0d 62be ae70 323e ad6f 193f e95f adbd
-0.66056794 -0.3635156 -0.15001726 0.30028585 0.32019448 -0.40588266 -0.23337743 0.0673575
0.26251262 0.17869458 -0.121226385 0.09826978 0.4540434 0.2445599 -0.271361 0.284434
0.2820154 0.25363484 -0.13071452 -0.41644403 0.34850422 0.2397287 -0.17291534 -0.42119253
-0.23220514 0.044905446 -0.14325975 -0.29668647 -0.19581549 0.17830741 -0.20152606 -0.40230748
-0.6114978 -0.5667054 -0.20428069 -0.2888487 -0.58677226 -0.77645415 -0.8132798 -0.6189992
-0.038937956 -0.37783974 -0.83446914 -0.78120023 -0.40166712 0.22612819 -0.19004028 -0.47917774
-0.4205456 0.015749335 0.08198537 -0.34833965 -0.7053648 -0.13724525 0.114395164 -0.0036035536
-0.1880309 -0.25136265 0.05801252 0.18639103 -0.33448106 0.31494182 0.56069106 0.24010292
-0.03528006 -0.013151377 0.60868376 0.50297034 -0.27624774 -0.5457984 0.07982088 0.3266318
0.07769442 -0.49432525 -0.5751569 -0.7830177 -0.18348134 0.32240608 0.41253307 -0.24347228
-0.13443986 0.09931075 0.12979636 0.32649946 -0.031589378 0.43838695 0.20482206 -0.15260266
-0.21620695 0.06330473 0.44096318 0.12001706 -0.16390885 -0.2734664 0.038356878 -0.4257742
-0.09935703 0.1607754 0.08720419 -0.4564995 0.22368088 -0.15863505 -0.21633185 0.059424892
0.07374945 0.11942387 -0.14062886 -0.026580464 0.19895828 0.14571546 -0.2138264 0.012054148
0.22247486 0.13183308 0.058190882 -0.6589735 -0.17448507 0.318843 0.1964336 -0.09953993
-0.6564171 -0.19295223 0.053398713 0.06665791 -0.094162956 0.1354804 -0.10434264 -0.12955447
-0.1353285 0.09668246 0.14431608 -0.052182674 0.071827374 0.18324757 -0.11936764 -0.09778144
-0.16981398 -0.1557273 0.09346434 -0.18067984 -0.091655836 0.01539361 0.13818169 0.17377158
-0.14249891 -0.09874289 0.062038876 -0.07523839 0.0042333836 -0.17626964 0.46478507 0.7461065
0.66223913 0.13350426 0.099547334 0.68338186 0.43853217 -0.15255874 -0.51755977 -0.31688997
0.7398651 -0.12286335 -1.1530807 -0.92793846 -0.1996668 0.1821692 -0.5540748 -0.9021781
-0.46279556 0.21348336 0.039230816 -0.29407454 -0.18860117 0.27078435 0.34872764 -0.012614706
0.20652966 0.051582053 -0.03144947 0.098395504 0.15825208 0.2733881 0.24095686 0.12600899
-0.09016892 0.3210775 0.4517327 0.6255178 0.2995026 0.031794947 0.44639707 0.3832274
0.34489125 0.3575019 0.28745383 0.19773841 0.09683215 -0.012729751 0.113154024 0.1803425
0.09388757 -0.15126269 -0.3281327 -0.51571935 -0.24834922 -0.120016865 -0.094548866 0.09020995
0.06827593 0.015803516 -0.46661487 -0.05439363 0.36177933 0.38585684 0.17039154 -0.38244247
-0.058640495 0.25179595 0.3180768 0.22023314 -0.18069565 -0.012759275 0.125281 0.12571886
0.07772012 0.06879271 -0.04264962 0.16346467 0.32922456 0.1575962 -0.07290399 -0.12703422
-0.1998325 -0.08568161 0.12974496 0.06238987 -0.28103384 -0.7514031 -0.6236353 0.17838609
0.26033792 -0.26512223 -0.81191117 -0.41357884 0.24825183 0.27300882 0.09404807 -0.04231307
0.15536804 0.38193512 0.07094876 0.011489468 -0.22075316 0.17425796 0.5993603 -0.08465559

encoder.6.bias f4 [64]
00000000: a51a d63d 7339 523d bb6a 0aba 0b7b bebc
00000010: 4cd3 18bd 327d a93c 5744 8d3d 4998 f53a
00000020: d497 46bc bc0d 933d 5dc9 703c 37ab 9fbb
00000030: dd25 9d3d adf1 d8bb 1d0b c13d 22ae 10bd
00000040: 55dc 1ebe 8dbf 22be 60d1 c53c 4a8d 8f3d
00000050: 6d23 5ebc 552b 51bd c484 303d 6ecf 0abd
00000060: dc4b 92bd c45f 1fbe 3af4 bbbd 8091 983d
00000070: 8821 1d3d 5335 86bb 7e88 a2bc 052b ef3d
00000080: 83fa c73b d09b 61bc 2718 88bb 28a7 24bb
00000090: a2f1 2abd 58df 52be 56b6 1d3e 5d08 603c
000000a0: 74af 723e 64a3 9abd 68a9 d53d acd9 e83c
000000b0: b2a0 60bd 4a63 adbb a3ad 37bd c60a a8bc
000000c0: fc4c ba3d 9b62 213e 2d20 42bd 2a75 953e
000000d0: c09b 433d ad2f 1ebd ca49 f4bd fd91 413c
000000e0: 1e2b 5dbd 7921 3b3e f72d 22bd 3451 bc3c
000000f0: cf94 44bc 9656 a5bd ad92 e63c 5428 e8bb
0.10454301 0.05132432 -0.00052801863 -0.02325203 -0.037310883 0.02068958 0.068978004 0.0018737401
-0.01212116 0.07180354 0.014696446 -0.0048727053 0.076732375 -0.006620607 0.09425948 -0.035322316
-0.15513737 -0.15893383 0.02414769 0.070093706 -0.013558251 -0.051066715 0.043095365 -0.033889227
-0.07143375 -0.15563875 -0.09177442 0.07449627 0.038362056 -0.004095712 -0.019840475 0.11678127
0.0061028614 -0.013770059 -0.00415327 -0.0025124047 -0.041734345 -0.20593011 0.15401587 0.013673869
0.23699743 -0.075506955 0.10432702 0.028424107 -0.05484075 -0.005291377 -0.044843327 -0.02051295
0.09096715 0.15760271 -0.047393966 0.29190952 0.047755957 -0.038619686 -0.11928137 0.0118145915
-0.053996198 0.18274488 -0.039594617 0.02298794 -0.011998369 -0.080731556 0.028146112 -0.0070848856

encoder.7.weight f4 [128, 64, 1, 1]
00000000: 4395 563e 9c79 49be 98ee 1fbe d61f 59bd
00000010: 4474 e0be 5ce0 d03d ea57 033f c78e abbe
00000020: 0557 cf3e a97e 593e 5062 9bbe bd4d c3bd
00000030: ba9f 933c 29e7 333e ff78 5ebd eee6 be3e
00000040: 0e0a d5be 5e61 51be 1a15 b53d e27b 193e
00000050: 11c4 bdbe 2710 c0be 15d5 bcbe 1d05 0fbe
00000060: d7a7 05bf 6b2b a23e 924b 1cbe 0139 9f3e
00000070: afe0 dbbe fdbc 963d 176e 413e 9406 2fbf
00000080: 795a 3bbd ea00 0c3f f4ba 12bf 2d78 333e
00000090: 186f 6c3e 365b 84bf b1e8 883e 6bfb 06bf
000000a0: 7f38 a83b 8d80 42bd 9dcd 453f b565 32be
000000b0: 102e 0dbd b5f4 9ebd f9df ad3e 835a 7b3d
000000c0: f0e4 b1bc dba4 18be 43bd 41be 07ae 12be
000000d0: f016 8a3e 9bff aa3e a846 60be f127 9ebd
000000e0: 9bea 513e 0829 21be cfb9 763d 4ed2 483d
000000f0: f616 80bd 1ad4 2fbe 6ced 5b3e 5701 90bd
00000100: 1755 3fbf ecf0 07bf 11b9 593e 057d 0f3f
00000110: e1da 5d3e 05cb ba3c 10a4 bb3e 4745 f8bd
00000120: e1dc babd 804f e8be b47a 8bbe 5984 cdbd
00000130: bd3f 2d3e 6b11 683d fd08 473d 6b90 0e3f
00000140: 25c8 f33e 5e91 31bf 44df a83e 7927 c5be
00000150: b022 433c 86c9 ccbe a8fc 603f caa5 07bf
00000160: 060d ef3e 9161 02bf 06d0 1fbf 94e1 aabe
00000170: 837c e73d f3c2 a5be 4c47 37be 0d5c f5be
00000180: 8cb2 5d3e b270 00bf 0406 de3e 0119 13bd
00000190: f6cd 363e 06cc d63e c942 05bf 6495 4e3e
000001a0: f2b6 753b 3c11 043f db5a cfbd 9bbe 4dbe
000001b0: ead1 ff3e dbca 30bf efdf debd ed2d 9a3e
000001c0: 73bf b1be 8994 903e ad76 f23e 4043 c23d
000001d0: 0345 83bd 3f1f 413f f878 e7be cea8 da3c
000001e0: 8c21 eebe e8e0 35be 17ab 07bf 3c3b 05bf
000001f0: d87d 36bf 4b68 53be 5bdf e43e 87de 9e3c
00000200: 7b08 b4bd 018f 523d 61ab 70bc 4df2 2bbf
00000210: 8f6a 543f ffd1 9cbe a6a9 673f 4769 ffbe
00000220: 5d07 de3e abef 00be 800b ccbd 3703 42bd
00000230: a623 853e a821 25be 915a 2e3f 6e7e 57bf
00000240: 4d5b 22bd d774 843e 4ad8 0b3f 6d3e 09bf
00000250: ee1d 7bbf 2077 02bf 262b 6c3d aa47 e6be
00000260: 7b3f 05be d6ba 9abd 5552 b2be f46a 9d3d
00000270: 7b08 20be 5150 5c3e 454b d5be 3183 233e
00000280: ef07 febd 6019 84bd 3805 453e 72fe 32be
00000290: c1af 9b3d 56e3 6e3e a717 c43d d78f 83bc
000002a0: 4bc7 45be f86b 31be 4d76 eebe 01e2 c2be
000002b0: d817 34be c52d 8f3e c7de 03be 1b02 fe3d
000002c0: 368c cbbe af33 57b8 2801 90bc 1fe7 343e
000002d0: cd1a 873c e873 93be f146 7a3c 357e 50be
000002e0: eaef f43d c5b9 a1be 9bea 383e 01f7 1b3e
000002f0: 5000 ee3b d3f1 2cbf 2e88 ecbe 428c 153e
00000300: 94eb 31bc bee8 f93d 1a42 f5be fb3f ffbd
00000310: 3842 08bc 6dd8 a4bc 35d3 f5bd 4800 503e
00000320: 4cf6 4e3d 6849 f03c 0336 803d e38b 493e
00000330: 0d29 623e b755 54be 7af1 23bd 6925 c23e
00000340: 3ce4 943e a920 0a3e eaaf d5bd 9623 16be
00000350: a61b f6be 7f55 073e 9924 6ebd c580 a33d
00000360: f910 493e 8858 a03d 0afc 873d d1a7 193e
00000370: 1b9d 673e 6de1 543e 5f5f 7abd f053 c13e
00000380: eb43 513e a5e6 1a3f 74f5 443d a1cf 0a3d
00000390: f1bb 6ebe 8b5f 17bd 0092 1abd 318e 763c
000003a0: 1cba 443e 6bb6 71bd 63b5 dabe 3c4a e53e
000003b0: 6910 fa3d 0125 49be d004 243e 83dd 893e
000003c0: 525a f8bd 769c 0ebd 29a8 5b3e e307 15be
000003d0: e32f b8be 370d 63be 3a9f 333e 5bb1 593d
000003e0: 8301 0fbe 0804 0abe 6274 9a3c d51b acbe
000003f0: df62 aebe 1a20 623d e76a 9e3d b9bb 443e
0.20955376 -0.19675297 -0.1561836 -0.053008877 -0.43838704 0.10199043 0.5130602 -0.33507368
0.40496078 0.21239723 -0.30348444 -0.09536312 0.0180205 0.1756865 -0.05431461 0.3728556
-0.41609234 -0.20447299 0.088419154 0.14988664 -0.3706365 -0.37512323 -0.3688132 -0.13966794
-0.5220923 0.3167375 -0.15263203 0.31098178 -0.42944857 0.073602654 0.18889652 -0.6836941
-0.04574058 0.54688895 -0.5731652 0.17526312 0.23089254 -1.0340335 0.2674003 -0.52727383
0.005133688 -0.047485877 0.77266866 -0.1742161 -0.034467757 -0.07761518 0.3395994 0.061365616
-0.021715611 -0.14906637 -0.18919854 -0.14324199 0.26970625 0.33398136 -0.21901953 -0.07722462
0.20499651 -0.15738308 0.060235795 0.049028687 -0.062543795 -0.17170754 0.21477288 -0.070315056
-0.7473921 -0.5310199 0.21262003 0.5605014 0.21665527 0.022801885 0.36648607 -0.121225886
-0.091241606 -0.45373154 -0.27242053 -0.10035009 0.16918845 0.056657236 0.048592556 0.55689114
0.47613636 -0.6936244 0.32982838 -0.38506678 0.011910126 -0.399975 0.8788552 -0.5298735
0.46689624 -0.50930125 -0.62426794 -0.33375227 0.113030456 -0.32375297 -0.17898291 -0.47921792
0.21650141 -0.5017196 0.43363965 -0.035912517 0.17852005 0.41952533 -0.5205503 0.20174176
0.0037493077 0.515888 -0.10124751 -0.20092241 0.4996484 -0.6905953 -0.10882556 0.30113164
-0.34716377 0.28238323 0.47356167 0.09485483 -0.06409647 0.754383 -0.4520948 0.02669182
-0.4650997 -0.17761576 -0.5299544 -0.5204351 -0.7128577 -0.20645253 0.44701657 0.019393219
-0.0879068 0.05140591 -0.014689297 -0.67166597 0.82975096 -0.30628964 0.9049324 -0.49885008
0.43364993 -0.12591426 -0.09963131 -0.047366347 0.2600376 -0.1612612 0.68106943 -0.8417729
-0.039637852 0.25870392 0.54626906 -0.5361088 -0.98092544 -0.5096302 0.057658337 -0.4497655
-0.13012497 -0.075551674 -0.3482844 0.07686415 -0.15628235 0.21515013 -0.4165899 0.15968014
-0.12403857 -0.064501524 0.19240272 -0.17479876 0.07601882 0.2332891 0.09574824 -0.0160598
-0.19314305 -0.17326343 -0.4657463 -0.38063052 -0.1758722 0.27964607 -0.12877952 0.12402745
-0.3975541 -5.130813e-05 -0.017578676 0.1766629 0.016492272 -0.28799367 0.015275703 -0.20360644
0.119598225 -0.31587043 0.18058245 0.15230943 0.007263221 -0.67556494 -0.46197647 0.14604285
-0.010859389 0.12202595 -0.47901994 -0.12463375 -0.008316569 -0.020122731 -0.12003175 0.20312607
0.050527856 0.029331878 0.06260302 0.19682269 0.22085972 -0.20735823 -0.040025212 0.37919167
0.2908038 0.13489021 -0.104339436 -0.14662012 -0.4806797 0.13216208 -0.05814037 0.07983545
0.19635381 0.07829386 0.066398695 0.15005423 0.22618525 0.20789118 -0.06112611 0.37759352
0.20436065 0.60508186 0.048085645 0.033889417 -0.23313881 -0.03695635 -0.037736893 0.0150485495
0.1921162 -0.059011858 -0.42716512 0.447832 0.12210161 -0.19643022 0.16017461 0.26926813
-0.12126602 -0.03481718 0.21450867 -0.1455379 -0.35974035 -0.2217301 0.17541209 0.053147655
-0.1396542 -0.134781 0.018854324 -0.33614984 -0.34059808 0.055206396 0.07735234 0.19212236

encoder.7.bias f4 [128]
00000000: 76bc 9e3d b7fe 813d de6c a9be 7ac0 8abd
00000010: c6e0 38be 7350 a0be 73d3 9ebd 4710 413e
00000020: e0ff 47be 73f6 a43e 290a 1d3e 2e16 ac3d
00000030: 64bc bfbe ecea 05bf 1cb3 aebe 9c65 aabe
00000040: f087 e43e 5a7b e63d 1427 0cbf 4f2b 0cbd
00000050: d1db c2be b26b 0cbf 1add 4c3c 51dc 093e
00000060: acb2 a7be 369e 393e 3ff6 173f 65a9 3e3e
00000070: c52c 283f 3643 b6be ce51 973e 4497 24be
00000080: 960d 843f afe8 0ebf 1ea9 96be c10c 00bf
00000090: eab0 93be ea8d 29bf 059d 0bbf 1887 15bf
000000a0: fba9 013e ab73 13bd da0b 9f3e 22cf d13e
000000b0: 254c 2abe 127e 93bc eca4 f6be 01c9 b5bd
000000c0: 1807 90be d215 283e 870b f53d ad99 143d
000000d0: 343f 0ebf 9da0 163d 9ae7 edbe 3741 1a3f
000000e0: 79a9 b5be 1487 0bbe d9b8 2c3f 618f 183f
000000f0: 59de ffbd 1055 e03d 6547 a33d d022 9a3e
00000100: cd76 48be 858e adbe 2279 983d dbac 00bf
00000110: 8b4a 72be 5901 3ebd 10be 7abe 800a 153e
00000120: 0d3c 153f d2e6 473e 62d7 9bbc 47fa 66be
00000130: c2eb 083f 1209 88bb 0238 eabe 335f 8abc
00000140: 7d16 e3be 97e9 513f f0e7 dabd 4b18 aebc
00000150: 949e 963e b414 77bb 8e48 7c3f 6574 85bd
00000160: 8cdd 933d 53f5 b5be bcd6 a4b9 d672 373e
00000170: 72f7 cebe 2bd8 2dbf 421d 42be 3814 d73e
00000180: 9d71 56be 7a8f 37be d84d 873f 392f c0bd
00000190: 4a0b 38be d24b 2d3f 2fc6 2d3f fe6c 1f3f
000001a0: 04d6 7fbe 4824 6ebe c592 dc3e 9484 9e3e
000001b0: 62c8 d2bd e32c 913e 72da 73be 8b46 4abe
000001c0: 2893 e93c daf7 9c3d f73a df3d b64c 37bf
000001d0: fc59 49be f8d4 ba3e f82d 8c3e 1f64 4e3f
000001e0: 6960 273e b0aa 993e 0dae 8ebe 647f 153d
000001f0: 5db3 49be f633 8b37 403f ca3c 4593 813e
0.0775079 0.06347411 -0.33090872 -0.06774993 -0.18054494 -0.31311378 -0.077551745 0.18853866
-0.19531202 0.32219276 0.15335907 0.08402668 -0.37448418 -0.5231159 -0.34121025 -0.33280647
0.44634962 0.11253996 -0.5474713 -0.03422099 -0.38058332 -0.5485183 0.012503887 0.1346295
-0.32753503 0.18126759 0.59360117 0.18619306 0.6569331 -0.35598153 0.295546 -0.16073328
1.0316646 -0.55823797 -0.294259 -0.5001946 -0.28845912 -0.6623217 -0.5453647 -0.5840926
0.12662499 -0.03599898 0.3106373 0.40978342 -0.1663061 -0.018004451 -0.481727 -0.08876229
-0.28130412 0.16414574 0.11965089 0.03627937 -0.5556519 0.036774267 -0.4646576 0.6025576
-0.3548086 -0.13625747 0.67469555 0.5959378 -0.12493581 0.109537244 0.07972602 0.30104685
-0.19576569 -0.33897796 0.07444979 -0.50263757 -0.23661248 -0.046388004 -0.24486566 0.14554787
0.58294755 0.19521645 -0.019023601 -0.2255641 0.5348474 -0.004151472 -0.45745856 -0.016891098
-0.44353095 0.81997055 -0.1068877 -0.021251818 0.2941786 -0.003770155 0.9854821 -0.06516341
0.07219991 -0.3553873 -0.00031440507 0.179149 -0.4042316 -0.6790797 -0.18956473 0.42007613
-0.20941778 -0.17925826 1.0570631 -0.09384007 -0.17973056 0.6769382 0.6788053 0.62275684
-0.24983984 -0.23256028 0.43080726 0.30960524 -0.10292126 0.28354558 -0.23813799 -0.19753473
0.028512552 0.076644614 0.108999185 -0.71601427 -0.19663233 0.36490607 0.2737882 0.8062152
0.16345371 0.30013037 -0.27867165 0.036498442 -0.19697328 1.6594287e-05 0.024688363 0.2530767

encoder.9.weight f4 [128, 1, 5, 5]
00000000: feee 5a3d 3327 033e 7aa4 cf3d 1863 7f3d
00000010: 885f 5338 12a1 a0bd 5c57 913d 7cec 4c3e
00000020: 20d5 bf3c ccfa 91be 75cb 15be 5c69 ee38
00000030: fceb 9b3e 7fc2 8c3e 546c b6be c4d9 ed3d
00000040: 4e35 443a 7321 fc3c 260d 9ebc d965 3fbe
00000050: 93b7 913d 5a59 26be 2d45 dabe dc7a d8be
00000060: e653 d2bc b4e0 09bf 9a3b bcbe 0b3a eebb
00000070: 887c 4d3f 0200 373f fab8 87be fb1d 0bbf
00000080: db2e f6bc 5ace 123f bdbb 1c3f db40 543e
00000090: 328b 19be a862 e6be 0a23 c0be d2b2 cc3c
000000a0: f7a8 373f 881b 1f3f 23be 1cbe 16f9 48bf
000000b0: ca8c ebbe c4bd ef3e f0c8 1a3f 6e11 cd3d
000000c0: 53fa 79be 54ff bdbe fedd 103e 9a2e f13e
000000d0: 802a 023f a1ba 2f3f 6d76 603e e66d 05bf
000000e0: 46cc b4bd ac4b b33e cccd 3a3f 932b b53e
000000f0: 444a 33bf e24e bfbe 20c0 75bc ca2b 0f3f
00000100: 68e3 583e 334d 29bf 9fa0 13bf fd42 dfbd
00000110: 463c 563d c4d3 bb3d 920a 3ebe 2b8e c1bd
00000120: 8adf b3be 6180 36be 8d47 0d3b 7f0f 063e
00000130: ca80 653d 20e0 6abc fdf2 d0bd 836b 72be
00000140: e1cf 963b 887d d3bc 7ea2 953e 0de9 733e
00000150: b447 1abe 3a42 993d aa47 283e 61e3 7e3e
00000160: a2e6 0b3e a757 913e d6f6 32bd 04b9 463e
00000170: c79a 203e 4c14 86be 5f6f 093e 608a 04bd
00000180: 4d24 e93d 57a7 8c3e a037 223e b9f4 073c
00000190: e153 6bbd 2045 5ebc 3b1c 3bbc 9d09 8cbc
000001a0: 850d e93d b2bd 203d 38a1 f7bd f5be 5f3c
000001b0: 8061 f8bd ac79 e43d 20de aabd c36e e03d
000001c0: c3af 21bd 56d3 563e 201d eebd 86d5 92ba
000001d0: 85bd 803d d224 273e aba7 973d 7327 583e
000001e0: 962a 9b3d 786b fabd 1c6e 103e baa1 1ebe
000001f0: 0358 c13d 0ad3 1b3f 50cb c73e ba24 2b3e
00000200: 3a84 2c3e 30ec b33e fced 0e3f 2721 8c3e
00000210: b0ac 863e 04b0 4f3f 1ed5 103f 51f2 8a3e
00000220: 930f b33e 3fd0 943e 4d0c 2d3f 7096 6e3e
00000230: b48a 673e 1a17 763f b544 473f 8ee0 1ebe
00000240: 566b 9fbe d0a8 af3e 983c 203f d2e2 653e
00000250: 9fc4 b4be 9364 c5be a620 c3be e8f6 e53e
00000260: 75c1 b93d 5ead abbe 41b6 17bd 34dd f63d
00000270: 4ae8 053e 1351 33be 03e1 e43c 33f3 24be
00000280: 54cd 473e 4c8b 9e3d 2793 d7be f0dc 52bf
00000290: 3a97 c7be 2a7b 92be 7b9e df3d 320b 91bf
000002a0: 6919 c5bf d9bd 34bf dbb2 42be a964 69be
000002b0: a926 1abf 8d62 53bf 5a87 72bf c7f4 95be
000002c0: cbbd 0bbf c6e9 8fbe 683d b0bd 3e72 4f3b
000002d0: 213b f2be f4ca 11bf 0baf 7bbe cc2a 5b3d
000002e0: 4b5a 643d 7a08 4fbe 721c 34be 257b 033e
000002f0: 9398 633e 7e86 9a3d 4887 f7bb 6a55 9cbd
00000300: 954b 813e bc3b bc3e cc73 1d3e d709 84bc
00000310: 09cb b8bd 9d2b afbd 3df9 793e 3a3d 2abb
00000320: 1d0f bebd 8175 93bd b185 be3e 1229 743e
00000330: 34cb acbd af30 f2bd 38d0 29be 6021 45be
00000340: c9e6 153c 0eb9 6e3c 27b3 4d3e 50e0 97be
00000350: ceab d0bc fb7b debd ec39 24bd 3304 113f
00000360: 0eef 9fbe b363 73bd 70b1 693e 5e27 943d
00000370: c061 933f fd50 f33d 92e6 80be 00f5 fcbd
00000380: 9c2c b53d 94de b7bd f472 af3c a4af 98bc
00000390: 00ce 95bd d45a 83bd 880e 4cbc 5b42 a8bd
000003a0: 4874 48be 0b17 afbd d0ef e6bc 35a2 81bc
000003b0: 403e 3ebe 1be9 29bf 5f60 24bf fffc 50be
000003c0: 07b8 45bd 2a4b d3bd 27e9 4fbf 1bf3 37bf
000003d0: 019f d9bd 3427 28be d33c e3bd 6ef9 56be
000003e0: b04f 20be f75c 253e c225 ffbd 3729 9d3d
000003f0: dad2 65be 6ffc 04bf f902 eabc 0271 ab3d
0.053450577 0.12807922 0.10138793 0.062350363 5.039529e-05 -0.07843222 0.070967406 0.20012087
0.023417056 -0.28511655 -0.14628394 0.00011368349 0.3045348 0.2749214 -0.35629523 0.11613801
0.00074847497 0.030777669 -0.019293379 -0.18691196 0.07115092 -0.16245022 -0.42630902 -0.42281234
-0.025674772 -0.53858495 -0.36764222 -0.007270103 0.80268145 0.71484387 -0.26508313 -0.5434262
-0.03005164 0.5734612 0.61223966 0.20727865 -0.14994505 -0.44997144 -0.37526733 0.024987612
0.71742195 0.62151384 -0.15306906 -0.78505075 -0.4600585 0.46824467 0.60462856 0.1001309
-0.24411897 -0.37108862 0.14147183 0.47105867 0.508461 0.6864415 0.21920176 -0.52120817
-0.088280246 0.3501867 0.7297027 0.35384807 -0.70035195 -0.3736487 -0.014999419 0.5592619
0.21180499 -0.6613342 -0.57666963 -0.10901449 0.052303575 0.091712505 -0.1855872 -0.094509445
-0.35131484 -0.1782241 0.002155754 0.13091849 0.056031026 -0.014335662 -0.10202596 -0.23673825
0.004602418 -0.025816694 0.29225534 0.2381937 -0.15066415 0.07483335 0.16433588 0.24891426
0.13662198 0.28387186 -0.043692432 0.19406515 0.15684043 -0.2618736 0.13421391 -0.032358527
0.11383877 0.2747142 0.15841532 0.0082980925 -0.05745304 -0.013566285 -0.011420305 -0.017094428
0.11379532 0.039243408 -0.12091297 0.013656368 -0.12127972 0.111560196 -0.08343148 0.10958626
-0.03947426 0.20979056 -0.11626649 -0.0011202551 0.06286148 0.1632264 0.07405027 0.21108799
0.07576482 -0.12227529 0.14104503 -0.15491381 0.09440615 0.60868895 0.39022303 0.16713229
0.16847315 0.35141134 0.55831885 0.27369043 0.26303625 0.81127954 0.5657519 0.27137998
0.3497282 0.2906513 0.67596895 0.23299575 0.22611505 0.96129 0.77839214 -0.15515348
-0.31136578 0.3430848 0.6259246 0.22449806 -0.3530626 -0.38553295 -0.38110846 0.44914937
0.09070102 -0.33530706 -0.037039045 0.1205391 0.13076892 -0.17511396 0.027939325 -0.16108398
0.1951192 0.077414125 -0.42104456 -0.82368374 -0.38982564 -0.28609592 0.109188996 -1.1331542
-1.539838 -0.70602185 -0.1901354 -0.22792305 -0.6021524 -0.8257225 -0.9473778 -0.29288313
-0.54586476 -0.28108042 -0.08605462 0.0031653787 -0.47310737 -0.56950307 -0.24578492 0.05350761
0.055750173 -0.20218077 -0.17588976 0.12839945 0.22226171 0.075451836 -0.0075539686 -0.07633479
0.25252977 0.36764324 0.15376204 -0.016117973 -0.09023101 -0.085532404 0.24411483 -0.0025976435
-0.092802264 -0.072001465 0.37211373 0.23843792 -0.084371954 -0.11825692 -0.16583335 -0.19251013
0.009149262 0.014570488 0.20087872 -0.29663324 -0.025472548 -0.10863491 -0.0400943 0.5664703
-0.31237072 -0.059421252 0.22821593 0.07234071 1.1514206 0.11880682 -0.2517591 -0.123514175
0.08846399 -0.08978 0.021417119 -0.01863844 -0.07314682 -0.064138085 -0.012454636 -0.08215781
-0.19575608 -0.08549317 -0.028190523 -0.015824417 -0.18578434 -0.66371316 -0.6420955 -0.2040901
-0.048271205 -0.10317071 -0.8121514 -0.71855325 -0.10626031 -0.16421205 -0.11095586 -0.20993587
-0.15655398 0.16148745 -0.124583736 0.07673877 -0.22443715 -0.51947683 -0.02856587 0.08371164

encoder.9.bias f4 [128]
00000000: 0ce0 f33d 1e74 08bd 00b0 d13c 7ec1 95be
00000010: c338 9f3b 5153 aabd 732a 333d bca5 c63d
00000020: 83e0 77bc 7e83 c93d d96d 973e 93ac 80be
00000030: 9415 bfbc 4ced a9bd eaa5 eabd 554b 523a
00000040: a5ef 01be c061 a13c 7de2 e6bd 5662 6abe
00000050: 7838 58bd 1a92 b4bd e7c2 fd3c 99ab 4ebe
00000060: ca4a 65bc 39fd d4be 929e 7fbd 9e42 4ebe
00000070: 8607 29bc bd1c b0bd cc0f 0b3d 5392 aabd
00000080: 517f 2e3e 032d e43c d559 13bd 4ce6 913d
00000090: 172b 8f3b 9b1f aa3d 7b31 45be 7d23 ff3c
000000a0: d98d d83b c4a2 703e 07ef 1bbe cf1e a03d
000000b0: ca81 d9bd 1201 373c 7380 94be 6d05 9bbe
000000c0: bb21 223e d94c adbb c730 b73e 7ef6 c1bd
000000d0: beea 113d 19ec 453d e644 1b3e f2c4 02bd
000000e0: 710f 26be 4745 e8bd 5227 82be e9cd a03d
000000f0: c896 6bbd fca0 303e b1af babd 3a3b 57bd
00000100: b457 48bc 6443 563d 7c7c d63d f557 a9bd
00000110: 440d 14bf 4e8f 4ebe 5b44 213c d4f4 35be
00000120: 5bff 823e 0525 873b 15cf b73d 4173 083e
00000130: d6a5 15bc 421c e73e b7f0 9e3c 021c 13be
00000140: 5ac9 e63d 6fc6 5fbe 0d40 9bbd e9bc 533c
00000150: 42fa 0e3e b423 22be ca82 813c dd05 83bd
00000160: b9ca 9d3e 29f2 a83d c216 85bd 8f64 97bc
00000170: 79e6 fd3c 90e7 9dbd 2f7b 8a3c a260 afbe
00000180: 777c fcbc bd2f 3c3c 29fc 8ebe 2c2b 52bc
00000190: 1d36 283a 9254 83be 94e5 f7bd f8a9 b13e
000001a0: 31d8 8abc a0c6 0f3d 1757 a33c 36c0 9dbe
000001b0: 6b43 993d 0c28 d43c fef6 fa3c 2de4 7e3e
000001c0: 8b9b 743e 4c29 fd3d f8eb 5ebe cf12 9b3d
000001d0: b015 043e 714e 0ebd 868b d1bd 3d17 85bc
000001e0: bf06 ccbe 4f18 e7bd 6f94 85bd 90f9 3b3e
000001f0: 6eae 2e3d 4df3 693c 86e6 9dbc cf77 4a3e
0.11907968 -0.033313863 0.025596619 -0.29249185 0.0048590614 -0.083166726 0.043741655 0.0969958
-0.015129211 0.09839533 0.29575995 -0.25131664 -0.023325719 -0.08297214 -0.11457427 0.00080220896
-0.12689073 0.019699931 -0.11273668 -0.22889075 -0.052788228 -0.08816929 0.030976726 -0.20182647
-0.013994882 -0.41599444 -0.062407084 -0.201426 -0.010316735 -0.085992314 0.033950612 -0.083286904
0.17040755 0.027853495 -0.035974342 0.07124004 0.0043691504 0.083068095 -0.19257157 0.031144852
0.0066087064 0.2349959 -0.152279 0.07818376 -0.106204584 0.011169689 -0.2900425 -0.30277577
0.1583318 -0.005288702 0.35779402 -0.09470843 0.03562426 0.048320863 0.15163001 -0.031926103
-0.16216828 -0.113413386 -0.25420624 0.07851774 -0.057516843 0.1724891 -0.09115542 -0.052546717
-0.012227941 0.052310362 0.10472962 -0.082687296 -0.5783274 -0.20171854 0.009842957 -0.17769176
0.25585446 0.004124286 0.08975045 0.13325216 -0.009133777 0.45138747 0.019401891 -0.14366153
0.112688735 -0.2185304 -0.07580576 0.012923458 0.13962653 -0.15833932 0.015809435 -0.06397603
0.30818728 0.082493134 -0.06498481 -0.018480567 0.030993687 -0.07710183 0.016904442 -0.34253412
-0.030821068 0.011485991 -0.27926758 -0.012827676 0.0006416755 -0.2565046 -0.121043354 0.34699988
-0.016948791 0.035101533 0.019938989 -0.30810708 0.07483562 0.025898002 0.030635353 0.2489173
0.2388746 0.123613924 -0.21769702 0.07571947 0.12898898 -0.034742776 -0.1023169 -0.016246432
-0.39848897 -0.11283933 -0.06522452 0.1835692 0.042646818 0.014279199 -0.019274961 0.19772266

encoder.10.weight f4 [128, 128, 1, 1]
00000000: d7f2 113e ae99 e2bd 0558 de3c 6e4d a3bd
00000010: 308a 0e3d 4e6a 6dbd 44d7 373f 63d9 8bbe
00000020: b541 453d 4c1f f9bd ece6 d73d b1b2 a73d
00000030: d0ad 2c3e f2e5 6c3f dc30 863b fe42 04be
00000040: a19c 433e 2565 063e d5ee e6bc 1fe3 e93d
00000050: decd 28bf 261a 533c a3d3 61bd 5947 5abe
00000060: a89e aabc 5090 af3e fc3a 413e 3869 eabe
00000070: 0c35 c23e 0b28 bd3e 46cf 9f3b bc52 943e
00000080: b021 0fbd 6099 11bf 0210 37bd 4280 eabd
00000090: bd0e c33d 9bca 353e 254d b73d 9fee 823d
000000a0: d477 123f 4e84 383f 61e9 b03d 7322 33be
000000b0: 35d6 833e 531b b33d c514 ec3e dab8 eabd
000000c0: 8b4e a63e 5459 6ebd e386 fd3e 67fe 42b9
000000d0: da16 233f 0b40 95be 5c08 673f f88d ec3e
000000e0: c847 cdbc ba84 933e 6991 90bd 05c2 e23e
000000f0: f941 90be 63c1 4fbf ffdd 2dbe 5c03 123d
00000100: 7dc5 a3bd 5d6f 1bbe 9576 8d3e 4e19 ad3e
00000110: e3e1 c63e 7a31 13bf 8396 6a3d 2e28 3f3e
00000120: 7863 943e ef16 72be bcc3 a43d ffc9 c83e
00000130: 5387 e13d aaaa a7be d797 753e 1597 39be
00000140: d4e8 833d f3af bd3e 3907 9a3e fedb 173e
00000150: 2315 25bd 4308 a13e fb94 bbbe c36e 2d3e
00000160: 426a 3bbe b071 cabe 0932 5a3d a8c4 c93d
00000170: 5db7 a5bc 5d7d f53c e788 d8be ed67 993e
00000180: 1a7a cdbc f54e b03c 9fbc 80bd 68cc ba3d
00000190: 466e debc 5349 663e 2f92 743e bfef 02bd
000001a0: 9f0e 6f3e 77cf 84bd 11e8 5dbe 2e16 783e
000001b0: eb0c 40be 3f6e 93be 2a68 a6be 0a33 953e
000001c0: 8cd1 adbd 9d55 ed3e 3a9c d83d 4906 63be
000001d0: 5fff 423f 16bf 24bd 3898 9cbe 45ad 523d
000001e0: 3740 29be 89f5 26be 3869 4fbe 4584 0b3d
000001f0: f874 4f3e e99c 303f 3e29 12bf d97d babe
00000200: 240b e2be e021 ad3d 25a8 08bd e7fd 303e
00000210: 0d72 6f3b 4746 353e c3f4 4d3f 773c 163f
00000220: 04f8 3bbd a051 dabd 6d44 5f3e b497 0c3e
00000230: 364a b43c 6727 92bd adfe d2bd a336 95be
00000240: 9deb 95bd 729e 00bd b224 e3be 2c04 df3e
00000250: 2a7e 073e 8844 fd3e 971c 98bd 68ab f43c
00000260: b6a0 b6be ec00 683d 260d afbd a65d 8e3d
00000270: 745a d7be 347c eabe 6676 8c3e 03cf 95bd
00000280: a500 393f d377 f3bd b810 22bd 7f8b 3d3d
00000290: 77a8 4dbf e840 aebd c5ec e7bd 6838 f43e
000002a0: 1409 66bf 28ce ea3d c095 283e 30fc 8b3e
000002b0: b463 c93d 6af3 bc3d 4582 24bf d82f 463e
000002c0: b830 c83c 02d8 013f bdfc 993e 8f4f 66be
000002d0: a5bc 073e 913d 99be d1d1 91be 4dd6 663e
000002e0: 692a 963e fcae 5cbe 722e 2dbe 8329 8cbe
000002f0: aede 57be 5b55 c9be 770e bc3a cf0a bdbe
00000300: da03 693d c1f7 32be 808f 153d 5319 8dbe
00000310: 0eb6 5c3e 3a7f 54be ced7 65bd 2d1a ca3d
00000320: 7cd9 7fbe 2ae4 ba3b f07b 11bd 8e10 cfbe
00000330: 3539 8bbe bc4f a5be 0044 83bd b076 043d
00000340: 72c7 e9bb ef0e 42be 1e2e aebc 5a37 5f3e
00000350: ef3c 80be 2f74 b6be ddf8 9b3d ae37 9c3e
00000360: f422 c6bd 3e09 503d b5f6 c73e 6094 bbbd
00000370: 71e1 773e 344c 82be 971e 07bf 2310 1f3d
00000380: 897f 6fbd 97dc 8bbd 8ed2 783d ff2b c23d
00000390: 3225 87bd 2b80 f1be ec2b 943e ff10 90be
000003a0: 66f2 41bf a16a 2a3e 45a9 27be ca4e 0d3f
000003b0: 97d6 683e 8729 5e3d d086 cabb 8914 35bc
000003c0: c776 6b3e 437a 07be a0aa 843f 47f3 763e
000003d0: eefe babe 12a1 4cbc 7d06 e6be cc05 6c3e
000003e0: 8e00 123e bb11 4dbe 9f8a efbd 20a8 9e3d
000003f0: 51e5 0d3e 456f a0bc 44aa 04bf a0e3 793d
0.14252792 -0.11064468 0.02714158 -0.07973753 0.034799755 -0.05796271 0.71812844 -0.2731429
0.048158366 -0.121641725 0.10542092 0.081883796 0.16863179 0.9253837 0.00409518 -0.1291618
0.19102718 0.13124521 -0.028190056 0.11420273 -0.6593913 0.012884652 -0.055133473 -0.2131628
-0.020827606 0.3428979 0.18870157 -0.457834 0.37931097 0.36944613 0.004877004 0.2896937
-0.034944236 -0.56874657 -0.044693 -0.114502445 0.095242955 0.17753069 0.08950261 0.063931696
0.57214093 0.7207688 0.086382635 -0.1749361 0.25749364 0.08745446 0.46109596 -0.11461039
0.324818 -0.05819066 0.49516973 -0.00018596054 0.63706744 -0.29150423 0.9024713 0.46202064
-0.025058642 0.288122 -0.07058985 0.4428865 -0.28175333 -0.8115446 -0.16979216 0.035647735
-0.07996652 -0.151792 0.27629533 0.33808368 0.38844213 -0.5749737 0.057272445 0.18667671
0.2898214 -0.23641561 0.08045146 0.3921661 0.11012139 -0.32747394 0.23983704 -0.1812404
0.06440893 0.370483 0.30083635 0.14830014 -0.04030336 0.31451616 -0.366371 0.16936783
-0.18302253 -0.39539862 0.053270373 0.09851962 -0.020229036 0.029967004 -0.42291948 0.29962102
-0.025082637 0.021522025 -0.062859766 0.09121019 -0.027152192 0.22488908 0.2388389 -0.03196692
0.23345421 -0.06484883 -0.21670558 0.24227211 -0.18754928 -0.2879505 -0.32501346 0.29140502
-0.084872335 0.4635438 0.10576673 -0.22170366 0.76170915 -0.040221296 -0.30584884 0.051434774
-0.16528402 -0.16304602 -0.20254982 0.03406169 0.20259464 0.68989426 -0.5709418 -0.3642414
-0.44149125 0.08453727 -0.03336348 0.17284356 0.0036536485 0.1770259 0.804516 0.5868601
-0.045890823 -0.106601 0.21803446 0.13729745 0.022008043 -0.07136422 -0.10302482 -0.29143247
-0.0732033 -0.031401105 -0.44363934 0.4355787 0.13231722 0.49466348 -0.07427328 0.02986689
-0.35669488 0.056641504 -0.0854743 0.06951456 -0.42061198 -0.45797884 0.2743408 -0.07314875
0.7226661 -0.11888089 -0.039566725 0.046275612 -0.8033518 -0.08508474 -0.11324457 0.47699285
-0.898576 0.114651024 0.16463375 0.2734084 0.0983347 0.09226115 -0.64261276 0.19354188
0.024437293 0.50720227 0.30075637 -0.22491287 0.13255556 -0.29929784 -0.2848039 0.22542687
0.2932923 -0.21551126 -0.16912249 -0.2737542 -0.2108104 -0.39322934 0.0014347573 -0.3692231
0.05688844 -0.17477323 0.036513805 -0.27558383 0.21553823 -0.20751658 -0.05611401 0.09868274
-0.24985307 0.005703469 -0.035518587 -0.40442318 -0.27192083 -0.32287395 -0.06409454 0.03233975
-0.0071343714 -0.18951009 -0.021262225 0.21798459 -0.2504649 -0.35635516 0.07615826 0.3051123
-0.096746355 0.050790064 0.3905541 -0.0915916 0.24207093 -0.25448763 -0.5278105 0.03883375
-0.058471236 -0.068291835 0.060747676 0.09481048 -0.06598891 -0.47168097 0.2893976 -0.28137967
-0.75760496 0.16642238 -0.16373165 0.5519835 0.2273811 0.054238822 -0.0061806217 -0.011052259
0.22994529 -0.13230233 1.0364571 0.2411624 -0.3652262 -0.012489574 -0.44926825 0.23049086
0.14258024 -0.20026295 -0.11696362 0.07746911 0.13857009 -0.019584307 -0.51822305 0.061008096
